results/ppo/best_ppo.pt (torch, 504969 bytes, 8 tensors)

log_std f4 [4]
000000 f4 e7 84 38 c7 4d ef bb 6f 12 a9 bb 5c 18 5b 3b
       6.337455e-05 -0.007302973 -0.005159668 0.0033431267

shared.0.weight f4 [400, 8]
000000 83 42 9c 3e ce f2 a4 3e 9f 0f db bd c5 c6 b6 3e
       0.30519494 0.32216495 -0.10696339 0.35698524
000010 01 5b bd bd 3b d7 b5 3d ab fb 56 be 24 44 7e 3e
       -0.09245873 0.088789426 -0.20994441 0.24830681
000020 0f 1a a7 3e 04 28 91 be e5 17 a7 3e fb db cc 3d
       0.3263707 -0.28350842 0.32635418 0.100028954
000030 f5 e3 8c 3e 43 01 6e 3d 26 0f 28 3e cb 73 65 bd
       0.27517667 0.058106672 0.16412029 -0.056018632
000040 86 e1 92 3e 8a 03 89 3d 9a cb 33 be 66 d4 d5 3d
       0.28687686 0.06690128 -0.17558137 0.104409024
000050 2a 28 24 be 61 26 08 bd 3a bc 33 be 44 83 7e 3e
       -0.16030946 -0.033239726 -0.17552271 0.24854761
000060 48 cf 93 be 28 2b 30 be 49 08 f1 bd b1 e0 51 be
       -0.2886908 -0.17203963 -0.117691584 -0.20495869
000070 a1 a3 28 3d 79 ef b2 be df 50 9d 3e d0 7a a1 be
       0.041171674 -0.34948328 0.30725762 -0.3153901
000080 17 61 9f 3e 3e 5c 72 3d f9 66 f7 bd 93 c9 83 3e
       0.3112876 0.05917 -0.12080187 0.25739726
000090 3a b4 85 3d 4a d9 a5 3e 7b 19 1c 3d 18 d1 e8 bd
       0.06528516 0.3239234 0.038110238 -0.113680065
0000a0 cf 4f c4 3d 41 94 d2 bd 91 f3 1a 3e 4d f4 b1 3e
       0.09585535 -0.102821834 0.15131976 0.347567
0000b0 f4 bf 61 3e 1c c7 11 be ea 5e 41 3e 83 fd 84 3d
       0.2204588 -0.1423611 0.18883863 0.06493666
0000c0 82 d0 36 3e 14 9e 63 be 62 1e be be cf 27 01 be
       0.17852977 -0.22228271 -0.37132555 -0.12612842
0000d0 df 8d 8b be 48 cc 9e 3e 74 03 b4 3d 53 ea 21 3e
       -0.27256677 0.3101523 0.08789721 0.15812044
0000e0 19 79 f8 3d 53 ed 53 bb 17 d1 8e 3e a7 c3 73 be
       0.121324725 -0.0032337501 0.27893898 -0.23805104
0000f0 1e 2b 06 3d 3c ef 67 be 59 6b a9 3d bb eb 00 be
       0.032755964 -0.22649854 0.08272428 -0.12589924
000100 0e 30 fe 3d e9 6b 9a bd aa bb 9e 3e a4 b4 54 be
       0.124115095 -0.075401135 0.3100255 -0.20772034
000110 83 f9 66 be 49 28 5b be 2f 50 a8 3e 45 c1 f1 3d
       -0.22556119 -0.21402086 0.32873675 0.11804441
000120 b7 1d be 3e bd b6 9d be 45 ab c3 be 14 d6 91 be
       0.37132046 -0.3080348 -0.38216606 -0.2848364
000130 11 d4 86 be 36 c9 26 3e d6 c5 1a 3e ce 7f aa 3e
       -0.2633367 0.16287693 0.15114531 0.33300632
000140 3d fa 3c be 72 80 82 be f7 19 48 3e 11 22 05 be
       -0.18454833 -0.2548862 0.19541155 -0.13001277
000150 b6 26 6b 3e de 1f 7f bd 66 28 40 3e 79 8e 96 be
       0.22963986 -0.06228625 0.18765411 -0.29405573
000160 f0 38 3a be 1a c0 da 3d b1 da 99 3d ec cd 98 bd
       -0.18185782 0.10681172 0.07512415 -0.074611515
000170 4c ee 5e 3e 24 0d 8a 3e 14 e1 91 be b8 b0 45 be
       0.2177059 0.2696315 -0.28492033 -0.19305694
000180 22 ab b2 3e b7 2d e6 bd 75 b9 0d be f0 20 bb be
       0.3489619 -0.11239188 -0.13840277 -0.36548567
000190 14 41 58 be dd 65 d7 3d 27 51 99 bd 85 02 90 be
       -0.21118575 0.10517476 -0.07486182 -0.28126922
0001a0 74 3b 48 3c 1a 7a 86 be 9c bd ae be 2a e7 56 be
       0.012221206 -0.2626503 -0.34129035 -0.2098662
0001b0 4f ed a9 be 44 d8 79 be 8a 13 c5 3e 47 ab a2 3d
       -0.33188865 -0.24398905 0.3849147 0.07942825
0001c0 45 d3 e1 3d 72 94 ad be 6b db 7e be 9f 27 d6 bd
       0.110266246 -0.33902317 -0.24888389 -0.10456776
0001d0 ea 53 99 3d a2 57 a7 be 58 c2 3f be fc aa 65 be
       0.074867085 -0.32684046 -0.1872648 -0.22428507
0001e0 e7 a8 1c 3c c9 71 02 be b1 94 fd bc 92 8d 6f be
       0.009561754 -0.12738718 -0.03095469 -0.23393849
0001f0 bd ec 77 be 11 8b 48 be d2 10 18 be c8 c8 92 be
       -0.24211402 -0.195843 -0.14850166 -0.2866881
000200 30 41 9f 3e da 70 85 bd 68 1a ac 3e 06 b3 07 3e
       0.31104422 -0.06515665 0.33613896 0.13251886
000210 04 40 9d be 0a 88 8d 3e 75 c4 01 be ce b3 15 be
       -0.30712903 0.27642852 -0.12672599 -0.14619371
000220 05 2e 9f be ff c2 bd be 8a 27 d1 3d a2 83 67 bd
       -0.31089798 -0.37062833 0.102126196 -0.05652202
000230 e5 5a 14 3e 12 dd 94 be 73 73 82 3e 06 4e 8f be
       0.14487799 -0.29074913 0.25478706 -0.27989215
000240 65 27 8a bd 0d 8f b5 3d c7 18 4e 3e 46 51 a9 3e
       -0.06745795 0.088651754 0.2012664 0.3306982
000250 32 a8 b6 3e 99 19 9f be df 75 a6 3d d4 ad 3a be
       0.35675198 -0.31074217 0.08127951 -0.18230373
000260 dd 0f 48 bd 39 8d 96 be c6 15 b6 3e 13 de 8c be
       -0.048843253 -0.2940462 0.35563487 -0.2751318
000270 e0 0f 5a 3e f1 e0 25 3e 56 12 d5 3d 96 fa 5b be
       0.21295118 0.1619909 0.10403888 -0.2148231
000280 12 72 b5 3e a4 36 ba 3d d4 15 84 3d 07 13 ac be
       0.3543859 0.09092453 0.06449476 -0.33608267
000290 b2 65 25 3e 5e 3c 5f bd dc 81 49 be 20 f3 ab 3e
       0.16152075 -0.05450093 -0.19678444 0.33583927
0002a0 42 f0 97 3d 38 73 55 be 20 89 4d be 27 53 a0 3b
       0.074188724 -0.20844734 -0.2007184 0.004892725
0002b0 3c c6 5d 3e 42 f5 b7 bd 1f ca 70 be 97 8d 04 be
       0.21657652 -0.08982326 -0.23514603 -0.12944637
0002c0 b9 01 8d be 09 5b 03 3e 45 9c 9e 3e 8a b5 b3 be
       -0.27540377 0.12827696 0.309786 -0.3509944
0002d0 be 22 c0 3d 65 bd 60 3e 34 46 1d 3d 9f a1 12 be
       0.093816265 0.21947248 0.03839703 -0.14319466
0002e0 a4 8b 5a 3e 11 99 6f 3e f7 81 28 3e b6 5a 76 bd
       0.21342331 0.23398234 0.16455828 -0.060145102
0002f0 1b 42 d5 bd eb 6b 6d 3d 8d 2f c1 bd 90 2c 09 be
       -0.10412999 0.057964247 -0.09432898 -0.13395905
000300 28 86 87 3e 8b 3e b1 3e 85 18 45 bd 6e fa a5 bd
       0.2646954 0.3461803 -0.048119087 -0.08104406
000310 59 74 8c bb 78 16 ea bc 4f 87 b2 3d be da f4 3d
       -0.0042863307 -0.028575167 0.08717214 0.11955784
000320 f3 29 b5 be e6 b1 15 be 01 00 ab 3e c2 aa 2c 3e
       -0.35383567 -0.14618644 0.3339844 0.16862014
000330 d2 a2 6d 3a c3 89 61 be 15 aa 88 be 6c 2e b3 be
       0.00090650946 -0.22025208 -0.26692262 -0.34996355
000340 63 46 f9 bd a6 57 0a 3e bd b8 71 3e c7 e3 46 3e
       -0.12171628 0.13509998 0.23605628 0.19422828
000350 6b 56 a9 be f1 7e 6c be b0 09 a4 bd 55 23 c1 3e
       -0.33073744 -0.230953 -0.0800966 0.3772227
000360 8d 32 55 3d 7f 50 b3 bd df 39 16 3e b8 51 f0 bd
       0.052050162 -0.08755588 0.14670514 -0.117343366
000370 12 95 62 be 81 9c 92 3e 8f 3b 3f be cc 8f 97 bd
       -0.22127178 0.28635028 -0.18675064 -0.07400474
000380 f8 c1 c5 be 75 95 89 3e 0c d6 8e 3e 99 d0 13 3e
       -0.3862455 0.2687184 0.2789768 0.14435042
000390 a6 a6 89 be f7 c1 be be 03 b2 aa be 8f 9a 97 3e
       -0.26884955 -0.37257358 -0.33338937 0.29610106
0003a0 59 b2 37 3e 45 bb a2 3e 3d 80 46 3e a8 23 e4 3d
       0.17939128 0.317835 0.19384857 0.111396134
0003b0 05 5a 53 3b 32 4e 90 be f0 0c b2 be 02 51 b5 be
       0.00322497 -0.28184658 -0.34775496 -0.35413367
0003c0 c3 6d 2d 3e da bd 4a be f2 13 be bd 10 c9 66 be
       0.16936402 -0.19798985 -0.09281148 -0.22537637
0003d0 3f c9 62 bd f6 fd 8f be 08 0e 92 be 77 ab 16 3e
       -0.055367704 -0.28123444 -0.2852633 0.14713846
0003e0 1d 25 03 be 44 78 81 3e d6 c5 0e be b0 21 94 be
       -0.12807126 0.25287068 -0.13942656 -0.28931952
0003f0 05 25 94 bd 2c 3b 43 be 19 c7 1f be c0 3c bf be
       -0.072336234 -0.19065541 -0.15603293 -0.37351036

shared.0.bias f4 [400]
000000 30 cb 5f be 78 29 49 3e 7c c8 86 3e 89 ff be 3e
       -0.21854854 0.19644725 0.26324832 0.37304333
000010 5a 0d 95 be 6a 59 c2 3e 2a a2 a9 3e af 42 d1 3e
       -0.2911175 0.37958843 0.33131534 0.40871188
000020 38 2d 76 3e 9d 0b 05 be 9a 19 aa 3e 7e b7 c5 3e
       0.24040687 -0.12992711 0.33222657 0.38616556
000030 60 3a d2 bd 1d e9 0e bc 49 1e ae 3e 56 94 b0 3e
       -0.102650404 -0.008722571 0.3400748 0.3448817
000040 72 9e 98 3e 3e 3d aa 3e 91 d1 09 be 9f 0b 65 bc
       0.29808384 0.3324985 -0.1345885 -0.0139798215
000050 23 4f c6 bd 5e 42 7c 3e 5b de 10 3e 8e e5 6c be
       -0.09683063 0.24634692 0.14147322 -0.23134443
000060 49 dc 46 3b 3b c2 70 be e4 64 97 be a3 e0 c4 3e
       0.0030343703 -0.23511593 -0.2956916 0.38452634
000070 b3 3b 03 be 4b 3f 5e 3e f9 5e d1 bc 4b 08 84 bc
       -0.12815742 0.21703832 -0.025557982 -0.016117236
000080 66 b4 33 3d 51 5e a9 3e 78 01 0a 3b 74 db b2 3e
       0.043873213 0.3307977 0.0021058004 0.34933054
000090 45 75 88 3e 9c a3 99 3e 61 9c 8f be d8 dc e7 bd
       0.2665197 0.30007637 -0.28048995 -0.113214195
0000a0 c5 4e 72 be 8e 80 0b bd 01 5a 5e bc 4f 11 08 3e
       -0.2366286 -0.034058146 -0.013571263 0.13287853
0000b0 1a 4c c2 3e 6a dd 61 3e 23 c2 48 be 36 33 3d be
       0.37948686 0.22057119 -0.19605307 -0.18476567
0000c0 97 59 a8 3e a6 fb 9e 3d f1 32 28 3e 47 8e 0e be
       0.32880852 0.07762842 0.16425683 -0.13921462
0000d0 53 1f 5d 3c e9 e6 22 3e 03 54 55 be a1 df 96 3e
       0.013496238 0.15908398 -0.20832829 0.2946749
0000e0 78 56 70 3e 12 68 29 be a5 b2 cd bd a2 e5 23 bd
       0.23470485 -0.16543606 -0.10043839 -0.040013917
0000f0 b3 90 da 3d 09 7b 9e bd 28 3a c9 3e 46 9c 9d be
       0.106721304 -0.07738311 0.39302182 -0.3078329
000100 5e 4c 27 be ee 54 2e be c9 6d 1d 3e 13 b9 e7 3d
       -0.16337726 -0.17024586 0.15373911 0.11314597
000110 b4 53 2d bd 49 b1 b9 3e 52 21 85 be 4a 52 34 3e
       -0.042316154 0.3626807 -0.26001984 0.17609516
000120 f9 b0 1d be ff 49 06 bd bc 6c 9e be f9 38 6a be
       -0.15399541 -0.032785412 -0.30942333 -0.22873296
000130 73 35 82 be e6 4e 5e 3e 7f 00 8e bd 4e a6 7e 3e
       -0.25431404 0.21709785 -0.06933688 0.24868128
000140 4d a2 14 be ed c3 32 bd c7 61 d7 3d a9 8a b7 3e
       -0.14515038 -0.04364388 0.105166964 0.35847977
000150 c8 3f 35 bd d6 a1 89 3e cd 9d 23 3e 89 53 8e 3e
       -0.04425028 0.26881284 0.15978165 0.27798107
000160 6a c2 93 3e 3a 5b 50 3e 38 57 4b bd 01 a7 62 bd
       0.28859264 0.203473 -0.049643725 -0.05533505
000170 ad c9 4f 3e 9e 67 84 3e 3b c1 36 3d 54 f3 70 3e
       0.20291777 0.25860304 0.044617873 0.23530322
000180 cc 2b 2c be cb 46 85 3e ac 52 66 3b ad e3 49 be
       -0.16813582 0.26030573 0.003514449 -0.19715758
000190 c4 cc ff bd 55 d2 7b be 11 23 0c 3e 07 77 35 be
       -0.12490228 -0.24591954 0.13685252 -0.17721187
0001a0 8d f6 4c bd a6 cc d8 3c 78 c8 24 be bf b2 8a 3d
       -0.050039817 0.026464771 -0.16092098 0.06772374
0001b0 10 82 76 3c 50 65 33 3e 63 30 a3 3e 67 ee 39 be
       0.015045658 0.17519116 0.31872854 -0.1815735
0001c0 25 22 83 3e ce 8e 5f 3d 7d 27 1b be 20 96 d3 bd
       0.25611988 0.05457955 -0.15151782 -0.103313684
0001d0 3b 2f 1d 3e ac ef 03 3e 19 9d 4f 3d 0e 87 0b be
       0.15350048 0.12884396 0.05068693 -0.13625738
0001e0 fc ea 79 3e 9c c9 c3 3d 32 4f 9c be d0 ad c7 3a
       0.24406046 0.09559938 -0.3052917 0.0015234295
0001f0 eb c6 38 bd a7 03 dc bd 0a 94 27 be 8e f7 6f be
       -0.045111578 -0.10742884 -0.16365066 -0.23434278
000200 2e bb cf 3e 80 a4 8b be 63 48 c8 3e 10 25 85 be
       0.40572494 -0.2727394 0.39117727 -0.2600484
000210 2f 2d 3d bd c0 a4 b6 bd f8 9b 08 be ee 25 3c 3e
       -0.04618567 -0.08918142 -0.13340747 0.18373844
000220 f2 5b 8a 3e fc 82 44 be 7a 11 d7 bd 57 87 7c 3e
       0.27023274 -0.19190592 -0.1050138 0.24661003
000230 d1 bd a7 3a 8a 00 10 3e 87 ff 7d 3e 36 b1 8e bd
       0.0012797659 0.14062706 0.24804507 -0.06967394
000240 de 20 15 be a1 90 49 3e 44 4b c7 bd 76 44 3c be
       -0.14563319 0.19684078 -0.09731153 -0.18385491
000250 41 95 fd bd 53 cf 03 be f0 9e d3 3e 74 08 fe 3d
       -0.123819835 -0.12872057 0.41332197 0.12403956
000260 18 36 59 3e ff 1f d4 3d 53 e0 45 be 98 e3 a4 3e
       0.21212041 0.10357665 -0.19323854 0.3220489
000270 bd de 9a 3a 3a aa d7 bc f0 f7 b3 3e 11 53 02 be
       0.0011815649 -0.026326288 0.351501 -0.12727
000280 03 ed 05 3e 25 cd 86 be 0f 04 7b 3e db 4e 43 3e
       0.13078694 -0.26328388 0.24513267 0.1907305
000290 5c 71 7b be 4b e6 82 3e 19 7f dd 3d db 11 0e be
       -0.24554962 0.25566325 0.108152576 -0.13873999
0002a0 61 ee b5 3e bc 6b 5c 3e 7e c1 3d 3e aa ee c1 bd
       0.3553343 0.21525472 0.18530843 -0.0946935
0002b0 e3 fc 18 be 93 36 15 be 47 b2 4c 3e 72 69 18 3e
       -0.14940219 -0.145716 0.19989882 0.14883974
0002c0 d8 43 32 be 74 eb c5 3e 27 f8 87 3e b6 19 9b bd
       -0.17408693 0.386562 0.26556513 -0.07573263
0002d0 16 2b 78 3e 5c f5 c8 bd 45 5f 30 3e b8 63 b6 3e
       0.24235186 -0.098124236 0.17223842 0.35622954
0002e0 9d 08 8e be b9 e8 08 be 05 88 1f 3d 7f fb e1 3d
       -0.27740946 -0.13370027 0.038948078 0.11034297
0002f0 58 27 7b be 2e c3 3f be b8 ee d1 3c ae c2 2e 3c
       -0.24526727 -0.18726799 0.025626525 0.010666532
000300 65 7e 06 3e 74 09 d3 3d 00 01 0b 3e 37 d4 84 3d
       0.13134153 0.103045374 0.135746 0.06485789
000310 1f 88 be 3d 46 9d 25 3d 63 a8 42 3e 1a 0a 9c 3e
       0.09303307 0.04043319 0.19009547 0.30476457
000320 86 cf 01 be b5 92 0a be 9a 1a 5e 3e 73 01 66 be
       -0.1267682 -0.13532527 0.21689835 -0.2246149
000330 01 a7 94 3e da d8 5f 3e 6b d7 c2 3d c3 b6 ea bd
       0.29033664 0.21860066 0.09513744 -0.1146064
000340 26 27 89 3d b1 cc 78 be 2c e9 8a be 39 a6 ce 3e
       0.0669692 -0.24296834 -0.2713102 0.40361193
000350 86 c2 94 be 4f d8 80 be c0 ec b8 bd c8 b7 99 3d
       -0.2905466 -0.2516503 -0.090295315 0.075057566
000360 fb 01 0b 3e db be f0 bd 15 c5 b7 3c f4 da d3 bc
       0.13574974 -0.11755153 0.022432843 -0.02586124
000370 fb 2e b8 3e e5 d7 bb 3e 26 3a 52 3e e0 4d 3e 3d
       0.35973343 0.36688152 0.20529994 0.046460986
000380 22 e9 a7 3e 56 bf 7e be ef 8e 55 3e b2 46 26 be
       0.32795054 -0.24877676 0.20855306 -0.16237906
000390 a5 54 aa 3e ee fc 91 be 32 a5 41 3e b6 08 8a be
       0.33267704 -0.28513283 0.18910673 -0.2695977
0003a0 f1 6f 87 3e 70 9e 06 3e 0a 1f b7 3e fd 86 5b be
       0.26452592 0.13146377 0.35765868 -0.21438213
0003b0 3d c6 94 3e bc 90 47 be cb 1d 14 be 0c 0e 46 3e
       0.29057494 -0.19488806 -0.1446449 0.19341296
0003c0 c6 80 98 bc d2 46 6b be 22 37 86 be d1 66 02 bd
       -0.018616091 -0.22976235 -0.26213938 -0.031836335
0003d0 2b 28 22 3e e1 9b bf 3e 55 e3 a6 3e 83 ee 88 3d
       0.15835635 0.37423614 0.32595316 0.066861175
0003e0 fa d0 3b be 83 7a 92 be ed 34 be 3e b6 ea 2f be
       -0.18341437 -0.28609094 0.37149754 -0.17179379
0003f0 a0 32 85 bc f5 ab 7f be 8a 04 57 be 1d fb f8 3d
       -0.016259491 -0.2496794 -0.20997825 0.12157271

shared.2.weight f4 [300, 400]
000000 3a 33 fa 3c ae d0 17 bd b6 ab bb 3c 87 22 0a bd
       0.030542005 -0.037064247 0.022909027 -0.033724334
000010 40 cf 1f bc 8b 4d fe bc ae 13 0c 3d c0 1e e8 3c
       -0.009754002 -0.031042835 0.034198456 0.028334975
000020 a6 8b 75 bb e8 bf 85 bb 0d 0a cc bc 87 be 09 bd
       -0.003746727 -0.004081715 -0.024907136 -0.033628967
000030 09 f4 bd bc 63 b4 48 3c 68 60 84 bc 01 d0 dc 3c
       -0.023187654 0.012250039 -0.016159251 0.026954653
000040 ff 89 38 3a 43 40 b0 bb 5c 41 14 bd 42 33 72 3c
       0.0007039606 -0.0053787543 -0.036195144 0.014782729
000050 ed 45 55 bd fe 04 92 3b 24 5b 42 3c 30 16 b2 3b
       -0.05206864 0.0044561615 0.01186255 0.005434774
000060 c9 b2 00 3d 4c da db 3b d1 89 95 bc 05 fe 2b bd
       0.031420503 0.0067093726 -0.018254193 -0.0419903
000070 65 1c 53 bd 9b 47 9c 3c 6b b7 b0 3c 5b 52 35 bd
       -0.05154075 0.019077113 0.021571836 -0.044267993
000080 4b 0b 07 3c 61 d0 cd bc 1d 2a 1b 3d 36 cb c5 bc
       0.008242439 -0.025123777 0.03788196 -0.02414475
000090 2a 36 0c 3d 63 49 e9 3c c3 12 00 3d 81 b8 f0 3c
       0.034231342 0.028477376 0.031267893 0.029384853
0000a0 ef 45 26 3c 57 57 40 3c df de 4b bd 2b d5 8d bc
       0.010148509 0.011739573 -0.049773093 -0.01731356
0000b0 f2 ef 54 bc 99 da 8b 3c c9 f6 c4 bc 31 a8 98 3c
       -0.012996661 0.017072009 -0.024043458 0.018634887
0000c0 5c 27 dd 3c 6b 3e 88 3c 37 c7 a0 3c fa fc 23 bc
       0.026996307 0.016631326 0.019626243 -0.010009045
0000d0 3a 1f 91 3c 89 be b9 bc 42 c8 2f 3d 3b 5a ff bb
       0.017715085 -0.022673862 0.04291559 -0.0077927387
0000e0 b4 27 1a bc d0 64 42 bd b9 45 27 3d ed 17 66 bc
       -0.00940888 -0.047459424 0.040837977 -0.01404379
0000f0 d6 77 f6 3c ff a2 1c bd 1b 44 48 bd 28 0d e7 bb
       0.03008644 -0.038241383 -0.048893075 -0.007051129
000100 83 f9 31 bd 43 01 c2 3b 13 02 ab bb dd a6 cc bc
       -0.043450844 0.0059205606 -0.005218753 -0.02498191
000110 5a ed c7 3c 2b a2 d3 3c 2d 4c 4a bd 26 64 40 bd
       0.02440517 0.025834164 -0.049389053 -0.04697051
000120 f2 6c cf 3c cd 3d 0f bd e8 1b d8 3b 23 a5 9e bc
       0.025320504 -0.034971047 0.0065951236 -0.019365853
000130 db de 70 3b 1f cd 0c bd 51 4f 9c bb b9 b3 ca bc
       0.0036753926 -0.034375306 -0.0047701974 -0.024743902
000140 51 b7 da bc 63 9b f0 bc 7d 11 a7 3b 13 42 d2 3c
       -0.02669874 -0.02937097 0.0050985203 0.025666272
000150 b6 db 09 bc de c6 fe bb cf fe 0c 3d 43 26 07 3d
       -0.0084142 -0.0077751717 0.034422692 0.032995474
000160 39 46 62 bc 24 af 41 bd 2f d0 04 3c a3 63 15 3c
       -0.013810688 -0.047286168 0.008106275 0.0091179935
000170 c5 7e 3c bd bc d2 52 bd ff 8c a0 b8 05 1c 2b 3d
       -0.046019334 -0.051470503 -7.655657e-05 0.04177477
000180 1c cb 48 bd 4e 2d fc bc d9 90 bd bc b5 0f 47 bd
       -0.049021825 -0.030783322 -0.023140358 -0.048598964
000190 6a 69 1a bd 1e a0 1e 3d f1 b8 fd 3c 12 12 1c bd
       -0.037698187 0.03872692 0.030971976 -0.03810317
0001a0 c1 f6 e8 bb 5c 97 40 bd 2e 77 76 3c f8 dc 25 bd
       -0.0071094935 -0.047019348 0.015043063 -0.040493935
0001b0 bd 9f 01 bd 92 f3 e9 bc 60 06 23 3a 47 9e 05 3d
       -0.03164648 -0.028558526 0.00062189065 0.03262165
0001c0 7f 0f de bc 90 8d 0e 3b 03 86 10 3d 41 14 0a bc
       -0.027106998 0.0021751858 0.035284054 -0.0084276805
0001d0 1a bd e0 39 b6 2b 08 bb a0 b0 06 bc 87 be eb 3c
       0.000428655 -0.0020778007 -0.008220822 0.028777374
0001e0 e0 73 a4 3c 28 33 02 bd 77 55 3b 3d 87 c0 ba 3c
       0.020074785 -0.031787068 0.045735803 0.022796882
0001f0 77 03 57 bc bd 7a 11 3d de dd d0 ba 8a 37 e0 3c
       -0.013123385 0.035517443 -0.0015935262 0.027370233
000200 17 8e 48 bd 2b 1b 24 3d 3d d3 24 3d 0c 25 0f bd
       -0.048963632 0.040064972 0.040240515 -0.03494744
000210 c9 c3 51 bd a0 7c 8e bc 69 a7 14 bd 3d db e1 3b
       -0.051212106 -0.01739341 -0.036292467 0.0068925903
000220 45 2f 7a 3c 78 cf 09 bc 54 7b fb 3c 35 66 9f bb
       0.015270059 -0.008411281 0.030698456 -0.004864479
000230 0c eb 97 bc 71 cc 4d bd 96 3c 1d 3c d6 5e 59 bd
       -0.018544696 -0.0502438 0.009596964 -0.05306896
000240 be 9e f2 bb b2 c4 e8 3a 93 cf ff bc 3f 2e 15 3c
       -0.0074041774 0.0017758815 -0.031226909 0.009105264
000250 b8 86 57 3b a2 72 04 3d d1 bb c6 3c d9 8d 41 bd
       0.0032886695 0.032335885 0.02425948 -0.047254417
000260 f4 6c 32 bd 22 3f c7 bc 91 b8 26 bd 7e 62 11 3c
       -0.043560937 -0.024322096 -0.04070336 0.00887358
000270 5b 0e 1d bd 76 7e 37 bd 95 7f ea 3b 1a 39 d2 3c
       -0.03834377 -0.044798337 0.0071563222 0.025661994
000280 16 2e ad bc e8 62 46 bd 67 34 b5 39 fa 96 a0 3c
       -0.02114014 -0.048434168 0.00034562053 0.019603241
000290 14 f4 0d 3d f3 0a 10 bb ae db e1 3c b2 e3 2d bd
       0.0346566 -0.0021979182 0.027570572 -0.042453475
0002a0 77 21 26 3d 0b 5c 1f bd 02 d7 27 bd de 43 f0 3c
       0.04055926 -0.03890614 -0.04097653 0.029329237
0002b0 fd 88 2c bc 30 83 bb 3c f8 f3 2b bd b9 9f fc 3c
       -0.010530707 0.022889704 -0.041980714 0.03083788
0002c0 60 ad 2e 3d f9 76 03 3c 03 a1 0a 3d 99 9d 31 bd
       0.042645812 0.008023971 0.03384496 -0.043363187
0002d0 1c e0 92 bc 3e 52 09 3c 6c 6a b3 3c f7 73 08 bd
       -0.01792913 0.0083814245 0.021901332 -0.033313718
0002e0 9a 73 06 3d 36 51 ab bc e7 f3 07 bd d7 b8 83 3b
       0.03282509 -0.020912748 -0.033191588 0.0040198374
0002f0 54 1a 3c bd b5 46 41 bd 8a 33 5c 3c 57 e4 7c 3c
       -0.045923546 -0.047186572 0.013440022 0.0154353
000300 48 c9 4e 3c 93 ba 3f bc d9 05 2c bd e0 f2 3b bd
       0.012621231 -0.011702198 -0.041997764 -0.04588592
000310 4b 88 2a 3d 5a 44 48 bd 4a 9c 03 3c fc e4 0a 3d
       0.041633885 -0.04889331 0.008032868 0.033909783
000320 69 d5 fe 3c c9 3b 01 bd bb d7 ba bc 76 e3 2d bd
       0.031107621 -0.031551156 -0.022807946 -0.04245325
000330 0d 80 c9 3c 81 43 59 bd 4f 4d 4f bd a3 df f8 bc
       0.024597192 -0.053042892 -0.050610837 -0.030380076
000340 e5 26 0d 3d 11 6d e3 3c 86 6c ea 3c 72 e6 ff 3c
       0.03446092 0.027761968 0.028616201 0.031237815
000350 b0 4d d9 bc 12 fb 06 bd fc da 01 bd aa f7 30 3c
       -0.026526302 -0.032954283 -0.03170298 0.010801235
000360 93 c1 47 3c 9d a5 59 3b 98 f0 2e bd d5 78 1e 3a
       0.012192148 0.0033210285 -0.042709917 0.0006045227
000370 3a d4 0a bd ec ba 83 bc 72 f0 70 bc 54 ef 15 bb
       -0.0338938 -0.016080342 -0.014705764 -0.0022878246
000380 42 76 4c bd 74 b4 21 3d 24 8e e5 bc 6f db 86 3c
       -0.049917467 0.039478734 -0.02802188 0.016462056
000390 23 c6 e3 3c 0f 11 c2 3c 36 5b e8 3c 21 60 df 3c
       0.02780444 0.023689775 0.028363805 0.027267518
0003a0 14 a2 f2 3c ad 8a 98 3b 2e 87 c8 3c 8c 40 de bc
       0.0296183 0.0046552033 0.024478521 -0.027130388
0003b0 93 2f 07 bd 4c cf a4 3c 9f ad d1 3b 99 85 07 bc
       -0.033004355 0.020118378 0.006398871 -0.008271598
0003c0 64 9f 49 bd bd f7 3b 3c e4 8f 00 3d 73 6b 4e bc
       -0.049224272 0.01147264 0.031387225 -0.01259886
0003d0 9b 5d 7a 3b 9c 9f 77 3c e8 a7 63 bd d1 f9 73 bc
       0.0038202766 0.015113737 -0.05558005 -0.014891104
0003e0 62 5f c9 bc 70 d3 01 bd 08 8c c4 3c 35 25 3a 3d
       -0.024581615 -0.031695783 0.023992553 0.04544564
0003f0 54 20 92 3b 87 51 e3 3c d0 6b 26 bd 79 97 f9 3a
       0.00445942 0.027748836 -0.04063016 0.0019042335

shared.2.bias f4 [300]
000000 5a 09 da 3c a0 da f5 3c 4a cb a5 3d 29 c8 f7 3a
       0.026615787 0.030011475 0.08095415 0.0018904257
000010 f1 d7 f3 3c 9e fa 1b 3d eb 04 93 3d 32 49 c4 3b
       0.029766055 0.038080804 0.071786724 0.005990171
000020 7d c8 65 3d 3d e0 24 bb 3d bf e5 3c 83 6f a3 bc
       0.056099404 -0.002515807 0.028045291 -0.019950634
000030 5b 7c 28 bd 0a 2c 94 3c 5e a0 88 3d 3c 1c 55 3d
       -0.04113422 0.018087406 0.066712126 0.05202888
000040 b7 45 df 3b 60 59 2f 3d f5 1a 36 3d b6 de 22 bd
       0.0068137306 0.042809844 0.044459302 -0.039763175
000050 a9 c0 aa 3c b3 a5 0b 3d d9 0f 37 3d cd 00 f7 bb
       0.02084382 0.03409357 0.044692848 -0.0075379373
000060 00 a1 2b bc 1a 7a 45 bd 37 4b 95 3d 07 38 16 3d
       -0.010475397 -0.04821215 0.07289737 0.036674526
000070 60 a8 f1 3c cc 72 91 3d 14 f3 23 bd 16 41 83 3b
       0.029499233 0.07101974 -0.04002674 0.0040055616
000080 2b 67 38 bb 46 a6 24 3d bb 51 16 bd fe 64 e4 bc
       -0.0028137665 0.040197633 -0.036699038 -0.027880188
000090 79 04 b1 3d b2 a0 b2 3b 41 01 1d 3d 37 63 85 3b
       0.08643431 0.0054512853 0.038331274 0.004070665
0000a0 58 c2 df bc 89 87 9c 3c ec 92 46 bd f5 57 50 3c
       -0.02731435 0.019107597 -0.04847996 0.012716283
0000b0 34 70 1e 3d ea d1 89 3c f3 06 99 3c 2c 19 ed 3c
       0.038681224 0.016823728 0.018680071 0.028942667
0000c0 a8 d4 41 bc f3 bf 45 3d 87 27 59 3c af 92 c8 3c
       -0.011830486 0.04827876 0.013254053 0.024484007
0000d0 f2 cc ae 3d 50 90 9c 3d 15 19 41 bd b4 be 9d 3d
       0.08535184 0.07644713 -0.04714306 0.07702389
0000e0 27 8b b9 bb ba ba 54 bc d9 e7 07 3d e1 67 14 3c
       -0.00566234 -0.012983972 0.03318009 0.00905797
0000f0 af 59 02 3d 66 ad b2 3c 07 d3 45 3d 7f 1d d0 3c
       0.03182381 0.021811198 0.048296954 0.02540469
000100 25 97 c3 bc 69 93 97 bb f8 07 41 3d 78 d2 49 3d
       -0.023875782 -0.004625727 0.04712674 0.049272984
000110 e1 9e 18 bc de be 02 bd e6 b9 01 b9 f7 9c 0c 3d
       -0.009315223 -0.031920306 -0.00012371651 0.03432938
000120 ef af 08 3d 9d b3 12 bc 05 5f c4 bb b5 7f d1 3b
       0.03337091 -0.008953956 -0.0059927725 0.0063933977
000130 91 62 e9 3c 0c 66 84 bc ca 2e 84 3c 76 56 2e bb
       0.028489383 -0.016161941 0.016135592 -0.0026601828
000140 8d 79 a6 3d 8f 7d 1b 3d 3c d5 17 3d 1a 0e ac 3d
       0.08128653 0.03796154 0.03706859 0.08401127
000150 49 63 05 3d 07 be 26 3d db 69 91 3d 7a 5a fd ba
       0.03256539 0.040708568 0.071002685 -0.0019329332
000160 0b 6b be 3b 7e 94 5e 3c 22 0a 0e 3b 3f 51 a4 3d
       0.0058111004 0.013585208 0.002167352 0.08023309
000170 e8 71 c8 bb b8 c6 0c 3d c7 ce 92 3b f6 99 1c bd
       -0.0061170943 0.0343692 0.004480216 -0.038232766
000180 84 29 91 3d 2a 7c b9 3c 66 ad 17 3d 16 5b fc 3b
       0.070879966 0.022642214 0.0370306 0.007701288
000190 40 56 34 bc 91 13 4d 3d c8 a9 ca 3c 2c 41 e2 3b
       -0.011006892 0.050067488 0.024739161 0.0069047417
0001a0 42 21 9c 3d e3 2c cc bc 18 23 7e 3d d7 37 c0 3c
       0.07623531 -0.024923747 0.062045187 0.023464127
0001b0 0d 9f f7 3c d7 e8 b9 3d 55 40 97 3d da e7 0e 3c
       0.030227209 0.09077614 0.07385317 0.00872227
0001c0 47 a3 90 3a 75 f5 17 3d b7 8b 3e bc c7 da 6b 3c
       0.0011034989 0.03709932 -0.01162999 0.014395422
0001d0 32 6c f8 bc 0a f5 74 3c 4f 4c 12 3d 0b 25 3b bc
       -0.030325029 0.014951 0.035717305 -0.011422406
0001e0 3f 32 ec 3b 74 d6 02 3c 60 ea fa 3c 52 6a 83 3d
       0.0072081382 0.0079857 0.030629337 0.06416763
0001f0 ab 65 1d 3d ce f1 14 3c 34 7a 99 3b e8 f8 c9 ba
       0.038427036 0.009090854 0.004683757 -0.0015409263
000200 b5 2a 05 3c 82 70 ef 3c 72 bc 29 3c 5e 75 f7 3c
       0.008127858 0.029228453 0.01035987 0.030207332
000210 f7 4c 53 bd 3a 0c 8e 3d 4a 8a 19 3d 8c 7c 4d 3d
       -0.05158707 0.06935926 0.0374854 0.050167605
000220 ba 35 15 3d fa b2 69 3d 43 53 eb 3c af b5 1e bd
       0.03642819 0.05705545 0.028726226 -0.038747486
000230 38 68 2e 3c b6 9c 93 3c 15 df e6 3c 6e cb 78 3d
       0.010644965 0.018019062 0.028182546 0.06074088
000240 15 11 2b bd bc bc 86 3d 75 d8 99 3c 80 e0 3d 3c
       -0.041764338 0.06578967 0.018779973 0.0115891695
000250 94 e3 04 3d 25 a3 2b 3d 48 72 0e b8 0d 17 a9 3d
       0.032443598 0.041903634 -3.396187e-05 0.0825635
000260 21 94 b4 3c 1b c5 03 bc 4e f9 b6 3c c5 58 43 3c
       0.02204329 -0.008042599 0.022335675 0.01192302
000270 7a 74 c4 bc 45 f2 ec 3c 53 f8 6b 3d 8d 60 fb 3b
       -0.023981322 0.028924117 0.057609867 0.007671422
000280 94 76 0c 3d 0c d8 90 b9 82 16 19 3d e5 a1 d7 3c
       0.034292772 -0.00027626788 0.03737498 0.026322315
000290 50 05 14 bd 5d 85 3c 3d 80 79 99 bb 6f d3 25 3d
       -0.03613788 0.046025623 -0.0046836734 0.040484842
0002a0 8e 21 36 3d 63 57 e3 bc b1 5e 8e 3d d6 23 6e 3c
       0.044465594 -0.02775163 0.06951655 0.014534911
0002b0 50 f3 b1 3d 17 7c 84 3d a6 85 89 3d 1a 3d 0f 3d
       0.08688986 0.06468981 0.067149445 0.03497038
0002c0 28 42 04 3d c2 1c 90 3d 14 4e 1a 3d a9 8d 85 3d
       0.032289654 0.07036735 0.037672117 0.0652116
0002d0 69 b1 fb 3c 64 a4 b2 3b 1c 07 c5 3c 67 31 ec 3c
       0.030724244 0.005451726 0.024051242 0.02883215
0002e0 d2 92 a5 3d 0e 98 f6 3c 00 d3 b6 3d c8 7f 00 3b
       0.080846444 0.030101802 0.08926964 0.0019607414
0002f0 ab fd 71 3d 23 77 8b 3d ef 79 39 3c 6f 20 9f 3d
       0.059079807 0.06809833 0.011320575 0.07769858
000300 b1 cf 21 3c b0 e0 bf bc f4 7d 84 3c 3d 5c 8c 3c
       0.009876178 -0.023422569 0.01617334 0.017133826
000310 9c 96 e5 bc 3e d2 ac 3c dd ea ef bc cd e9 c2 3b
       -0.028025918 0.021096345 -0.029286796 0.0059482814
000320 27 e8 55 3d 5a 3d 89 3d dc 2a 23 3c 1e 3a 4c bb
       0.05222335 0.06701155 0.009958949 -0.003116257
000330 b2 0e 7f bb 26 fa 33 bd 94 22 db bb 20 b0 f3 3c
       -0.0038918671 -0.043939732 -0.0066874716 0.029747069
000340 42 a7 85 3c d7 8b 9d 3d 2f 58 8a 3b 8b 50 3d 3c
       0.016315106 0.07692688 0.004221938 0.0115548475
000350 51 29 06 bd 65 6c 12 bd cb ab e1 3c 83 04 3d 3d
       -0.032754246 -0.035747904 0.027547738 0.04614688
000360 bc 67 5b 3b 7d 07 5e 3c e9 04 ab 3d 5f 2b 8b 3d
       0.0033478579 0.01355159 0.08350546 0.06795382
000370 cf 96 59 3c e3 8a af 3c 27 3c 07 3d 45 17 43 bc
       0.0132805845 0.021428531 0.03301635 -0.011907403
000380 c7 22 89 3d d9 f4 5a bd e4 aa 8d 3c d7 f9 6a bc
       0.066960864 -0.05345616 0.017293401 -0.014341793
000390 92 05 ee bc 3a 3a 50 3c ce 1f 27 3d ba 7b a8 bb
       -0.02905539 0.012709195 0.040801816 -0.0051417025
0003a0 11 b2 48 bd e7 a0 54 3b 74 b5 3c 3c 38 f3 cb bc
       -0.048997942 0.0032444538 0.011517871 -0.02489625
0003b0 7f f6 82 3d af 6c 2a bd fc 11 33 bb 47 7a 04 3d
       0.06394672 -0.041607555 -0.0027323952 0.032343175
0003c0 06 bb fd 3b 81 58 8f 3d c4 25 44 3c e8 d1 ad 3d
       0.007743242 0.06999303 0.011971895 0.08487302
0003d0 cc e7 01 3c ee 61 11 3c e9 96 a7 bc 58 90 a5 3d
       0.0079288 0.008873446 -0.020457702 0.08084172
0003e0 3e 59 23 bd 92 71 23 b7 c5 0f be 3c 12 c2 9c bc
       -0.03988003 -9.742e-06 0.023200879 -0.019135509
0003f0 56 1c 7d 3d 94 f3 52 bc c3 f7 95 3d e9 7c 90 bc
       0.0617946 -0.012875456 0.073226474 -0.017637687

mu.weight f4 [4, 300]
000000 f8 f4 48 bd 2b a3 7a bd 8b 8e ca bc fd c4 fc bb
       -0.049061745 -0.061190765 -0.024726173 -0.0077139125
000010 04 f8 84 bc 0c 5a 87 3c d1 5b 0e 3d cc c4 4e 3d
       -0.016231544 0.01652243 0.03475553 0.05048065
000020 71 67 3b 3d b4 ae 82 bc eb a6 dc 3c a9 ea 07 3d
       0.045752946 -0.015952446 0.026935061 0.033182774
000030 82 4c dd 3b 23 5a 40 bc 92 1c 39 3c 7b 2f 3d bd
       0.006753505 -0.01174024 0.011298316 -0.04618786
000040 4f 94 6b bc a2 da 2c 3c 14 36 82 bd 28 b7 26 bd
       -0.014378621 0.010550173 -0.06357971 -0.040702015
000050 fe b9 56 bd 19 d3 55 3d 55 17 54 bd f3 ce 34 3d
       -0.05242347 0.05220327 -0.051780064 0.044142675
000060 4f c3 3b bd 39 16 51 bd 09 3b 10 3d b6 8e 3c 3b
       -0.045840558 -0.051046584 0.03521255 0.0028771586
000070 75 bc 30 3d a4 0c c0 bc a7 ef d1 bc 9f 1e 03 bd
       0.043148477 -0.023443528 -0.02562697 -0.032011624
000080 1b 2b ff 3c a9 ad bb 3c db da bb 3c eb b8 3f bd
       0.031148484 0.022909956 0.022931507 -0.04680721
000090 b1 00 9a bc 48 9c 56 3d 45 0e b0 bc 02 d5 94 bc
       -0.018799158 0.052395135 -0.02149118 -0.018167976
0000a0 4d ab 6f 3c 66 92 90 ba 55 36 59 3d 7a f2 2b 3d
       0.014628244 -0.0011029958 0.05303033 0.04197929
0000b0 19 bd 0e bb 42 f8 74 3c f2 af 09 bd c8 37 86 bc
       -0.0021780191 0.014951767 -0.03361506 -0.01638402
0000c0 9f 61 40 bd 4b 66 35 3d 3d ac 4b bd 03 b9 4e bb
       -0.0469681 0.044287007 -0.049724806 -0.003154338
0000d0 55 05 08 3d f0 fe ad bc c1 29 0c 3d c1 00 2d bd
       0.03320821 -0.021239728 0.034219507 -0.042237047
0000e0 8c ab 12 bc d0 82 00 3d 57 2c 3f 3d 13 90 28 bd
       -0.008952033 0.031374753 0.046673145 -0.041153025
0000f0 f9 a8 80 3c 68 86 9a bc be 8b 0d bd 1f c1 4f 3d
       0.015705572 -0.018862918 -0.034557097 0.050721284
000100 cd 34 37 3d fa b8 33 bd 8e 9a d0 bc 63 1f 1a bd
       0.04472809 -0.04387758 -0.025464322 -0.03762759
000110 aa 09 e9 3c 00 cb 09 bc 7a 9f 46 bd 63 a1 5d bd
       0.028446991 -0.008410215 -0.048491932 -0.05410899
000120 2e 0a d9 bc 98 2f 0d 3d 81 85 8b bc c7 0c 1b 3d
       -0.026494112 0.034469217 -0.017031433 0.037853982
000130 c6 29 59 bd 8e 09 06 3d 6a f3 e0 3c 7d 3c 10 3d
       -0.053018354 0.032723956 0.027459819 0.035213936
000140 2c 11 02 3d 91 ec c2 3c dc 32 0e bc 89 bc f5 bc
       0.031754658 0.023794444 -0.008679118 -0.029997127
000150 f0 d9 40 3c be 84 23 bd 89 9e 28 bc 81 e7 eb 3c
       0.01177071 -0.039921515 -0.010291704 0.028796913
000160 b6 fd 73 3c d6 c8 41 bd 7a 34 26 3d 2e dd 78 bd
       0.014892032 -0.047310673 0.04057739 -0.06075781
000170 2f 9c 7a bd df 7e 25 3d 70 b0 f0 bc d0 d1 89 3b
       -0.061184105 0.040404197 -0.029381007 0.00420592
000180 0b 4a 03 bd 5a ca d8 3c f5 80 57 3d 77 6b ec 3c
       -0.032053035 0.026463676 0.052613217 0.028859837
000190 f6 3e 90 bd 8d 1b 38 bd 81 33 5f bd e5 95 39 3d
       -0.07043259 -0.04494815 -0.054492477 0.045308966
0001a0 4a 90 0c 3d 10 26 68 bc 1c db b9 3c d3 c8 28 3d
       0.034317292 -0.014169231 0.022687487 0.041207146
0001b0 dd 5c ac bc 0d f5 65 bd 35 37 3a bc 4e 0c 90 bc
       -0.021040374 -0.0561419 -0.011365701 -0.017583992
0001c0 88 c6 48 bc 5c 5b a7 bc 7d 53 55 3d 1d 85 25 3c
       -0.012254365 -0.020429306 0.052081574 0.010102537
0001d0 b9 c7 60 3c 75 7a d1 3c 5f 27 3a bd f1 d6 14 bd
       0.013719493 0.025571087 -0.045447703 -0.036337797
0001e0 3b 93 a2 3c d6 2f 66 bc 9d 29 6d bc a3 c6 7c bd
       0.019845596 -0.014049491 -0.014475253 -0.061712872
0001f0 8c 68 e2 bc 25 97 3c 3c 13 7c ec b9 f4 83 10 bd
       -0.027637742 0.011510645 -0.0004510587 -0.03528209
000200 f2 8e 36 bd 23 7a 5e bd e4 3e 7f bd c5 ce 40 bc
       -0.044569917 -0.054315697 -0.062315837 -0.011768048
000210 ac 33 f5 3c 0c ea 93 3b eb 7d 39 3d c8 43 ef bc
       0.029931866 0.0045139845 0.0452861 -0.029207125
000220 e5 46 11 3c 03 17 45 bd 64 4e 48 3d 1f 91 b0 3c
       0.008867 -0.04811765 0.048902884 0.021553574
000230 24 f6 41 bd 21 92 00 bd a6 c1 a9 bc 16 73 81 bd
       -0.04735388 -0.03138936 -0.020722222 -0.06320779
000240 82 9c 82 bb 37 cd 8a bc 0b 7f d7 3c d4 65 2a 3d
       -0.0039859423 -0.016943557 0.026305696 0.041601017
000250 c2 7d f9 3a fc 5f 38 bc 8e 09 d0 3c fb a0 da bc
       0.0019034671 -0.011253353 0.025395181 -0.02668809
000260 06 9f d3 bc f2 1f 81 3c ea 4b 7a bd b7 54 c2 bc
       -0.025832664 0.015762303 -0.061107554 -0.023722036
000270 95 62 46 3d fe 17 c9 bc 42 d5 2d 3d b2 26 89 bc
       0.04843386 -0.024547573 0.042439707 -0.016742084
000280 c6 4c f1 bc 26 0f 57 3d 27 37 78 bd ee 63 51 3d
       -0.029455554 0.05250468 -0.060599472 0.05112069
000290 4e 7e 12 bd bc 09 33 bd c0 e3 5e bd ab 59 8b bc
       -0.035764985 -0.043710455 -0.054416418 -0.01701053
0002a0 2f 38 ec 3c d9 78 18 bb 4e df 80 bd c8 77 78 bd
       0.028835384 -0.002326539 -0.06292592 -0.060661107
0002b0 ca 85 4d bb de 61 27 3d 51 a2 35 3d 6a 81 5e bd
       -0.0031360262 0.040864818 0.04434425 -0.054322638
0002c0 f3 4a 8c bc 6b e7 78 3c 3a 5d 77 bd e2 e2 0b bd
       -0.017125582 0.015191893 -0.060391642 -0.03415192
0002d0 a9 a3 4a 3d f5 4a cb 3c d4 97 6a 3c c9 fb 42 3c
       0.049472485 0.024816016 0.014318425 0.011900851
0002e0 63 51 06 3c 27 a8 27 bc 48 70 86 bc 01 4d 7f bd
       0.008198115 -0.010232962 -0.016410962 -0.062329296
0002f0 c6 7b 30 3d e9 22 ce 3c f2 d7 5e bd 55 7d 5e 3c
       0.04308679 0.02516313 -0.05440516 0.013579686
000300 3b 44 09 bc d4 e9 36 3b 40 d3 03 bd 35 62 06 3d
       -0.008378084 0.0027910369 -0.032183886 0.0328085
000310 b9 5a 3d 3d bc 7e 19 3d 0d 01 c4 ba 30 3a 2b 3d
       0.046229098 0.03747438 -0.0014953926 0.04180354
000320 22 c9 10 bd 82 e7 34 bc 8c 87 8a bc a9 85 b3 bc
       -0.035348065 -0.011041524 -0.016910337 -0.02191432
000330 bb 92 5c 3c 36 f9 ec 3b 5c 55 22 3d 5f 40 5d bd
       0.013462718 0.0072318567 0.039632186 -0.054016467
000340 d8 6d b6 bc 4e 52 02 bb 8e 04 b5 3c 6f ff 0b 3d
       -0.022269174 -0.0019885483 0.022096898 0.034179147
000350 db 08 44 bd f0 80 2d bc 94 2a 2b 3d d1 ee 69 bd
       -0.047860008 -0.010589823 0.041788653 -0.05711252
000360 38 da 98 bd 6d 58 24 3d 09 89 f8 bc c8 9e de bc
       -0.07463497 0.040123392 -0.030338781 -0.027175322
000370 7c 20 32 bd 54 54 a6 3b 9b 91 0e ba c3 81 49 bd
       -0.04348801 0.0050759707 -0.0005438567 -0.049196016
000380 ea 17 3a bd 72 51 1c bc 02 16 53 3c e3 45 31 bd
       -0.045432962 -0.009540902 0.012883665 -0.04327954
000390 13 50 ec bc 77 0e f9 3b 18 38 4e 3d 07 05 f0 3c
       -0.028846776 0.0076006013 0.050346464 0.029299272
0003a0 32 7c 6f 3c b8 56 2e bd e6 80 5b bd 51 5b 98 bc
       0.014617013 -0.04256317 -0.053589724 -0.01859823
0003b0 33 7b 21 bd b8 0d 31 bb b2 84 03 bd 5c 05 98 3b
       -0.039424133 -0.0027016234 -0.03210897 0.0046393108
0003c0 a8 55 80 3c e1 65 42 3c ea 30 16 3d 74 c7 11 3d
       0.015665844 0.01186511 0.03666774 0.035590604
0003d0 98 67 00 bc d9 b7 17 3c 70 18 62 b8 7b f3 26 3d
       -0.007837199 0.009260141 -5.3905358e-05 0.040759545
0003e0 90 61 38 bd 58 41 8d 3c 9d 0e 37 3c b7 a7 33 bd
       -0.045014918 0.017243072 0.011172918 -0.043861117
0003f0 7f 3b 77 3c fa 76 3c 3d a1 0d 53 bd 4b b6 92 bc
       0.015089869 0.046011902 -0.05152667 -0.01790919

mu.bias f4 [4]
000000 87 4d 29 bd 47 12 30 3d 42 4e b8 3c ef 45 20 3d
       -0.0413337 0.04298618 0.022498254 0.039129194

value.weight f4 [1, 300]
000000 40 3f 8a bc db ef 75 3d 52 b4 c8 3d f8 76 8d 3d
       -0.016875863 0.060043197 0.09800018 0.06907457
000010 2e e8 b3 3d 9d 56 e2 bc 94 a6 5c 3d e3 0c 48 bd
       0.08784519 -0.027629191 0.0538698 -0.048840415
000020 b7 70 5c 3d 36 48 3d bd a3 35 ab bd 29 72 40 bd
       0.05381843 -0.046211444 -0.0835984 -0.04698387
000030 93 46 06 bd 35 2c 80 3d 36 28 6e 3d 1e c0 6f 3d
       -0.03278215 0.06258432 0.058143817 0.058532827
000040 a7 a5 74 3d 98 df c5 3d 95 40 8c 3d 72 fe 00 bd
       0.05972829 0.09661788 0.068482555 -0.031492658
000050 36 27 00 bd 49 f2 43 bd 61 3e b4 3d 58 ed c4 3d
       -0.031287394 -0.047838483 0.0880096 0.09615582
000060 d9 6f 35 bc 61 b5 e6 bc 89 bc 4e 3d 73 3b b7 bc
       -0.01107403 -0.02816266 0.05047277 -0.022367215
000070 06 ed 95 3d a8 a6 89 3d 20 06 f1 bc 9e 09 aa bb
       0.07320599 0.0672124 -0.029421866 -0.0051891347
000080 f0 be 43 bd c5 88 c5 bc b5 ec 7a bc 7f 47 03 bd
       -0.047789514 -0.024113068 -0.015315224 -0.032050606
000090 e2 73 54 3d e3 e4 2f 3d 78 98 49 3d 28 1c 8c 3d
       0.051868327 0.042942893 0.04921767 0.06841308
0000a0 30 21 0a bc c9 69 36 bd 03 63 9e bc 47 a4 c2 3d
       -0.008430764 -0.04453448 -0.019334322 0.0950399
0000b0 a6 80 18 bd d4 26 d1 bc a2 44 0e bd 72 e0 c5 3d
       -0.037232064 -0.02553121 -0.034733422 0.0966195
0000c0 cd da f6 ba 4c 8e 7a 3d 54 2e 86 bc 0b cb bd 3d
       -0.0018833518 0.06117086 -0.016379513 0.09267243
0000d0 f6 91 a1 3d 58 d3 6c 3d 2f 77 24 bd c3 d4 90 3d
       0.07889168 0.05781874 -0.040152725 0.07071831
0000e0 13 a1 c0 3d 66 3d f4 bc e5 1d 7f 3d d1 28 96 bd
       0.094057225 -0.029814433 0.06228437 -0.07332004
0000f0 f7 f7 88 bc d5 fc d8 bb 24 82 8a 3d ca f9 d9 bc
       -0.016719801 -0.006621937 0.067631036 -0.026608367
000100 64 c9 90 ba c2 5b af 3d c6 8e ac 3d 67 29 82 3d
       -0.0011046347 0.08562423 0.08425669 0.06355553
000110 4e c4 02 bd 4e cb bc 3b 74 d0 85 bd ba d3 ee bc
       -0.031925492 0.0057615405 -0.065339 -0.029153693
000120 39 bf bf 3d 39 b2 12 bd 78 9f 47 bd 22 ed 89 3d
       0.09362645 -0.035814498 -0.048736066 0.067346826
000130 ef 4c 67 3d 92 d2 c8 bc bc 0f bd 3d 56 71 bd 3d
       0.056469854 -0.02451447 0.09231517 0.09250133
000140 6e f9 d0 3d a1 e0 71 3d 9e b5 91 3d 64 be 4c 3d
       0.10203825 0.059052113 0.07114719 0.04998626
000150 f0 91 0a 3d c0 05 cc 3d d8 a6 8d 3d a7 32 2b ba
       0.033830583 0.09962034 0.069165885 -0.000653068
000160 f6 f7 6b 3d 91 4a 48 bd 84 a7 93 b9 d7 0b 79 3d
       0.05760952 -0.048899237 -0.00028162834 0.060802307
000170 50 1e c2 3d 89 e7 91 3d 80 28 a2 3d 6b a6 30 bc
       0.09478438 0.0712424 0.07917881 -0.010781865
000180 a2 98 a7 3d 32 2c 10 bd 83 59 ae bc e9 64 a1 3d
       0.08183409 -0.035198398 -0.021282917 0.07880575
000190 a4 d2 47 3d a3 28 c4 3d 45 a9 a5 3d 52 e0 a8 bc
       0.048784867 0.09578063 0.08088926 -0.020614777
0001a0 e5 33 59 3d 5e e5 08 bd 40 e6 67 3d 47 a5 83 3d
       0.053028006 -0.033421867 0.056616068 0.064280085
0001b0 e7 31 92 3d a8 33 a2 3d 0e 5b be 3d c8 20 91 bc
       0.07138424 0.07920009 0.09294711 -0.017715827
0001c0 09 f0 80 3d 2b ff c5 3d 44 5d 62 bc 12 fa 7f 39
       0.06295783 0.0966781 -0.013816182 0.00024411854
0001d0 22 ed 9a bc 79 f2 2d bd dd 65 1f bd dc 03 f3 bc
       -0.018911902 -0.042467568 -0.038915504 -0.029664926
0001e0 3d 11 86 3d 0c ec 17 bd ba 33 89 3d 40 78 b6 3d
       0.06546257 -0.037090346 0.06699319 0.089096546
0001f0 bc 3c ce bc 25 60 4c bd 36 59 2f bd 2b bb 47 3d
       -0.025175445 -0.049896378 -0.042809688 0.04876248
000200 b7 8c 94 3d 58 5a a6 3d 8f 04 bd 3d ab 8d bb 3d
       0.07253402 0.081227005 0.09229385 0.091578804
000210 40 12 a2 bc 6a d0 7d 3d 31 80 03 3d b9 e5 bd 3d
       -0.019784093 0.061966337 0.032104675 0.09272332
000220 6b d9 2f bd 21 45 48 3d bc a1 cf bc 78 c5 ed bc
       -0.042931955 0.04889405 -0.025345676 -0.029024825
000230 a3 dd 51 3b 84 d1 bb 3d e7 cc b9 3d 40 0d c4 3d
       0.0032022975 0.09170821 0.09072285 0.0957284
000240 9a b6 21 bd a6 ce af 3d af b2 3f bd 1d da 11 3d
       -0.039480783 0.08584337 -0.046801265 0.0356084
000250 bb c9 84 3d e0 0a e9 bb c0 1c 84 3d ea 7a 25 3d
       0.064837895 -0.007111892 0.06450796 0.040400423
000260 c0 6c 71 3d 03 22 9e bc 73 cb 48 3d a9 7b f0 bb
       0.058941603 -0.019303327 0.04902215 -0.00733896
000270 fd de 30 bd a0 b8 b8 3d 2b 82 b5 3d b9 9d b0 3d
       -0.04318141 0.090195894 0.08862718 0.08623833
000280 e2 7a 60 3d 9c 8d a7 bc 60 71 87 3d fb 96 a4 3d
       0.05480469 -0.020453267 0.066134214 0.0803661
000290 37 6b b0 bc 98 80 b3 3d cd e1 bc 3d 5a bd b1 3d
       -0.021535499 0.08764762 0.092227556 0.08678694
0002a0 f1 5a 83 3d d4 ad 37 bd 4c 97 b7 3d 02 eb 10 3d
       0.0641383 -0.04484351 0.089644045 0.03538037
0002b0 40 5b 64 3d 5a 66 88 3d 16 b7 ac 3d ec e9 f5 3c
       0.055751085 0.06660147 0.08433358 0.03001877
0002c0 45 5f d3 bb 1f cc 7d 3d be 6b 56 bd 00 f4 8b 3d
       -0.006450566 0.061962243 -0.052348845 0.06833649
0002d0 72 6d 85 3d 52 c3 a1 3d 25 be 43 3d 68 8f 7d 3d
       0.06515016 0.078985825 0.047788758 0.06190434
0002e0 8f 50 80 3d d5 a3 91 bc db d0 88 3d a5 88 82 3d
       0.06265365 -0.017778317 0.06680461 0.06373719
0002f0 48 d3 ac 3d 8e e6 2d 3d 47 9d b8 bb 52 b3 73 3d
       0.08438736 0.042456202 -0.0056339833 0.059497185
000300 33 46 2a bd 4b 8c 0f bd f9 bf 8f 3d 38 8b 06 bd
       -0.041570853 -0.035045903 0.07019038 -0.032847613
000310 19 ea 20 bc 8c d9 46 3d 53 fc 83 bd 5f 16 48 3d
       -0.009821438 0.048547313 -0.064446114 0.04884946
000320 a9 f5 c9 3d 36 66 c5 3d 49 8a 63 3c a3 d3 a0 bc
       0.09861309 0.09638636 0.01388795 -0.019632166
000330 89 8b 30 bd 30 01 e1 b9 6e ec ff bb 23 f2 8b 3d
       -0.04310182 -0.0004291623 -0.007810167 0.06833293
000340 54 9e 79 3d ad c6 c7 3d 76 3f 2c 3d 05 16 a4 3d
       0.06094201 0.09754691 0.04205271 0.080120124
000350 7a e3 62 bc c9 4d 95 b9 aa 85 89 3d 2c fa 63 3d
       -0.01384818 -0.0002847745 0.067149475 0.055658504
000360 8b 8f b2 3d 96 7d e2 bc 85 b1 3d 3d aa 33 b4 3d
       0.08718785 -0.027647775 0.046311874 0.08798917
000370 2e b8 6a 3d 4c 7a b7 3d d5 a5 a4 bc 76 0a 7e bc
       0.057304554 0.08958873 -0.020098606 -0.015505424
000380 68 9a 83 3d be 2c 89 3b 52 a1 4b bd d0 2c 3f bd
       0.06425935 0.004186242 -0.049714394 -0.046673596
000390 19 47 77 bc 8a 91 37 39 8e 17 c5 3d be 62 19 bd
       -0.015092635 0.00017506458 0.09623633 -0.037447684
0003a0 9e 7a 9c bc 74 8b 0c bd 25 c7 9d 3d 77 92 b1 3c
       -0.019101437 -0.03431268 0.077039994 0.021676285
0003b0 66 3c 75 3d e2 ad c6 3a 12 2d 4d 3d af db c7 3d
       0.059872054 0.0015158022 0.05009181 0.09758698
0003c0 59 b0 7d 3b 57 97 86 3d f1 f2 b6 3d fb b8 c8 3d
       0.0038709848 0.065718345 0.08933056 0.09800907
0003d0 46 d5 a9 3d c8 ba 9a 3d 7f 2f d5 bc 1f 31 aa 3d
       0.08292632 0.07555157 -0.026023624 0.0831015
0003e0 65 1a 4f bd e0 45 5d 3d 51 03 c5 3d 00 bc 9e bb
       -0.05056228 0.054021716 0.09619773 -0.0048441887
0003f0 9d 2e 42 3d 25 6d 79 b9 21 81 5f 3d fb 9a cd bc
       0.047407735 -0.0002378715 0.054566506 -0.025098315
