results/ddpg/final_actor.pt (torch, 516726 bytes, 14 tensors)

fc1.weight f4 [400, 8]
000000 ae 71 9a bd 6b 2c d4 3c 70 f4 f6 3d d0 79 55 3d
       -0.07541214 0.025900086 0.120583415 0.052118123
000010 af fa ab 3d 7e 38 ca bd 74 87 35 ba 6f 40 a3 bd
       0.083974235 -0.09874056 -0.0006924786 -0.07971274
000020 81 33 5b 3b f8 d9 b1 bd 83 b7 f8 bd a1 62 ab bd
       0.0033447447 -0.08684152 -0.12144377 -0.08368421
000030 05 8c b4 bd 7f db 58 3c f5 83 12 3d 37 5e 61 3b
       -0.08815769 0.013235926 0.035770375 0.0034388432
000040 d6 98 e4 bc 9f a0 98 3d 2a 78 5c 3d a4 94 eb bd
       -0.02790491 0.07452511 0.053825535 -0.1150296
000050 43 12 a7 bd 15 3e 03 be 59 5a e8 3d 81 9a 5f 3d
       -0.0815778 -0.12816651 0.113453574 0.054590706
000060 5c 55 0e bd c2 08 54 bd 8f 15 10 3c 9d 06 f0 bc
       -0.034749374 -0.051766165 0.0087942025 -0.029300028
000070 6b 6e 4c 3d 1a f8 99 3d ca 74 d0 bd 17 3b 6f bc
       0.04990999 0.07518025 -0.10178526 -0.01460149
000080 7e 33 a6 bd 42 83 5f bd a4 66 09 bd 00 51 33 bd
       -0.0811529 -0.054568537 -0.03354515 -0.04377842
000090 dc 16 02 bd af e1 da 3d 03 c9 15 bc 2d 56 e2 3d
       -0.03176008 0.10687577 -0.009142163 0.11051593
0000a0 63 9d 02 3c ee 8f 03 be c6 c6 40 bd da c3 10 3d
       0.007972094 -0.12847874 -0.047064565 0.03534303
0000b0 a1 96 c0 bd ea 0b 84 bd 97 a5 cf bd 4c 68 fc 3d
       -0.0940373 -0.06447585 -0.10139006 0.123245806
0000c0 1c a3 40 bc 6f 51 96 3d 95 72 f8 bc df cf 67 3d
       -0.011757638 0.07339751 -0.030328074 0.056594726
0000d0 be d4 9f 3d 34 99 27 3c 78 84 e7 bd b2 8b ae 3d
       0.07804249 0.010229398 -0.11304563 0.085227385
0000e0 1e 1d 1c 3e b5 93 5f bd 6e e3 14 bc a5 80 ec bd
       0.15245482 -0.054584224 -0.009087427 -0.115479745
0000f0 1f 38 41 bd e2 79 ea bc 9f 78 03 3c 45 bf 1c bd
       -0.047172662 -0.028622571 0.008024364 -0.038268346
000100 81 a2 6a bb 7f be 40 3d 4b 68 0b 3e 1f 0f 91 3d
       -0.0035802426 0.04705667 0.13614003 0.07082962
000110 5d 20 93 bd ce af 74 bc 29 2f 4b bc 78 21 cb bc
       -0.07183907 -0.014934493 -0.012401381 -0.024796233
000120 80 4e ca 3d b6 9b d3 bd 1c a6 f2 bd 89 c9 19 3d
       0.09878254 -0.10332434 -0.11848089 0.037545715
000130 18 08 0d 3d 24 37 48 bd b4 c4 af 3d 4a 31 e1 3d
       0.034431547 -0.04888071 0.0858244 0.10995729
000140 75 20 cd 3d 1f 79 ca 3b a7 e9 50 3d 4d 76 15 bc
       0.10015956 0.0061789895 0.05100408 -0.009122443
000150 5b 82 09 bd 0b c8 03 3e d0 ac a5 3d 43 fe 12 3c
       -0.033571582 0.12869279 0.08089602 0.0089717535
000160 f3 fe 51 3d 16 a1 18 be 76 b8 38 bc ea 86 ca 3c
       0.05126853 -0.149052 -0.011274448 0.024722535
000170 39 e4 9f 3d 8e 67 22 3d 24 eb 97 3d 85 0c 95 3c
       0.07807202 0.03964954 0.074178964 0.018194446
000180 e6 f5 bb 3d b9 34 3f bd f8 75 30 bd c3 93 f6 3d
       0.09177761 -0.04668114 -0.043081254 0.12039902
000190 fc 94 3f bc f7 29 8b 3d 07 33 b0 3d f3 73 31 bc
       -0.0116932355 0.067951135 0.08603483 -0.010830867
0001a0 3a 21 41 bb 9d 75 fc bc 6b d1 12 3d cb fb 68 3d
       -0.0029469267 -0.030817801 0.035844248 0.056880753
0001b0 4c b4 88 3d 3a eb 52 3d ee ab e0 3d 46 c4 df bc
       0.06675014 0.05149386 0.10970293 -0.02731527
0001c0 cf de 5a 3a 61 79 0b 3e 74 85 21 bd 36 cc d1 bc
       0.0008349241 0.13620521 -0.03943391 -0.02561007
0001d0 3a 35 31 bd 6c bd cb bd f3 f1 36 bd 55 fb d0 bd
       -0.04326365 -0.09948239 -0.044664335 -0.10204188
0001e0 6d 56 64 3c 10 b6 8a bd c2 12 45 3d a4 97 f6 3d
       0.013936621 -0.06773007 0.048113592 0.12040642
0001f0 13 44 08 bd e7 08 dc bd 6a 0b ee bd ec 4e e4 bc
       -0.033268046 -0.107438855 -0.11623271 -0.027869664
000200 f7 fa ea 3d fb a2 94 3d 9f 72 e9 3d 68 8c 05 3d
       0.11473649 0.072576486 0.11398815 0.032604605
000210 cc a4 9e bd db 79 60 3d 97 00 5c bc 68 cd 30 3d
       -0.07746276 0.05480371 -0.013427875 0.04316464
000220 99 01 01 be d6 76 49 bc 2b f9 42 bd be 33 8f bd
       -0.12598266 -0.012296399 -0.047600906 -0.06992291
000230 f4 85 17 bd 7e 8e 9d 3d e4 2d c5 3d 6a 96 e8 3d
       -0.036992982 0.07693194 0.096278936 0.11356814
000240 20 9d b2 bd 81 ab eb 3d 35 00 59 bd e0 4c 37 bc
       -0.087213755 0.11507321 -0.052978713 -0.011187762
000250 65 9e de 3b 76 02 e4 bc 49 96 8d 3d 3c 8f 5d bd
       0.0067937844 -0.027833205 0.0691343 -0.054091677
000260 f8 7a af bb 8c c9 d9 bd 29 82 96 3b d1 1c 4f bc
       -0.005355235 -0.10634145 0.004593153 -0.012641148
000270 e4 34 f9 bd 69 c7 45 3d 5c ce d6 3d 8f c2 7c 3d
       -0.12168291 0.048285875 0.10488579 0.061708983
000280 ae 1e a3 3c fb 10 cc bd 32 e7 45 3d fc 2f 96 3d
       0.01991209 -0.09964176 0.04831619 0.07333371
000290 92 84 91 3b 7a f4 dd 3d c9 2c 94 3d 4e 43 c4 3d
       0.0044408524 0.10837646 0.072351046 0.0958315
0002a0 b5 fe 16 3d 50 ea 25 be 3d f0 73 3d 79 88 2e bb
       0.036864 -0.16202664 0.05955528 -0.0026631637
0002b0 23 06 b7 bb 94 4b 34 3d c8 a7 8b 3d 9d 25 0c 3c
       -0.0055854484 0.04401739 0.06819111 0.00855389
0002c0 12 4d 89 bc 87 97 f0 3c bf 26 ee bd 98 83 97 3c
       -0.016760383 0.029369129 -0.11628484 0.018495366
0002d0 d4 d4 a1 3c 25 f9 8d 3d 0f 11 0b bd f4 08 c1 3d
       0.019754805 0.06932286 -0.033951815 0.09425536
0002e0 9a 0b 84 3d d9 70 90 bc 6f ed 24 3d fc 1a e3 3c
       0.06447525 -0.017631935 0.040265497 0.027722828
0002f0 f0 d8 a5 3d a2 bd b6 bb 01 28 31 bd 91 30 52 3d
       0.08098018 -0.005576805 -0.04325104 0.051315848
000300 3c 47 0b be a5 d8 81 bd d2 9f 55 3c 21 9f 83 bd
       -0.13601393 -0.0634015 0.013038592 -0.06426836
000310 03 b6 b4 ba c2 10 0e 3d d5 27 83 bd d6 ef 01 bc
       -0.0013787154 0.03468395 -0.06404082 -0.0079307165
000320 16 fa c1 3d fd 4b ef 3d 2a 4c 63 bc 70 c0 cc bd
       0.09471528 0.116844155 -0.013873139 -0.09997642
000330 3d 6e ba bd ea 5b 61 bc 7a 1b 3e bc e4 3b 72 3c
       -0.091030575 -0.013754824 -0.011603231 0.014784787
000340 28 6e cc 3c 9e 4c be 3d 51 c7 0a bd e5 16 90 3c
       0.02495487 0.09291957 -0.03388149 0.017589042
000350 76 a4 1d bd f6 9e 6a bd 9a c3 b6 3d d8 5d 40 3d
       -0.03848692 -0.057280503 0.08924027 0.046964496
000360 d6 b1 ad 3d 0f 55 45 bd ff 4e 36 3a 51 9e df 3d
       0.08481185 -0.04817682 0.00069545204 0.10918868
000370 c3 54 97 bc ca f2 f4 3d 48 a4 cc bc 3b 96 ed bc
       -0.018473035 0.11960371 -0.02498068 -0.0290023
000380 eb 97 ea 3c 31 50 aa bc a0 74 d5 bd a9 7b b7 bd
       0.028636893 -0.020790191 -0.10422635 -0.08959133
000390 c7 2f 80 bd aa 55 5f bd 55 80 e0 3d 42 e9 d1 bd
       -0.06259113 -0.054525055 0.109619774 -0.102495685
0003a0 b2 76 a4 bd 29 19 90 bd a5 1f 35 3d 28 42 73 3d
       -0.08030452 -0.07036049 0.04421963 0.059389263
0003b0 a0 bb 8d 3d b3 05 cb bc 14 4d 1b bd c2 2b 98 3d
       0.06920552 -0.024782991 -0.037915304 0.07430221
0003c0 57 65 0e 3b ef eb 81 3d 0c 00 fd 3d 8b fb 5f 3d
       0.0021727884 0.06343829 0.123535246 0.05468325
0003d0 db 81 de 3d 25 4b 80 3d 47 65 86 bd e2 cc a7 3d
       0.10864612 0.06264333 -0.06562286 0.08193375
0003e0 d7 1a ec bd 21 59 83 3c ae 6e ed 3d b5 e4 cb bc
       -0.11528557 0.01603371 0.11593376 -0.02488933
0003f0 01 c7 f6 bc 0c 0c 09 bd 67 c0 74 3c 53 46 4a bd
       -0.03012419 -0.033458754 0.01493845 -0.049383473

fc1.bias f4 [400]
000000 6e ac 34 3c 38 6c 47 3c 0f 1e 0b 3c 6a 72 fa 3b
       0.011027439 0.012171797 0.008491053 0.0076430338
000010 c8 58 55 3c 11 b0 14 3c a2 3f 44 3c bc 36 21 3c
       0.013021655 0.009075181 0.011978062 0.00983971
000020 14 a6 0e 3c bb 1f 32 3c 7b 9b 3b 3c 71 36 1c 3c
       0.008706588 0.010871823 0.011450644 0.009534464
000030 d9 28 29 3c d6 77 ee 3b 44 5f 09 3c 9a 0c 11 3c
       0.01032468 0.007277469 0.0083845295 0.008853102
000040 bd c0 08 3c 68 b1 c2 3b fd 09 4f 3c 36 ec 28 3c
       0.008346734 0.0059415586 0.012636659 0.010310223
000050 6b 77 40 3c b3 2f bb 3b 69 35 44 3c aa 53 2a 3c
       0.011747221 0.0057124733 0.011975625 0.010395924
000060 96 b4 ee 3b 80 58 1e 3c 33 69 9d 3b 52 6b 26 3c
       0.007284711 0.009664655 0.0048038005 0.010157423
000070 a4 1d 37 3c 8a 29 52 3c c6 83 0f 3c f7 2b 35 3c
       0.0111765005 0.0128272865 0.008759445 0.011057845
000080 cc 3b 36 3c 64 2d 3a 3c b5 f5 8d 3b ce 75 d6 3b
       0.011122655 0.011363361 0.004332269 0.006544805
000090 ba e3 03 3c ad 36 4f 3c fa ad 31 3c 12 61 16 3c
       0.0080499 0.012647313 0.010844702 0.009178417
0000a0 3d 0e 37 3c 74 fa 24 3c 5e 1e 17 3c f7 5c 6b 3c
       0.011172828 0.010069478 0.009223549 0.014365426
0000b0 2f a3 24 3c bf 16 02 3c 92 c5 0e 3c d3 b8 cb 3b
       0.010048672 0.007939993 0.008714097 0.006217101
0000c0 fb 27 b1 3b 8e c7 1a 3c 69 d2 27 3c b4 72 16 3c
       0.0054063774 0.009446992 0.010243037 0.009182621
0000d0 22 c7 57 3c d7 55 b7 3b 95 94 3b 3c 8e e0 59 3c
       0.013170036 0.0055949497 0.011448999 0.013298167
0000e0 f4 d2 2d 3c 79 97 56 3c 12 d8 11 3c b8 b3 dd 3b
       0.010609377 0.013097637 0.008901613 0.006765809
0000f0 1e b6 0b 3c d1 38 31 3c 16 32 0a 3c 5c bc 07 3c
       0.008527307 0.010816769 0.008434793 0.0082846545
000100 ab 3e 23 3c 1b b7 3f 3c ea 37 9a 3c 42 b0 71 3c
       0.009963672 0.011701371 0.01882549 0.014751496
000110 a6 42 23 3c 05 36 16 3c ef 6f 28 3c 2d 2d 12 3c
       0.009964621 0.009168153 0.010280593 0.008921904
000120 91 93 46 3b 3b 28 4c 3c 10 5c 42 3c db 1b 2f 3c
       0.0030300359 0.012460764 0.01186277 0.010687794
000130 8c a9 1f 3c f5 c3 46 3c e0 9a 34 3c ee d6 dc 3b
       0.009745013 0.012131681 0.011023253 0.006739489
000140 b3 fa 29 3c e8 25 39 3c 21 bb 8f 3c 21 da 66 3c
       0.010374713 0.011300541 0.017545285 0.014090092
000150 80 0a 2b 3c d8 a5 39 3c be 8e 2d 3c 7b ef 50 3c
       0.010439515 0.011331044 0.010593114 0.012752409
000160 07 1c 46 3c fc 86 37 3c 90 88 35 3c 2d fb 6b 3c
       0.012091643 0.011201616 0.011079922 0.014403147
000170 8e ed 87 3c 90 69 03 3c 29 bb 2c 3c 60 94 01 3c
       0.016592767 0.0080207735 0.010542669 0.0079089105
000180 7e 53 48 3c 6e e6 4d 3c 13 7c ac 3b 5f 87 d4 3b
       0.012226937 0.012567146 0.0052638142 0.006485864
000190 f1 fa 41 3c c8 ed 11 3c ca b1 f4 3b 1d 3a 2f 3c
       0.011839614 0.008906789 0.007467483 0.010695008
0001a0 c4 99 f6 3b ea 24 44 3c ff d8 2e 3c 16 bf 06 3c
       0.0075256545 0.011971692 0.010671853 0.008224269
0001b0 67 5f 16 3c be 23 0d 3c bb 27 e8 3b ea d9 75 3c
       0.009178019 0.008614479 0.0070848144 0.015005568
0001c0 6d ae 3d 3c 55 07 f9 3b c8 a1 8a 3c 7a a6 47 3c
       0.011577231 0.007599751 0.016922846 0.012185687
0001d0 bf aa 2b 3c 4f 4c e8 3b 4e 1c 64 3c 00 ee 56 3c
       0.010477721 0.007089175 0.013922764 0.013118267
0001e0 a7 6f d6 3b fe 35 79 3c 6d df 0d 3c 80 6c 3e 3c
       0.0065440717 0.015210627 0.008659226 0.011622548
0001f0 b0 63 86 3b 26 c0 00 3c 35 d8 16 3c ae 8a 04 3c
       0.004101239 0.007858312 0.009206821 0.008089704
000200 8f 21 26 3c e8 32 4e 3c 31 29 08 3c ac 58 fa 3b
       0.010139837 0.012585379 0.008310602 0.007639965
000210 6c 63 0b 3c bd 5f 36 3c eb bd 38 3c c9 5f 26 3c
       0.008507591 0.011131224 0.011275749 0.010154673
000220 67 55 18 3c e3 bd 2a 3c 81 86 df 3b 40 ff 50 3c
       0.009297705 0.010421249 0.006821454 0.012756169
000230 c4 52 d6 3b f9 fb 29 3c 8b 84 0c 3c 88 63 63 3c
       0.006540628 0.010375016 0.008576523 0.013878711
000240 27 48 2a 3c df 6c 09 3c 50 7c 25 3c 53 15 8d 3c
       0.010393179 0.008387773 0.010100439 0.017222082
000250 ce f7 1b 3c 3c 5a f9 3b c8 34 2e 3c 3c 6f 7a 3c
       0.00951953 0.0076096337 0.010632701 0.015285309
000260 3c 22 19 3c 22 4b c7 3b 42 c9 31 3c 2d e1 27 3c
       0.009346541 0.0060819546 0.010851206 0.010246557
000270 a2 e4 05 3c 0e 40 0e 3c 97 1c 0c 3c 14 81 12 3c
       0.008172186 0.008682264 0.008551738 0.008941907
000280 df 74 3d 3c ae 66 0d 3c 40 a0 84 3c b6 7a 40 3c
       0.011563509 0.008630438 0.016189694 0.011748007
000290 2a 51 48 3c 06 9f 0c 3c ef 01 60 3c ff fa 41 3c
       0.012226382 0.008582836 0.013672336 0.011839627
0002a0 6e 88 6b 3c 93 03 8d 3c 14 16 4a 3c a8 55 73 3c
       0.014375789 0.017213618 0.012334365 0.014851965
0002b0 04 5a 04 3c 0e d8 12 3c 21 2d ff 3b b2 04 54 3c
       0.008078102 0.008962644 0.007787362 0.012940573
0002c0 de ec e0 3b 36 26 46 3c a5 7f fb 3a a0 e9 4b 3c
       0.0068641743 0.012094071 0.0019187821 0.012445837
0002d0 6a 6c 01 3c a6 f5 51 3c c3 28 14 3c 68 b3 29 3c
       0.007899383 0.012814915 0.0090429215 0.010357715
0002e0 37 e4 33 3c 6c 81 43 3c 6b e7 cd 3b ca 5d 35 3c
       0.010979704 0.011932712 0.0062836907 0.011069724
0002f0 6e 89 25 3c 17 86 0b 3c 6d af 27 3c 83 0f 0b 3c
       0.010103567 0.008515856 0.010234696 0.008487585
000300 f4 80 0d 3c 3b ff c3 3b da e4 10 3c 7b dc 1f 3c
       0.008636702 0.0059813536 0.008843625 0.0097571565
000310 3a 11 be 3b d7 7a ef 3b 30 fc 54 3c 85 c6 3b 3c
       0.0058003934 0.007308345 0.012999579 0.011460905
000320 5e 3b 12 3c 2f 54 04 3c f0 b0 34 3c 4e 13 6b 3c
       0.008925287 0.008076712 0.011028513 0.014347864
000330 5d 5f 71 3c 3d 04 99 3b 33 be 38 3b 3a 33 15 3c
       0.014732209 0.0046696947 0.002818954 0.009106452
000340 ed c3 40 3c 69 a4 24 3c ef 40 13 3c 4c b7 06 3c
       0.011765462 0.010048964 0.008987649 0.008222412
000350 ef a3 f3 3b 42 d3 3f 3c 65 cf be 3b d6 a4 36 3c
       0.007435314 0.011708083 0.005823063 0.011147698
000360 44 91 11 3c 3b 3b 20 3c 0f 3a 5e 3c 18 85 46 3c
       0.008884732 0.009779747 0.013563647 0.012116693
000370 22 70 5d 3c e9 41 2d 3c 47 dc 39 3c 6a 4f 52 3c
       0.013515504 0.010574796 0.011344022 0.012836317
000380 05 73 34 3c e9 41 2a 3c 25 ac 0d 3c 55 bf 31 3c
       0.011013751 0.010391691 0.0086469995 0.01084884
000390 96 71 29 3c a8 b0 2d 3c 39 b9 93 3b 33 6a 43 3c
       0.010342022 0.0106012 0.0045081642 0.011927175
0003a0 ac 09 1d 3c d9 5c 21 3c 88 e9 f4 3b 44 fc fb 3b
       0.0095848255 0.009848797 0.007474128 0.0076899845
0003b0 61 82 03 3c dc 32 2b 3c 68 32 39 3c 89 d8 39 3c
       0.00802669 0.010449138 0.011303522 0.01134313
0003c0 74 e4 2a 3c fd 73 24 3c 78 14 41 3c f2 01 39 3c
       0.010430444 0.010037419 0.011784665 0.011291968
0003d0 ee 2e f3 3b f3 14 63 3c 17 15 15 3c ea 8e 00 3c
       0.007421366 0.013859975 0.0090992665 0.007846573
0003e0 4e 77 38 3c e3 d8 38 3c 35 88 c5 3b 63 ab fe 3b
       0.011258913 0.011282179 0.0060282 0.0077718957
0003f0 f8 8f 33 3c 6c e1 ff 3b 9e 2e 1a 3c 92 b5 39 3c
       0.010959618 0.007808855 0.0094105285 0.011334794

bn1.weight f4 [400]
000000 e6 10 7a 3f 4d 69 7d 3f f3 36 77 3f f3 08 81 3f
       0.97682035 0.989888 0.9656822 1.0080856
000010 31 76 78 3f 04 4e 7b 3f 59 64 7c 3f 5e 6a 79 3f
       0.97055346 0.9816592 0.9859062 0.9742793
000020 7c 4d 82 3f bd 5b 83 3f 32 66 81 3f a7 93 80 3f
       1.0179896 1.0262371 1.0109313 1.004506
000030 b7 20 7c 3f 5a e7 82 3f 25 83 83 3f f6 18 80 3f
       0.9848742 1.0226853 1.0274397 1.0007617
000040 de d1 81 3f c5 b2 7e 3f 1a 7e 82 3f 3e af 7d 3f
       1.0142171 0.9949153 1.0194733 0.99095523
000050 25 ee 80 3f 24 89 82 3f ca ff 75 3f 01 7e 80 3f
       1.0072676 1.0198102 0.9609343 1.0038453
000060 1b 7c 7e 3f ed 29 81 3f 6c d2 7a 3f d2 70 7b 3f
       0.9940812 1.009092 0.9797733 0.98219025
000070 63 e9 7d 3f df 86 84 3f 7c b7 7e 3f 61 3e 83 3f
       0.99184245 1.0353659 0.99498725 1.0253412
000080 cc 08 7f 3f 4a db 79 3f c3 66 82 3f 5e 12 80 3f
       0.996228 0.97600234 1.018761 1.0005605
000090 93 c8 7f 3f 5d 2c 80 3f 77 f4 7d 3f aa ea 80 3f
       0.99915427 1.0013539 0.9920115 1.0071614
0000a0 51 11 82 3f 08 9e 83 3f d3 7d 81 3f 92 16 80 3f
       1.0161535 1.0282602 1.0116524 1.0006888
0000b0 c7 d2 7c 3f 0a a2 81 3f 6c ef 83 3f cb 2d 81 3f
       0.9875912 1.0127575 1.0307441 1.00921
0000c0 95 7f 81 3f ef e1 80 3f df d1 80 3f fc 5c 81 3f
       1.011706 1.006895 1.0064048 1.0106502
0000d0 df a6 80 3f a0 40 7f 3f 9a eb 7f 3f ec 0f 80 3f
       1.0050925 0.99707985 0.99968874 1.0004859
0000e0 d0 44 7a 3f 31 19 80 3f 99 f9 7f 3f 34 e4 7f 3f
       0.9776125 1.0007688 0.9999023 0.99957585
0000f0 56 a9 7e 3f dd 7a 7f 3f ff d1 81 3f 20 d6 7d 3f
       0.99477136 0.9979685 1.0142211 0.99154854
000100 b1 6f 7e 3f 07 18 80 3f 90 97 82 3f 48 c6 82 3f
       0.9938918 1.0007333 1.0202503 1.0216761
000110 c9 4f 82 3f ce 89 82 3f 9d 62 80 3f 8e 49 81 3f
       1.0180598 1.0198305 1.0030094 1.0100572
000120 32 22 84 3f d3 69 7b 3f 98 45 84 3f c8 7d 7e 3f
       1.0322936 0.9820835 1.0333738 0.99410677
000130 c0 54 7f 3f ef d3 7a 3f 57 69 83 3f 23 94 81 3f
       0.99738693 0.97979635 1.0266522 1.0123333
000140 be 39 82 3f ff c8 80 3f a6 c1 82 3f c4 88 7b 3f
       1.0173872 1.0061339 1.0215347 0.9825556
000150 bb 9e 7c 3f 36 e4 7f 3f 31 40 80 3f 15 c6 81 3f
       0.98679703 0.999576 1.001959 1.0138575
000160 d5 b5 82 3f 31 ff 80 3f c4 b3 7e 3f 27 50 80 3f
       1.0211741 1.0077878 0.9949305 1.002446
000170 5c eb 82 3f 14 d3 7d 3f f5 29 7f 3f de af 80 3f
       1.0228076 0.99150205 0.99673396 1.005367
000180 ad 86 7d 3f 73 58 7c 3f c2 d3 84 3f ec 7e 82 3f
       0.99033624 0.9857246 1.0377123 1.0194983
000190 c1 84 7e 3f 96 a9 75 3f 48 32 7b 3f a2 b9 7c 3f
       0.99421316 0.9596189 0.981236 0.98720753
0001a0 6d 8f 81 3f a3 96 7b 3f c7 7e 81 3f 51 b1 7f 3f
       1.0121895 0.9827673 1.0116814 0.9987994
0001b0 ef bb 82 3f 2e 05 81 3f da 05 81 3f 66 a6 80 3f
       1.0213603 1.0079706 1.0079911 1.0050781
0001c0 66 a5 81 3f 4a c3 7d 3f 19 73 7e 3f 0a 97 81 3f
       1.0128601 0.9912611 0.99394375 1.0124218
0001d0 1f ec 7b 3f 62 ef 82 3f b4 2b 83 3f ba 0f 83 3f
       0.9840717 1.0229304 1.0247712 1.0239174
0001e0 08 77 7d 3f f2 f4 81 3f 2e 1a 80 3f 53 cf 82 3f
       0.9900975 1.0152876 1.000799 1.021952
0001f0 29 ba 82 3f 5f d9 80 3f e3 1f 79 3f 0b f3 81 3f
       1.0213062 1.0066336 0.9731428 1.0152296
000200 7e f4 79 3f 25 24 7a 3f ee de 7b 3f a7 b1 7d 3f
       0.9763869 0.977114 0.9838704 0.990992
000210 f0 41 80 3f 3b 7b 81 3f e8 c6 79 3f 16 61 7a 3f
       1.0020123 1.0115732 0.9756913 0.9780439
000220 2d 6b 80 3f 0c c7 74 3f be 91 7a 3f c8 43 80 3f
       1.0032707 0.9561622 0.97878635 1.0020685
000230 54 73 80 3f 77 a6 85 3f 11 81 7b 3f 2f e0 7d 3f
       1.0035195 1.0441426 0.98243815 0.991702
000240 d0 22 7d 3f 58 bc 81 3f da e8 7f 3f d2 c8 82 3f
       0.98881245 1.0135603 0.9996468 1.0217535
000250 3a c9 80 3f a5 cf 79 3f 0d be 78 3f 3a 58 7f 3f
       1.006141 0.97582465 0.97164994 0.99744
000260 7a 1a 83 3f 83 f4 7b 3f 7c 8e 80 3f 46 e6 79 3f
       1.0242455 0.9841997 1.0043483 0.97616994
000270 e4 0e 80 3f bd 72 7a 3f 74 3b 79 3f aa f1 7c 3f
       1.0004544 0.97831327 0.97356343 0.9880625
000280 c6 41 81 3f cf f0 7a 3f ec 64 7f 3f 11 11 7d 3f
       1.0098197 0.98023695 0.9976337 0.98854166
000290 72 c1 80 3f 29 1a 7d 3f da 7d 82 3f fd 59 7d 3f
       1.0059035 0.9886804 1.0194657 0.98965436
0002a0 e1 d3 81 3f 60 a3 7e 3f fe c9 7d 3f 26 14 82 3f
       1.0142785 0.9946804 0.9913634 1.0162399
0002b0 d6 5c 80 3f eb 06 75 3f e5 d6 82 3f 3b 5e 81 3f
       1.0028331 0.9571368 1.0221831 1.0106882
0002c0 50 71 79 3f d3 b3 7c 3f 74 76 82 3f 13 3b 80 3f
       0.97438526 0.9871189 1.0192399 1.0018028
0002d0 78 e0 7b 3f eb 88 80 3f 45 0a 81 3f 39 04 7f 3f
       0.9838939 1.0041784 1.0081259 0.9961582
0002e0 67 66 84 3f 8f 7c 7d 3f 3a 87 84 3f 48 e8 7d 3f
       1.0343751 0.99018186 1.0353768 0.9918256
0002f0 5c bc 80 3f 8e fa 80 3f e4 1f 7b 3f d5 8b 7f 3f
       1.0057483 1.0076463 0.98095536 0.9982274
000300 a5 a7 81 3f 5e 4a 7a 3f 12 fd 82 3f 5c 59 80 3f
       1.0129286 0.97769725 1.0233481 1.002727
000310 c3 00 7c 3f c4 09 80 3f 7f 62 80 3f 6d b0 7e 3f
       0.9843866 1.000298 1.0030059 0.99487954
000320 ce 39 75 3f 0b 90 80 3f 4f de 80 3f 64 53 7f 3f
       0.9579133 1.0043958 1.0067843 0.9973662
000330 92 63 82 3f 51 94 81 3f 37 d8 82 3f 5a 40 80 3f
       1.0186636 1.0123388 1.0222234 1.0019639
000340 91 da 79 3f 31 03 82 3f 50 20 80 3f 98 ac 7f 3f
       0.9759913 1.0157224 1.0009861 0.9987273
000350 11 2a 82 3f bf 25 80 3f da 93 82 3f 6e be 7b 3f
       1.0169088 1.0011519 1.0201371 0.9833745
000360 fc 0d 84 3f 10 51 7b 3f 71 0b 80 3f 0c b7 79 3f
       1.0316768 0.98170567 1.0003492 0.9754493
000370 1e 01 81 3f 06 20 7d 3f 68 63 80 3f bd 80 79 3f
       1.0078466 0.9887699 1.0030336 0.97462064
000380 47 40 7a 3f 32 d3 7e 3f 8a 2e 81 3f be bb 83 3f
       0.9775433 0.9954101 1.0092328 1.0291669
000390 40 a7 80 3f 4b a0 7c 3f a5 54 81 3f bb 63 82 3f
       1.0051041 0.9868209 1.0103956 1.0186685
0003a0 64 af 81 3f 20 99 81 3f 60 e0 7d 3f c3 3e 82 3f
       1.013165 1.0124855 0.99170494 1.0175403
0003b0 c4 b3 7d 3f dc 14 81 3f 71 3e 81 3f a6 a0 80 3f
       0.99102426 1.0084491 1.0097181 1.0049026
0003c0 59 e0 7f 3f d6 c1 80 3f 2f 38 83 3f d0 3e 82 3f
       0.999517 1.0059154 1.0251521 1.0175419
0003d0 2e 86 7e 3f 67 07 80 3f 9a 13 82 3f 2b a0 7e 3f
       0.9942349 1.0002259 1.0162232 0.99463147
0003e0 3f 07 79 3f 82 2e 80 3f a9 ca 80 3f 22 10 80 3f
       0.9727668 1.0014193 1.0061847 1.0004923
0003f0 57 db 78 3f 2e 19 7d 3f 61 fe 7c 3f 36 d9 7d 3f
       0.97209686 0.98866546 0.9882565 0.9915956

bn1.bias f4 [400]
000000 87 12 8c 3d b5 89 2d 3d 61 74 6d bc ff 0f 22 3d
       0.06839471 0.042367656 -0.014493079 0.039566036
000010 78 9b 95 bb ee 24 0e 3d a9 d0 00 3d b3 ad 4c bd
       -0.0045656525 0.034703188 0.031448994 -0.04997034
000020 41 64 d1 bc 66 9b 25 3d de c9 97 3c a0 75 83 bc
       -0.0255605 0.040431403 0.018528875 -0.016047299
000030 26 fd b0 bc e0 14 23 bd 17 63 3f 3c 7f 6a f3 3c
       -0.021605086 -0.03981483 0.01168134 0.029713867
000040 43 c5 1a bd 6e ec 9e 3c 8a 07 2b 3c d4 b4 84 bc
       -0.03778578 0.019399848 0.010438809 -0.016199507
000050 7d 14 09 3c 97 74 fd bc 31 e2 e3 3a 51 1d 0a 3d
       0.008366701 -0.030939383 0.0017386136 0.033719365
000060 4f e5 07 bb 2d a2 fd bc 9e 57 c3 bc 25 a2 45 3c
       -0.0020736044 -0.03096112 -0.02384549 0.012062584
000070 68 db 93 bc 07 87 ce bc 86 a5 3c 3d 69 68 4d 3c
       -0.018048957 -0.02521087 0.046056293 0.0125371
000080 74 73 ee 3c 37 8f a1 bc 72 1f f6 3c 55 46 c6 bc
       0.029107787 -0.01972161 0.030044291 -0.024203459
000090 04 a9 74 3d ce 05 82 ba 51 94 28 3c bc 4b 95 bb
       0.0597315 -0.0009919943 0.010289268 -0.0045561474
0000a0 bc 80 6e bb 3e 5e fd 3a 2a ae 39 bd dc a0 ac bc
       -0.003639265 0.0019330455 -0.04533211 -0.021072797
0000b0 21 27 42 3c 1e 48 29 3d 65 b8 3d 3d e8 30 16 3c
       0.011850149 0.041328542 0.04631843 0.009166934
0000c0 a5 f9 34 3d 60 41 01 3c 7b 9b 01 3d c4 29 76 3d
       0.044183392 0.007889122 0.03164242 0.060098425
0000d0 a1 b6 86 bc 4b 5d 15 bd 7b 15 14 bd 24 a1 1a 3d
       -0.016444506 -0.036465924 -0.036153298 0.037751332
0000e0 ef 68 71 3d 03 48 99 3c b2 0f 20 3c 92 41 09 ba
       0.058937963 0.018711096 0.009769367 -0.0005235906
0000f0 eb 3a 1c bd 03 a8 97 bc b5 37 80 3c 85 de ff 3b
       -0.038142126 -0.018512731 0.015651563 0.007808509
000100 c5 6c 7f bc a5 3c c7 3c 35 2d c3 bb 2e 47 ae 3c
       -0.0155898975 0.02432091 -0.005956317 0.021274175
000110 e2 c0 13 b8 43 51 87 3c 7a 86 37 3d f1 11 86 3c
       -3.5227167e-05 0.01651824 0.04480598 0.016365977
000120 a5 2a 74 3c f4 99 98 3c 04 87 13 3d f5 c1 aa 3b
       0.014902745 0.018628098 0.036017433 0.0052111098
000130 50 dc 05 ba 36 b7 19 bb e1 71 5f 3d 61 04 2b 3d
       -0.00051063765 -0.002345515 0.054551963 0.041752223
000140 ae 9b c4 3c 0c 75 4b 3c ce b8 a1 3c 7a e6 27 3c
       0.024000015 0.012418043 0.019741442 0.010247821
000150 26 72 c2 3c 5e 50 a5 3c 33 f6 2b 3d 3d de 32 3b
       0.02373607 0.020179924 0.04198284 0.002729311
000160 ff 05 92 bc 2b a9 81 3b 9c a4 ff bc 8a 6b 05 bd
       -0.017825125 0.003956934 -0.031206422 -0.03257326
000170 c7 9d 04 3d 38 05 83 3c 8a bf 32 3d 27 b2 97 3c
       0.03237703 0.0159937 0.043639697 0.018517567
000180 18 0a 11 bc 7c 3d 90 3d b4 ec 9a 3d 27 eb 8b 3d
       -0.008852504 0.07042977 0.07564679 0.06831961
000190 6d a6 8e bc fe 57 86 3b 77 bf 3a 3d da 8c f4 3c
       -0.017413342 0.004099845 0.04559275 0.02985232
0001a0 d8 6a 5d 3d ed 61 43 bb 4a c9 c9 bc 23 19 0e 3d
       0.054056972 -0.0029813007 -0.024632115 0.03469194
0001b0 15 f7 8b 3d 08 ad a2 3c 4b f9 76 3d 97 ab 0a 3d
       0.068342365 0.019857898 0.060296338 0.033855047
0001c0 49 6e 8d 3c e9 b5 b9 bb 31 a9 b1 bc 95 8d c3 3b
       0.017264502 -0.0056674373 -0.021687122 0.0059678056
0001d0 bd 24 25 bc 8c 29 5c 3d 3d f6 80 3d be 12 93 3d
       -0.01007956 0.05375056 0.06296966 0.07181309
0001e0 ec 89 25 bb cb b2 8b 39 f2 69 f4 3c 8a 39 94 3c
       -0.002525921 0.00026645357 0.029835675 0.018093843
0001f0 ac 48 eb 3b 9d 7c 1e 3d f9 e3 19 bd f5 b6 42 3d
       0.007180294 0.03869306 -0.037570927 0.047537763
000200 6a e6 8e bc 8a ae ce bc 4b de 25 bc 9d 2e fe bb
       -0.017443854 -0.025229711 -0.0101238 -0.0077570216
000210 41 f2 42 bd 78 02 41 3d c5 4a 2f bb 3c fa e8 3c
       -0.047594313 0.047121495 -0.0026747447 0.028439634
000220 07 d9 e0 3c fb 05 eb bc b6 c0 6e 3d d8 06 33 3c
       0.027447237 -0.028689375 0.058289252 0.010926925
000230 1a 19 95 bc bf 10 0e 3d a1 a5 2d bd 79 56 10 3c
       -0.018200446 0.03468394 -0.042394284 0.008809679
000240 ae 3b 58 bb 1e f1 85 3c 42 2b 21 3d f0 82 d3 3c
       -0.0032994556 0.016350325 0.039347894 0.025819272
000250 01 f4 17 3d d9 d6 88 3c c0 7c 14 3c 8e a7 bb 3c
       0.037097935 0.01670401 0.009062946 0.022907045
000260 1a f1 89 3b fd 10 1c 3c da 35 1d 3c 84 27 e4 bb
       0.0042096497 0.009525535 0.009595359 -0.0069627184
000270 1e fe d6 3c 54 be 75 bd 17 86 06 bd 88 7f 1c bc
       0.02624422 -0.059995964 -0.03284272 -0.00955189
000280 d8 b6 4a 3d bf 1c 76 bc 0f 69 a5 bc 97 d9 88 3c
       0.04949078 -0.015021502 -0.020191697 0.016705317
000290 51 61 09 bb e8 d3 a5 3d f3 04 ce 3c b8 8e ee bc
       -0.0020962546 0.080970585 0.025148844 -0.029120788
0002a0 c0 2a 3b 3c 17 3f d1 bc 6c c4 03 3c db 43 a3 ba
       0.011423767 -0.025542779 0.008042436 -0.0012456136
0002b0 53 fa e3 3b 77 44 21 bb 38 1e ea 3b df 7a d0 3c
       0.006957331 -0.0024607459 0.0071447156 0.025449215
0002c0 24 59 46 bd 58 b6 58 bd 95 81 9f 3d a1 7a 11 bc
       -0.048424855 -0.05290827 0.07788388 -0.008879335
0002d0 34 27 8e bc ac d0 05 bd 4a 3f 71 3c 93 e9 b6 3c
       -0.017352678 -0.032669708 0.014724562 0.022328174
0002e0 ff 99 88 3c 39 d8 22 bc 27 95 82 b9 2a 87 33 bd
       0.016674994 -0.009939247 -0.0002490666 -0.043830074
0002f0 34 5a 10 bd 97 60 78 3d a0 03 18 3d ce 41 4f bb
       -0.035242274 0.06063899 0.037112832 -0.0031624916
000300 84 e1 84 3d 07 d0 a4 bd 32 9b 5a 3d 96 69 53 3c
       0.06488326 -0.080474906 0.053370662 0.012903592
000310 6d 71 57 3c c7 15 04 3c 00 6d d4 3d 96 a5 bc 3c
       0.013149601 0.008061833 0.103723526 0.023028176
000320 32 c4 14 3d 23 75 c8 3c 65 48 09 3d 66 48 fc bb
       0.03631992 0.024469918 0.033516306 -0.0076990603
000330 4a af 3a bd 20 6d e7 3c 45 e3 47 3d b0 05 5d bc
       -0.045577325 0.028250277 0.048800725 -0.013490126
000340 0c d5 5d bc ec cc 5e bd 48 2f 0f 3c bb 05 93 3b
       -0.013539564 -0.054394647 0.0087393 0.004486767
000350 6f 22 60 bc f3 ac 77 bb 20 52 7b 3b cb 67 be ba
       -0.013680085 -0.0037792295 0.003834851 -0.0014526782
000360 af 7c f8 3c 62 a9 89 b9 9c c2 30 3d 29 9a c3 bc
       0.030332891 -0.00026256876 0.043154344 -0.02387722
000370 62 8d 00 3d 35 44 fe bb 8d aa 1d 3d 6f 26 8d 3c
       0.031384833 -0.0077595958 0.038492728 0.01723024
000380 6c 72 28 bc 82 2b b5 3c e9 2c 32 bc 19 a2 78 3d
       -0.010281187 0.022115473 -0.010874965 0.060701463
000390 5f 82 dd 3c c1 3c 4d bc d7 c1 a6 3b a3 b2 d0 3c
       0.027039705 -0.012526692 0.0050890255 0.025475806
0003a0 f2 13 07 3d 30 8a 03 3d 15 17 0f bd 00 4e 9f 3b
       0.032978006 0.032114208 -0.034934122 0.0048615932
0003b0 8d 06 ca 3c bf 36 93 ba 4d 71 a2 3c d4 ed ed 3c
       0.024661327 -0.0011231526 0.019829417 0.02904407
0003c0 ed e1 a1 bc 45 c7 65 bc f7 99 04 bc 21 b8 66 bb
       -0.01976105 -0.01402456 -0.008093349 -0.0035204964
0003d0 fd cc 35 3d a2 63 2b 3c 2f fd e3 3c 37 ce c4 3c
       0.044384945 0.010460766 0.027830688 0.024024112
0003e0 16 22 33 3d 36 08 03 3c e2 e3 c6 3c fb a8 d0 3a
       0.04373368 0.007997563 0.024278585 0.0015919501
0003f0 a0 c6 a0 3c 17 f6 fe bc fe c6 a3 3c 5e 95 04 3d
       0.019625962 -0.031123204 0.019992348 0.03236901

bn1.running_mean f4 [400]
000000 3e 7d 3c 3c 0e 15 60 3c 14 4e 64 3c 6b 91 cb 3b
       0.011504469 0.013676895 0.013934631 0.0062124035
000010 d2 64 49 3c b1 29 34 3c 99 76 03 3c f0 dd 74 3c
       0.012292104 0.010996268 0.008023881 0.014945492
000020 c9 c3 1d 3c da e5 48 3c b1 76 4d 3c 6e 3a 35 3c
       0.009629198 0.012261832 0.012540505 0.011061294
000030 14 3f 0d 3c 2b 36 dd 3b 0d 8f ec 3b 8b aa 18 3c
       0.008620996 0.006750842 0.0072192014 0.009318004
000040 ec 49 23 3c 3a 83 bc 3b 7f ba 22 3c 54 c2 5a 3c
       0.009966355 0.005752948 0.009932159 0.0133519955
000050 68 e2 4a 3c dc ba 1b 3c 1c f4 02 3c 44 72 34 3c
       0.012383081 0.009505 0.0079927705 0.011013571
000060 de 75 ea 3b a0 24 3c 3c 7a e9 a1 3b 57 b8 f9 3b
       0.007155164 0.011483341 0.0049411627 0.007620852
000070 06 0e 58 3c c3 18 50 3c 8d 70 ec 3b 29 4f 50 3c
       0.013186937 0.012701216 0.0072155655 0.012714186
000080 69 c8 46 3c d3 12 10 3c cb 94 46 3a 02 66 0e 3c
       0.012132742 0.008793551 0.00075752725 0.008691313
000090 9e b7 13 3c 8f d3 51 3c 88 0b f0 3b 44 8e 19 3c
       0.009015946 0.012806787 0.0073255934 0.009372298
0000a0 54 01 31 3c 76 61 3c 3c b3 fd 48 3c 13 39 2b 3c
       0.010803539 0.011497846 0.012267518 0.010450619
0000b0 17 30 4a 3c d9 88 1b 3c 46 1d 25 3c 1a 05 b2 3b
       0.012340567 0.009493076 0.01007778 0.005432737
0000c0 38 15 80 3b f0 62 db 3b 8d 5a 2b 3c cc 5f f7 3b
       0.0039087795 0.006695144 0.010458601 0.0075492617
0000d0 b4 80 31 3c 26 bc 9b 3b 5b 4b 51 3c 10 0e 11 3c
       0.010833908 0.0047526537 0.012774314 0.00885345
0000e0 a4 57 71 3c 15 4a 67 3c c5 96 20 3c 8c 01 bd 3b
       0.014730368 0.014116784 0.009801571 0.0057680067
0000f0 65 d7 f6 3b cd 98 43 3c 27 fe 41 3c 3c 58 18 3c
       0.0075330012 0.011938286 0.01184038 0.00929838
000100 2d 02 6d 3c 63 5e 55 3c 5f 12 93 3c 66 12 72 3c
       0.014465851 0.013022992 0.017953096 0.014774894
000110 41 14 23 3c 19 97 34 3c dd 79 3e 3c ad b4 05 3c
       0.009953559 0.011022353 0.011625734 0.008160752
000120 1f 4a 44 3b 9d d7 6f 3c 2e 11 65 3c 16 7a 13 3c
       0.0029951406 0.014638809 0.013981147 0.0090012755
000130 7d 8e 54 3c ee a4 55 3c 9f a7 4d 3c 29 e8 03 3c
       0.012973425 0.013039811 0.012552171 0.008050957
000140 88 c8 3f 3c 80 be 48 3c e2 99 a3 3c 1a 0a 6b 3c
       0.011705525 0.01225245 0.019970838 0.01434567
000150 3a f5 07 3c eb 9f 31 3c 19 99 10 3c 48 6b 40 3c
       0.008298213 0.01084135 0.008825564 0.011744328
000160 0e cb 4d 3c 32 09 54 3c 8e 17 6e 3c be c0 7b 3c
       0.012560619 0.012941645 0.014531983 0.015365778
000170 e3 cd 80 3c b1 7b ea 3b 90 bc 55 3c d1 77 33 3c
       0.015723174 0.0071558584 0.013045445 0.010953859
000180 59 ab 19 3c 6d 9e 4e 3c a7 9e 82 3b e8 d8 8e 3b
       0.009379231 0.012611014 0.003986198 0.0043593533
000190 28 3b 79 3b 57 8a e7 3b 4c e3 46 3b db 68 1a 3c
       0.0038029645 0.007066052 0.0030347882 0.009424414
0001a0 30 b6 da 3b 1d b6 1e 3c 3e db 10 3c 4e 38 00 3c
       0.0066745505 0.009686974 0.008841334 0.007825924
0001b0 fd 3d c6 3b 85 67 22 3c 64 c8 84 3b c3 c3 81 3c
       0.00604987 0.009912376 0.0040522087 0.015840417
0001c0 cc 47 47 3c fb 3e 8d 3b 79 1b 83 3c 2d 53 7c 3c
       0.012163114 0.0043104864 0.01600431 0.01540069
0001d0 76 64 54 3c 1b 35 2b 3c 6f 3c 61 3c d9 01 3f 3c
       0.012963405 0.010449673 0.013747319 0.011658155
0001e0 fc ff ce 3b a2 03 76 3c b6 69 2c 3c c1 1e 64 3c
       0.006317137 0.015015515 0.01052325 0.013923348
0001f0 9d 7b cc 3a 14 e6 95 3b 86 d3 be 3b 3e 4c be 3b
       0.0015600804 0.0045745466 0.0058235554 0.0058074286
000200 88 01 aa 3b f8 76 83 3c ad f6 e8 3b 5b 4c fa 3b
       0.005188171 0.01604794 0.007109484 0.007638497
000210 d1 ec 30 3b 77 fb 2d 3c c3 aa 1d 3c f4 8b 7e 3c
       0.0026996622 0.010619036 0.009623232 0.015536297
000220 0f 37 1b 3c bd f0 38 3c aa 36 76 3b b4 14 72 3c
       0.009473576 0.011287865 0.0037569203 0.014775444
000230 a2 a3 65 3c 63 3f 06 3c 0b 63 36 3c 92 b3 44 3c
       0.014016064 0.0081938235 0.011132012 0.0120057035
000240 41 c1 22 3c b5 78 e8 3b 5a 64 29 3c 8e a2 90 3c
       0.009933771 0.0070944675 0.010338867 0.017655637
000250 8a 51 20 3c 1c 49 13 3c 3e 37 4c 3c ac 52 74 3c
       0.009785065 0.008989599 0.012464343 0.014912289
000260 f9 28 f3 3b 58 3e 28 3b 1b 1d 1a 3c 12 00 3c 3c
       0.007420656 0.0025671925 0.009406353 0.011474626
000270 2b c8 9e 3b e7 84 23 3c 48 c6 44 3c 55 53 8a 3b
       0.004845639 0.009980417 0.012010165 0.0042213597
000280 b4 38 5e 3c b0 5e 56 3c 26 5d 4e 3c eb b5 6b 3c
       0.013563324 0.013084099 0.0125954505 0.014386634
000290 70 f1 32 3c 13 be 52 3c 6c c0 21 3c 06 fe 41 3c
       0.010921821 0.0128627 0.009872537 0.011840349
0002a0 18 78 58 3c 30 3e 8c 3c e2 be 3d 3c fa a3 8a 3c
       0.013212226 0.017119497 0.011581155 0.016923893
0002b0 cf 92 25 3c 76 13 61 3b b7 82 dd 3b 79 fa 2a 3c
       0.010105803 0.0034343875 0.006759967 0.010435694
0002c0 a6 96 9d 3b e4 20 a9 3b aa a0 9c 3a cd 1e 01 3c
       0.0048092185 0.0051613916 0.0011949737 0.007880879
0002d0 fc ae 03 3c 03 62 1f 3c f9 ff 31 3c 35 71 0f 3c
       0.008037325 0.009727958 0.010864251 0.008755018
0002e0 95 9f 4d 3c 21 fc 38 3c 36 de c1 3a 3e 79 45 3c
       0.012550254 0.011290581 0.0014790955 0.012052832
0002f0 71 09 5d 3c 22 91 34 3c 9a d9 61 3c 60 0b db 3b
       0.013491021 0.0110209305 0.01378479 0.0066847056
000300 18 9a e2 3b 6f 18 c9 3b d0 4c 25 3c 49 e1 72 3c
       0.006915342 0.006136946 0.010089114 0.01482422
000310 80 f1 ba 3b aa c3 9a 3b 8f b4 6e 3c 05 83 32 3c
       0.0057050586 0.004723032 0.014569416 0.010895495
000320 7d b3 d6 3b 43 52 d9 3b 09 a2 8d 3c c0 5f 72 3c
       0.0065521584 0.006632121 0.017289178 0.014793336
000330 9a 68 77 3c 4b 23 8f 3b 20 62 36 3b e8 bd 0e 3c
       0.015100623 0.004368221 0.0027829483 0.008712269
000340 7b 2e 80 3c f1 d4 25 3c de 8b d7 3b 5e e1 1b 3c
       0.015647164 0.01012157 0.0065779528 0.009514181
000350 6d 30 1b 3c 42 da 18 3c 47 09 c3 3b 43 24 6b 3c
       0.009471995 0.0093293805 0.0059520337 0.014351907
000360 e4 64 3c 3c 6c 36 b2 3b 66 21 85 3c ac 7d 8a 3b
       0.011498664 0.0054386165 0.016251277 0.004226407
000370 71 ac 53 3c f8 5b 71 3c 80 ab 83 3c 35 89 4f 3c
       0.012919531 0.0147314 0.016072989 0.01266699
000380 d7 a6 f6 3b fa a4 d9 3b 51 11 21 3c c2 f8 72 3c
       0.007527213 0.006641981 0.009830789 0.014829816
000390 6b 0c 3b 3c be 65 70 3c 0e 43 17 3c 95 2e 37 3c
       0.011416535 0.014672695 0.009232296 0.01118054
0003a0 4a 0b 3c 3c 32 70 57 3c 20 1c e9 3b 5c 80 cd 3b
       0.011477301 0.013149308 0.0071139485 0.006271405
0003b0 0f 30 eb 3b 52 37 42 3c c8 e5 11 3c 6e 0e 2c 3c
       0.00717736 0.01185401 0.008904882 0.010501487
0003c0 67 f8 17 3c c2 bc 5d 3c 6d 69 4e 3c 4e 2d 14 3c
       0.009275532 0.013533773 0.012598378 0.009044005
0003d0 99 8a 18 3c 6f 21 5c 3c 39 64 18 3c a7 ed 01 3c
       0.009310388 0.013435706 0.009301239 0.007930196
0003e0 77 de 54 3c 75 fc 3f 3c a6 e6 37 3c ac a4 8d 3b
       0.012992493 0.011717905 0.0112244245 0.004322609
0003f0 e2 9c 0a 3c 9c cc 23 3c 4a b4 e2 3b d1 a0 4e 3c
       0.008460255 0.009997513 0.006918465 0.012611584

bn1.running_var f4 [400]
000000 48 9c 05 3c 23 82 d6 3b b6 e2 43 3c 64 f8 8c 3b
       0.008154936 0.006546275 0.011955908 0.0043020714
000010 e6 8a e6 3b b8 50 2e 3c c8 16 c9 3b 35 14 09 3c
       0.007035601 0.010639362 0.006136749 0.008366634
000020 14 e4 ad 3b dd 83 23 3c 9a 65 d9 3b 62 a8 f6 3b
       0.00530673 0.009980169 0.0066344263 0.007527397
000030 4c e9 e7 3b 46 a4 92 3b ad e1 12 3c 25 f2 0e 3c
       0.0070773717 0.0044751493 0.008964938 0.008724724
000040 e4 b8 f0 3b b4 3b 22 3c 38 4e d0 3b 6c 56 03 3c
       0.0073462594 0.00990193 0.0063569807 0.00801621
000050 ce 24 0b 3c b2 69 fb 3b 74 45 a7 3b 7f 2d 46 3b
       0.008492662 0.007672512 0.005104715 0.003023952
000060 90 85 bb 3b 80 26 01 3c 03 7d a8 3b f7 0b ef 3b
       0.005722709 0.007882714 0.0051418557 0.0072951275
000070 06 59 0d 3c 64 ac b3 3b 13 26 04 3c 6d c5 b4 3b
       0.008627182 0.005483197 0.008065718 0.005516699
000080 0b 7c 05 3c 7c b7 0b 3c 7d a4 1f 3c 10 01 a9 3b
       0.00814725 0.008527633 0.009743807 0.0051575974
000090 33 7d d8 3b 39 da 17 3c 70 77 6b 3b 98 51 0d 3c
       0.006606722 0.009268337 0.0035929345 0.0086254105
0000a0 7c e2 cf 3b 21 0b ec 3b 26 9c 41 3b 71 83 92 3b
       0.0063441377 0.007203475 0.0029542535 0.0044712354
0000b0 fa e8 cf 3b 44 dc 3a 3c de 42 9b 3b 20 89 27 3c
       0.0063449116 0.0114050545 0.004738196 0.010225564
0000c0 67 b5 a8 3b c4 5f cb 3b 7e 35 95 3b 84 26 04 3c
       0.005148578 0.0062064845 0.004553496 0.008065823
0000d0 3a e7 31 3c fc f5 dd 3b 0e 88 24 3c 3d c5 0b 3c
       0.010858351 0.0067737084 0.010042204 0.008530912
0000e0 1a b8 48 3c 1a b1 99 3b c7 6a f4 3b 62 69 8a 3b
       0.0122509245 0.0046903016 0.007459018 0.0042239884
0000f0 ed 4b 32 3c 24 92 0f 3c d2 0c a0 3b 80 80 15 3c
       0.01088236 0.00876287 0.004884341 0.009124875
000100 8e c9 e8 3b 06 b2 da 3b 4d 1e 0e 3c 49 08 34 3c
       0.0071041053 0.006674054 0.008674216 0.010988303
000110 a9 ee b7 3b 99 cd eb 3b 79 96 ed 3a 5c 96 a6 3b
       0.0056131673 0.00719614 0.0018126509 0.005083842
000120 95 8f ea 3b 9a 32 18 3c 9e 7b 3f 3c da 0a b7 3b
       0.0071582296 0.009289408 0.0116871875 0.0055860104
000130 e8 e7 2b 3c 0b 0f 1e 3c fa 78 25 3c b1 6b c5 3b
       0.0104923025 0.009647141 0.010099644 0.0060248007
000140 81 67 13 3c d6 35 20 3c 11 35 1d 3c b7 9f c1 3b
       0.008996845 0.0097784605 0.009595172 0.005908932
000150 54 1a 31 3c b8 94 d4 3b 39 12 df 3b 08 a4 bb 3b
       0.0108095 0.006487455 0.006807592 0.005726341
000160 75 60 2b 3c e7 4b 9d 3b 3b b5 13 3c a4 94 48 3b
       0.010460009 0.004800308 0.009015377 0.0030606175
000170 97 bc d3 3b 86 b9 af 3b 43 e7 09 3c b3 2e 26 3c
       0.0064616906 0.0053626923 0.0084169535 0.01014297
000180 a5 4d 2e 3c 3f 55 d9 3b 2d 5e d6 3b 6b 6b f7 3b
       0.010638629 0.0066324766 0.0065419883 0.007550647
000190 42 86 24 3c 0f 8a ec 3b aa 5a 33 3c 55 7a b1 3b
       0.010041775 0.0072186063 0.010946909 0.0054161944
0001a0 33 08 19 3c 21 5c b9 3b 0a 13 cb 3b c9 41 e0 3b
       0.009340334 0.0056567346 0.006197338 0.0068437797
0001b0 62 64 09 3c 0b 3f 92 3b 42 5b c4 3b 0b 40 d6 3b
       0.0083857495 0.0044630817 0.005992324 0.0065383962
0001c0 9e c5 b9 3b 1f 79 3b 3c d8 7d a4 3b 40 04 8a 3b
       0.0056693098 0.011442452 0.0050198846 0.0042119324
0001d0 f1 6e 4b 3c ab 82 85 3b 6f d8 d5 3b ca 09 3d 3c
       0.012416587 0.0040744147 0.006526045 0.011537978
0001e0 bd 10 0e 3c 93 7f cf 3b 4d aa cd 3b ec b5 19 3c
       0.008670983 0.0063323467 0.006276405 0.009381752
0001f0 0e 05 ee 3b cd fc f1 3b 20 fb 1a 3c 2a 47 22 3c
       0.007263786 0.0073848725 0.009459287 0.009904662
000200 61 50 f2 3b d0 65 c4 3b 3c 7f 10 3c d6 23 a1 3b
       0.007394836 0.0059935823 0.008819398 0.004917602
000210 2e aa 26 3c 17 17 4b 3b 66 e1 20 3c 54 ad f3 3b
       0.01017241 0.0030989104 0.009819364 0.007436434
000220 01 9b 2f 3c 66 04 eb 3b 35 c5 d5 3b 73 66 9a 3b
       0.010718108 0.007172155 0.006523753 0.00471192
000230 fc 65 42 3c a0 8c 73 3b 1e 40 2d 3c 73 74 c8 3b
       0.011865135 0.0037162676 0.010574369 0.0061173975
000240 1c f8 fd 3b 6f 2c 90 3b 70 27 0e 3c 55 53 0c 3c
       0.007750524 0.004399828 0.008676395 0.00856479
000250 7b c9 6e 3b 7e 39 df 3b 7a 5d 52 3b 8e 8b f6 3b
       0.003643601 0.0068122735 0.0032099173 0.0075239604
000260 54 ce 50 3b 3e 84 d3 3b 8e 58 a4 3b 55 e9 01 3c
       0.0031861262 0.0064549735 0.0050154394 0.007929166
000270 86 55 d2 3b 5e a2 c9 3b 45 d1 0d 3c 1a 09 42 3c
       0.0064188866 0.006153389 0.008655851 0.01184299
000280 40 a5 e8 3b 67 23 26 3c 34 fc 10 3c eb e8 d6 3b
       0.0070997775 0.0101402765 0.008849192 0.0065585277
000290 fb 20 8c 3b 64 cd c7 3b 9b 18 05 3c 67 bc 16 3c
       0.0042763925 0.0060974825 0.008123542 0.009200192
0002a0 8c 78 fd 3b 2c cc 28 3c fd eb fa 3b d4 01 f8 3b
       0.0077353176 0.010302585 0.0076575265 0.0075685773
0002b0 b6 a0 f7 3b 21 24 0c 3c 7f 1a 1c 3c 13 1b 0a 3c
       0.007557 0.008553536 0.009527802 0.008429307
0002c0 1a e7 5c 3b 75 ee 27 3c f0 f9 06 3b 7c 2a e3 3b
       0.0033707083 0.010249724 0.0020595752 0.0069325548
0002d0 50 02 51 3c bd 1e 19 3c 86 c9 44 3c 10 34 11 3c
       0.012756899 0.0093457075 0.012010938 0.00886251
0002e0 27 8d 58 3c 52 3b 08 3c 88 3a ea 3b 03 fb d2 3b
       0.013217247 0.008314924 0.0071480907 0.0064386143
0002f0 08 2a f2 3b 41 b1 ab 3b 27 d8 ff 3b fc 2b 8e 3b
       0.0073902644 0.005239636 0.00780775 0.0043387394
000300 f5 a7 07 3c ff 17 f7 3b 61 b6 09 3c e0 9c 16 3c
       0.00827979 0.0075407024 0.008405299 0.009192675
000310 b5 27 82 3b 18 10 23 3c af 00 19 3c a2 f9 09 3c
       0.0039720186 0.0099525675 0.009338542 0.0084213335
000320 e8 53 60 3b 6e 93 fe 3b a1 b7 17 3c 13 71 e5 3b
       0.00342297 0.00776904 0.009260089 0.007002005
000330 cb ce 01 3c d1 f4 0f 3c 33 b3 9c 3b 99 cd 11 3c
       0.007922838 0.008786396 0.0047821044 0.008899116
000340 35 59 19 3c 93 22 64 3b 9d fe 40 3c ef 14 97 3b
       0.0093596475 0.0034810647 0.011779455 0.00461065
000350 e1 5f 2e 3c 95 65 ad 3b 34 67 1a 3c ce cc 11 3c
       0.0106429765 0.0052916505 0.00942402 0.008898927
000360 d5 de d8 3b cb a0 1e 3c 3e 28 96 3b 53 bd 44 3c
       0.0066183605 0.009681891 0.004582434 0.012008029
000370 80 f1 14 3c 4d 41 f9 3b 89 26 4b 3c f9 ce 3a 3c
       0.009090781 0.0076066614 0.012399324 0.011401885
000380 a4 10 cc 3b f2 60 b4 3b 10 07 9b 3b 74 27 c9 3b
       0.0062275697 0.005504721 0.0047310665 0.0061387364
000390 79 ff 88 3b 2f 2d df 3b dc 3b ef 3b 86 bd 0b 3c
       0.0041808453 0.006810806 0.007300837 0.008529073
0003a0 9e 1e d2 3b 24 b1 44 3c 3e 7c 72 3b fb 03 4f 3b
       0.0064123413 0.012005124 0.0037000324 0.0031588066
0003b0 94 6c a4 3b 6a 91 db 3b 60 03 3f 3c f4 a1 d3 3b
       0.0050178263 0.0067006843 0.0116585195 0.0064585153
0003c0 72 34 b0 3b 1c 84 ef 3b 5a 7a d3 3b 7a a4 e1 3b
       0.0053773457 0.00730945 0.0064537944 0.006886062
0003d0 eb 8b cb 3b ee 24 d9 3b 90 0e 8b 3b fe be fd 3b
       0.006211748 0.006626717 0.0042436793 0.0077437153
0003e0 dd d8 23 3c 74 9c cb 3b 85 5c 2d 3c e3 e5 12 3c
       0.010000435 0.006213719 0.01058114 0.008965942
0003f0 c7 66 05 3c e6 a9 c0 3b 48 82 0f 3c 8b 7a d0 3b
       0.00814218 0.0058796285 0.008759089 0.0063622645

fc2.weight f4 [300, 400]
000000 64 aa f0 3c 94 47 96 3d 0a cf 82 3c ea 5a a4 3d
       0.029378124 0.07337871 0.015967865 0.08025153
000010 a9 35 4a bd 5c 4a 0b bd c4 b4 16 bc a1 e8 a1 bd
       -0.04936758 -0.03400646 -0.009198371 -0.079056986
000020 70 0a 81 3d cb 50 4b 3d 30 46 85 bd 4d 3d 0b 3d
       0.06300819 0.049637597 -0.06507528 0.033994008
000030 0b d4 ba 3c 9c ed 23 bd cc 20 13 bd 34 38 47 bd
       0.022806188 -0.040021524 -0.03591995 -0.048637584
000040 d5 d0 d6 3d bd 16 98 3c d7 8e 13 bd 92 fc 99 3c
       0.1048905 0.01856553 -0.036024895 0.018797193
000050 ae ca 84 bb 9d f8 f8 bd 33 6b f6 3c 33 97 1b 3d
       -0.0040524816 -0.12156794 0.030080413 0.03798599
000060 e7 d6 b7 3c 84 19 8f bc f8 9f 4f 3d 1a 9d 71 3d
       0.02244134 -0.017468221 0.050689667 0.058987714
000070 f1 33 ab 3d 7a c4 a1 3d e9 94 1c bc 1c 8b 20 bd
       0.083595164 0.07898803 -0.009556987 -0.039195165
000080 af 9e 35 bc 50 6d 0e bd 23 b7 05 be 8e c9 5f bd
       -0.011085196 -0.034772217 -0.13058142 -0.054635577
000090 74 21 d3 3d 2c 2c 28 3d f6 07 c3 bc 04 52 68 bd
       0.10309115 0.04105775 -0.023807507 -0.05671884
0000a0 30 3e b4 3d 2e b8 35 bd 47 33 38 bd f1 49 14 bd
       0.08800924 -0.0443651 -0.044970777 -0.03620333
0000b0 13 8c 85 bd 46 20 c5 3c 70 25 f9 bc e7 2f 10 bd
       -0.06520858 0.02406324 -0.03041336 -0.035201933
0000c0 39 c9 36 3d 2b d7 0e bd aa 82 f6 bc e1 b5 5b 3b
       0.044625495 -0.03487317 -0.030091602 0.0033525156
0000d0 da 26 91 bd c5 77 e5 3d fa 89 c1 3d 64 59 9a ba
       -0.070874885 0.11204485 0.09450145 -0.0011775908
0000e0 cf 19 60 3d 1d 4a b5 3d 2d a8 84 bd 14 0a 28 bc
       0.054712113 0.088520266 -0.064773895 -0.010256309
0000f0 54 40 99 3d 63 4b 73 3d ba a7 b6 bc f3 fa 6f 3d
       0.07482973 0.059398066 -0.022296775 0.058588933
000100 a3 c5 9c 3c 37 ab ac bd 92 78 66 bd 0a fd 62 bd
       0.01913721 -0.08431094 -0.05626733 -0.055417098
000110 5c f4 47 3d e9 e7 cc 3d a8 37 53 3c dc f9 58 3d
       0.048817024 0.10005171 0.012891687 0.05297266
000120 b4 e9 67 bd 40 e0 31 bd e9 91 48 bc 13 94 53 3d
       -0.05661936 -0.043426752 -0.012241819 0.051654886
000130 46 eb 61 bd c1 8f 05 3d 6d 3d 20 3a 3f d2 8d bd
       -0.055156015 0.032607798 0.0006112669 -0.06924867
000140 c8 e3 9a 3d 54 ee 0c bc d4 cd 22 bd 0a 27 03 3c
       0.07562977 -0.008601744 -0.039747074 0.008004913
000150 bd 01 fa bc d8 25 c6 bd ab 8a 6a bd 9d 7a a3 bd
       -0.030518407 -0.09675187 -0.05726115 -0.07982371
000160 55 69 bb 3c 03 06 7e 3d f7 32 84 bd 6b e5 2a 3d
       0.022877375 0.062017452 -0.06455033 0.041722696
000170 e3 11 17 bd f2 1c 75 3d 0a 97 92 bd 3b a8 3e bd
       -0.036882292 0.059842058 -0.07157715 -0.046547156
000180 d8 f0 50 bc 65 8e 7b 3a 34 2b ed bd f3 50 92 3c
       -0.012752734 0.00095961086 -0.11580506 0.017860865
000190 af b2 dd bd 11 75 3c bd 0b ac ac 3d 88 01 30 3d
       -0.10825097 -0.04601008 0.08431252 0.04297021
0001a0 a2 67 f9 3b e0 8c c7 bd 63 12 15 bd c8 09 6a 3a
       0.007611231 -0.09743667 -0.036394488 0.0008927849
0001b0 72 35 8d 3d be 2d 41 3c 91 63 b0 bc 96 42 90 3d
       0.068949595 0.011790691 -0.021531852 0.0704395
0001c0 ff 47 53 3d 49 5a a0 bc 0c e6 07 3d 8a 0c ac 3c
       0.051582333 -0.019574301 0.033178374 0.021002073
0001d0 aa e7 de 3c d4 1f 4f 3d bc 79 00 be 0e 84 63 bd
       0.027210075 0.050567463 -0.12546438 -0.05554586
0001e0 aa b7 a6 bd c6 10 dc bc ed bf 62 3d cf 8c 2b 3d
       -0.081405 -0.026863467 0.055358816 0.041882332
0001f0 53 c7 18 bc 50 12 d9 3d 4b 74 83 bb 12 67 a2 bd
       -0.009324866 0.10599196 -0.004011666 -0.07929815
000200 fb 62 a0 bd 39 14 c7 bd e7 d7 6b bd 55 7f fa 3c
       -0.07831379 -0.09720654 -0.057578947 0.030578295
000210 2b 25 d0 3c 9f eb d4 3c a6 47 32 bd f4 2d c2 bb
       0.025408348 0.02599126 -0.04352536 -0.005925888
000220 80 6b 4a 3d 41 a9 d2 3c ee 3d 83 3c a5 e5 74 3d
       0.049418926 0.025715472 0.016020741 0.05978932
000230 7a af b8 bb 1b 26 a4 bc 8d ce 66 bd bd e3 9e bc
       -0.005636153 -0.020037701 -0.056349326 -0.019395703
000240 1c 6a 9c 3d de 29 59 bd 28 56 47 bd d8 98 0d 3d
       0.07637426 -0.053018443 -0.04866615 0.03456959
000250 f9 a2 89 bc cf 96 16 3d fa b1 b0 bd b4 d8 1a bd
       -0.016801344 0.036764916 -0.08627696 -0.03780432
000260 d8 c2 95 3d 7c 98 39 bd 3b 34 ac bd 45 b3 26 3d
       0.07312554 -0.045311436 -0.084084 0.04069831
000270 26 41 75 3d e3 10 e1 3c 5d 58 4c bd eb 21 8a 3d
       0.059876584 0.027473873 -0.049888957 0.067447506
000280 b7 65 71 3b 91 19 1e 3d ca ca d9 bd 01 08 3b 3c
       0.0036834308 0.0385986 -0.10634382 0.0114154825
000290 b5 77 f9 bc fa 1a a4 3d 79 53 9d bd ad fd da bc
       -0.030452589 0.08012958 -0.07681937 -0.02673229
0002a0 fd 25 c5 bd 44 43 09 bd 1a a8 db bc 79 7d d8 bc
       -0.09626386 -0.033511415 -0.026813556 -0.026427018
0002b0 65 25 1f 3c bb de 1f 3d 95 ce 26 bd d9 5c cb bd
       0.009713505 0.03903077 -0.040724356 -0.09929819
0002c0 f3 7d cf bc 26 a9 85 bc 0b b0 9f bc 6b 0c 92 bc
       -0.025328612 -0.016316008 -0.019493124 -0.017828187
0002d0 70 8e 6c bd 04 ae 95 bd 68 69 3c b8 db 4e c0 3c
       -0.057753026 -0.073085815 -4.492086e-05 0.023475101
0002e0 63 71 06 3d c9 43 49 bd b5 18 33 3c c5 bf 85 bd
       0.032822978 -0.04913691 0.010931184 -0.06530718
0002f0 48 26 68 bd b5 6d a5 bd 65 3c 5b 3d 5f 0f ee bc
       -0.056677133 -0.080775656 0.053524394 -0.029060064
000300 42 af 87 bc c4 95 fe 3a a4 69 94 bd 04 d6 6b bd
       -0.016563062 0.0019423296 -0.07246712 -0.057577148
000310 6c 01 35 3d 22 f7 99 bd fa c4 ff bc 33 69 0d bd
       0.04419081 -0.0751784 -0.031221855 -0.034524154
000320 ba 0e a8 bd f0 7d a4 3d 3b 4b ba 3c 27 d3 6c bd
       -0.08205934 0.08031833 0.02274095 -0.057818558
000330 6a 97 05 3c b8 86 95 3d 4c 6e 21 bd 72 59 4f bd
       0.008153776 0.07301086 -0.039411828 -0.05062241
000340 c0 fa dc bc 5f 01 90 3d 86 42 99 bd aa 88 81 bd
       -0.026975036 0.070315115 -0.074833915 -0.06324895
000350 81 26 fd 3c 6c 71 0f 3d 32 d7 1e bd 92 e9 89 bd
       0.03090215 0.035020277 -0.038779445 -0.06734003
000360 93 e2 75 3c 2a 92 3d bd b6 19 89 bb a4 d0 9a 3a
       0.015007633 -0.04628197 -0.004183973 0.0011811447
000370 24 03 08 3c 88 a9 0c bd ad bd 02 3d 6f 0d 36 bd
       0.00830153 -0.034341365 0.03191917 -0.044446405
000380 25 cd 97 bc 58 ad 53 3d 51 a8 ad 3c e7 7e f8 bc
       -0.018530438 0.051678985 0.021198424 -0.03033395
000390 3f ab 78 bd 9b 72 8e 3d 3d c0 ad bd 14 24 aa 3d
       -0.060710188 0.06955453 -0.08483932 0.083076626
0003a0 5a 29 15 bd 16 f7 66 3d f4 a4 da 3c af 99 22 3c
       -0.03641639 0.056387983 0.026689984 0.009924336
0003b0 21 0c fb bc 8c 86 92 3c 9f 29 0c 3d 6a e7 6b bd
       -0.030645432 0.017886423 0.03421938 -0.05759374
0003c0 a6 67 96 3c f1 c8 e9 bd b2 94 7a bd 13 aa 8b bd
       0.01835997 -0.1141528 -0.061176963 -0.068195485
0003d0 9c 3b df bc 85 c1 5b bc 59 ae 10 bd a2 a0 c3 3c
       -0.027250104 -0.013412838 -0.03532252 0.023880307
0003e0 98 66 68 3d 62 ca 87 3c d5 32 00 be 07 28 24 bd
       0.056738466 0.016575996 -0.12519391 -0.040077236
0003f0 fe de 3f bc d9 47 c9 3d 40 7b 1f 3d 80 74 03 bd
       -0.01171088 0.09828157 0.0389359 -0.032093525
