models/best_critic.pt (torch, 511921 bytes, 9 tensors)

fc1.weight f4 [400, 8]
0.020850023 0.0076067783 0.10028611 0.01553434 -0.16194549 0.027697142 -0.019312682 -0.010805783
-0.095823586 -0.06752897 -0.019778874 -0.041489735 -0.029789226 -0.08419903 0.026626961 0.099718854
0.0640885 -0.11549559 -0.07192095 0.08305519 0.090336904 -0.009231222 0.11417487 0.02485277
0.067565374 -0.04477661 0.02439128 0.055190127 -0.054519888 -0.019240212 0.078554824 0.11884109
-0.06939057 0.10441049 0.08450214 0.04181247 0.043834306 0.10150354 -0.030116638 -0.0805227
0.08902628 -0.0094775325 0.092132345 0.074550666 0.07656362 0.058319364 -0.017727459 0.06854446
-0.14025389 -0.07821228 -0.012323517 0.10512935 0.10382973 -0.0751983 0.008888505 -0.07983806
0.07199563 -0.13192764 0.078115076 0.12680854 -0.0072419466 -0.04672137 0.056634136 -0.07510518
-0.005522078 -0.049690932 0.04905635 0.03268633 -0.09338264 0.09337399 0.09942882 0.058868703
-0.162943 -0.009410941 0.045831233 0.092496134 0.07949759 -0.009273942 -0.07374568 -0.0678862
0.055909045 0.09119857 0.063530535 0.056736264 -0.012318269 0.040673647 0.1075391 0.052495725
0.020836513 0.073566616 -0.002119603 0.0014147462 0.13540265 -0.002647087 -0.07408982 0.0072590485
-0.07364052 -0.06861676 0.05740748 0.027696865 0.07380998 -0.11884381 0.09311687 0.10770973
0.09371468 -0.07660947 -0.067113064 0.030420579 0.009985358 0.13104281 0.110760435 -0.0077026524
0.03251191 0.08793549 0.11880068 0.08762749 0.09992764 0.02820433 -0.08626607 0.10247845
0.02293398 0.10076796 -0.0047325473 0.07914445 0.1722738 0.029491128 0.10156905 0.08998278
0.10085647 -0.042624097 0.0012610218 0.13976608 -0.05638554 -0.074703984 -0.097777866 0.052476376
0.0956126 0.062333506 0.05952962 0.0028360519 0.05001349 -0.07625165 0.106852956 -0.038297422
-0.04285703 -0.008967116 0.009459818 0.036213946 -0.053942095 0.13107868 0.0689389 -0.061787967
0.0336406 -0.010467762 0.09222436 -0.111359045 0.050510783 0.11051517 -0.05845124 -0.005867576
0.014099156 -0.036782682 0.04328913 -0.077725604 0.055088166 0.094883576 0.058786914 -0.004479321
-0.037470073 0.06506642 -0.014177437 -0.054116696 -0.043097414 -0.038498905 -0.07002225 0.15666692
-0.03700279 -0.0057171937 -0.073780715 0.027843822 -0.1419816 -0.027336938 -0.0030913746 -0.08153621
0.018800616 -0.09488939 0.12640876 -0.049628045 -0.10832495 -0.08100387 0.10395082 0.08269045
0.016044937 0.008986387 0.10692957 -0.027213126 -0.07271126 -0.088438146 -0.08546523 0.056400876
-0.039573517 -0.08361455 0.11776531 -0.015636045 0.13154024 -0.07627568 -0.06783434 -0.026317088
0.023895383 -0.04520049 -0.08667331 0.09724707 0.02615068 -0.106689766 -0.14531897 0.031405192
0.055344842 -0.06375499 0.09408617 0.011291054 -0.0022733882 0.069169946 0.110525556 -0.014038534
-0.0935337 0.116790816 0.09766964 0.0056192325 0.08755924 -0.02772718 0.08623863 -0.08427709
-0.022013485 -0.13689154 0.03869853 0.09517613 0.10709577 -0.037805222 -0.04559452 0.08263437
0.072055236 0.026180314 -0.02709054 0.045613572 -0.023623645 0.01923333 -0.06562366 -0.103734374
0.13526087 -0.006044851 -0.0889696 0.057962567 0.02806425 -0.08920976 0.10117515 -0.100803666
00000000: abcd aa3c 4842 f93b ce62 cd3d bf83 7e3c
00000010: 0ad5 25be 1ee5 e23c a135 9ebc bd0a 31bc
00000020: 283f c4bd a14c 8abd 4e07 a2bc 24f1 29bd
00000030: 8908 f4bc 8b70 acbd c920 da3c 6639 cc3d
00000040: d540 833d f488 ecbd 4b4b 93bd d718 aa3d
00000050: 8e02 b93d 8d3e 17bc 84d4 e93d 0998 cb3c
00000060: b75f 8a3d ae67 37bd 39d0 c73c 0b0f 623d
00000070: 3f50 5fbd a69d 9dbc 5ae1 a03d f562 f33d
00000080: a51c 8ebd 2bd5 d53d 750f ad3d 8d43 2b3d
00000090: 9a8b 333d 17e1 cf3d 2bb7 f6bc 16e9 a4bd
000000a0: 6953 b63d a747 1bbc e2af bc3d 05ae 983d
000000b0: 63cd 9c3d 49e0 6e3d 2d39 91bc 0a61 8c3d
000000c0: b79e 0fbe c32d a0bd 94e8 49bc 0f4e d73d
000000d0: aea4 d43d 9101 9abd 18a1 113c 2382 a3bd
000000e0: 7272 933d 0a18 07be ccfa 9f3d 19da 013e
000000f0: da4d edbb e85e 3fbd 32f9 673d bfd0 99bd
00000100: 8cf2 b4bb b888 4bbd 50ef 483d 1ae2 053d
00000110: 663f bfbd dd3a bf3d 56a1 cb3d 4f20 713d
00000120: 88da 26be 5930 1abc 88b9 3b3d 9d6e bd3d
00000130: a2cf a23d bbf1 17bc fa07 97bd ec07 8bbd
00000140: e200 653d 51c6 ba3d 4c1c 823d 4964 683d
00000150: 91d2 49bc 6999 263d 763d dc3d c205 573d
00000160: 56b1 aa3c 18aa 963d 0ae9 0abb 016f b93a
00000170: fea6 0a3e c07a 2dbb 67bc 97bd 50dd ed3b
00000180: d7d0 96bd f286 8cbd 1b24 6b3d 89e4 e23c
00000190: b029 973d 6264 f3bd 0fb4 be3d eb96 dc3d
000001a0: 7bed bf3d 6de5 9cbd 9372 89bd 9434 f93c
000001b0: a199 233c 1630 063e 5ed6 e23d 8866 fcbb
000001c0: 352b 053d 8617 b43d c54d f33d 0b76 b33d
000001d0: dda6 cc3d c40c e73c 44ac b0bd 39e0 d13d
000001e0: 0be0 bb3c 6f5f ce3d 7c13 9bbb 7c16 a23d
000001f0: 8b68 303e 6197 f13c 6f03 d03d e448 b83d
00000200: d68d ce3d 9b96 2ebd df48 a53a d71e 0f3e
00000210: 86f4 66bd 67fe 98bd c33f c8bd 78f1 563d
00000220: 8ad0 c33d 6b51 7f3d 55d5 733d 0edd 393b
00000230: f2da 4c3d d329 9cbd b9d5 da3d c2dd 1cbd
00000240: da8a 2fbd cfea 12bc 5afd 1a3c 1355 143d
00000250: 63f2 5cbd 7d39 063e d72f 8d3d 6115 7dbd
00000260: baca 093d fa80 2bbc 20e0 bc3d 3610 e4bd
00000270: 65e4 4e3d c755 e23d 916a 6fbd cc44 c0bb
00000280: 2500 673c 70a9 16bd f14f 313d 9a2e 9fbd
00000290: 21a4 613d 5252 c23d 8cca 703d 45c7 92bb
000002a0: 387a 19bd 8b41 853d 7b48 68bc 78a9 5dbd
000002b0: ea86 30bd 07b1 1dbd d367 8fbd 4b6d 203e
000002c0: 3d90 17bd 4c57 bbbb 581a 97bd ba18 e43c
000002d0: a063 11be b7f1 dfbc a998 4abb 75fc a6bd
000002e0: c003 9a3c 5e55 c2bd 4c71 013e c746 4bbd
000002f0: 79d9 ddbd 5be5 a5bd 2be4 d43d 9c59 a93d
00000300: ac70 833c a43b 133c e4fd da3d 10ee debc
00000310: a4e9 94bd 0f1f b5bd 6508 afbd 9b04 673d
00000320: d717 22bd 1b3e abbd f02e f13d 2a17 80bc
00000330: 7cb2 063e 6c36 9cbd bbec 8abd ef96 d7bc
00000340: 40c0 c33c 2624 39bd c781 b1bd 7929 c73d
00000350: f339 d63c 2a80 dabd 7fce 14be bba2 003d
00000360: 46b1 623d fa91 82bd 40b0 c03d 1dfe 383c
00000370: 20fd 14bb f9a8 8d3d 395b e23d e101 66bc
00000380: 998e bfbd 0630 ef3d 0507 c83d 8a21 b83b
00000390: 4252 b33d 1c24 e3bc e19d b03d 7899 acbd
000003a0: a055 b4bc 4c2d 0cbe 5a82 1e3d b4eb c23d
000003b0: 0755 db3d a6d9 1abd 52c1 3abd 353c a93d
000003c0: b291 933d 1978 d63c fbec ddbc 4cd5 3a3d
000003d0: 6086 c1bc 378f 9d3c b365 86bd b072 d4bd
000003e0: d381 0a3e e313 c6bb b235 b6bd 286a 6d3d
000003f0: ffe6 e53c 9bb3 b6bd eb34 cf3d 2772 cebd

fc1.bias f4 [400]
0.011616545 0.015696988 0.009542761 0.009662163 0.007565038 0.009132422 0.01038826 0.010836671
0.0104081575 0.013070931 0.0042893034 0.008018303 0.002074017 0.009618502 0.010405609 0.0036208036
0.010438697 0.011955918 0.011641718 0.009517095 0.008486634 0.010239352 0.010597446 0.010330155
0.0061417227 0.012257866 0.011781637 0.016910745 0.009789362 0.00977305 0.00901349 0.011422453
0.011420468 0.013357013 0.0076094996 0.01782027 0.013736346 0.0045602885 0.012882446 0.010755544
0.010298004 0.00970834 0.0071941717 0.007945734 0.01095279 0.009492697 0.010679668 0.010973816
0.009934621 0.009374057 0.009300586 0.0123225525 0.00862899 0.008446488 0.00895935 0.0129315695
0.012487115 0.0076852404 0.009305596 0.009998776 0.0074167755 0.009373013 0.008823949 0.010130557
0.011261442 0.01095968 0.005514999 0.010924263 0.015461229 0.010336294 0.01448435 0.010012679
0.008744736 0.013567502 0.009539246 0.008383362 0.010085636 0.012057026 0.020234147 0.01114438
0.019003766 0.006856033 0.009860202 0.015535755 0.010039964 0.012299655 0.011990763 0.012950951
0.016153552 0.009368259 0.004181428 0.015475941 0.010564326 0.010657957 0.011469418 0.00873712
0.008137439 0.0074098767 0.009564155 0.011307334 0.010814148 0.011587973 0.0073361495 0.00923497
0.01088697 0.010067964 0.01049843 0.009255946 0.012744578 0.00955111 0.009337142 0.01125176
0.0094646895 0.012675339 0.0073216185 0.009417935 0.008260016 0.009462192 0.014151333 0.011293935
0.00965192 0.010736395 0.015102573 0.012055793 0.0024801316 0.010587632 0.009592863 0.010502217
0.008351981 0.010463446 0.006951185 0.01385138 0.012652564 0.010739961 0.009804531 0.0097258305
0.007292288 0.0093360925 0.0101639945 0.010776126 0.0071725193 0.010745943 0.007940847 0.010225752
0.008833983 0.009128752 0.009635886 0.009981262 0.0077681206 0.013824613 0.013389757 0.010490934
0.009910042 0.009637552 0.01108514 0.009291103 0.010686658 0.009633565 0.01004446 0.009025506
0.011476715 0.012927703 0.015033224 0.01495365 0.01011153 0.009085241 0.008648965 0.0104460865
0.009439724 0.008148564 0.008786292 0.012470977 0.00973893 0.011966467 0.009229613 0.009096566
0.008510493 0.0048129107 0.012779445 0.008269886 0.009577046 0.011544922 0.0067342306 0.00770677
0.01170955 0.009603231 0.007225474 0.009077481 0.011884551 0.005646899 0.011766056 0.009215337
0.008327123 0.009969487 0.012024501 0.010120621 0.007249632 0.012068793 0.0038480486 0.00694878
0.010257514 0.009830193 0.005136964 0.011722045 0.011438047 0.009396396 0.01205907 0.008797199
0.0096774595 0.012926562 0.010330521 0.009410109 0.009694426 0.009599262 0.008273993 0.0076555526
0.012510834 0.009532208 0.0126323085 0.0083817635 0.008151582 0.011317239 0.010036017 0.010900108
0.0108522205 0.009028414 0.009794057 0.010618777 0.010054222 0.008673491 0.008658766 0.0056536463
0.008876963 0.009982473 0.011126768 0.0091476785 0.010816989 0.009911359 0.006480066 0.0076886257
0.008399855 0.010441335 0.010058764 0.011903138 0.0135608865 0.009564109 0.011480655 0.010386753
0.010641309 0.0092102885 0.01655642 0.009279569 0.011163543 0.008298547 0.010283101 0.00958017
00000000: 5253 3e3c f896 803c 3e59 1c3c 0d4e 1e3c
00000010: 23e4 f73b 27a0 153c 8533 2a3c 4b8c 313c
00000020: fa86 2a3c 7527 563c 498d 8c3b 335f 033c
00000030: 3bec 073b ec96 1d3c 4a7c 2a3c 014b 6d3b
00000040: 1207 2b3c c1e2 433c e8bc 3e3c 97ed 1b3c
00000050: 860b 0b3c f4c2 273c e9a0 2d3c cf3f 293c
00000060: 8140 c93b 37d5 483c c407 413c 6788 8a3c
00000070: 8f63 203c 251f 203c 51ad 133c 3e25 3b3c
00000080: ea1c 3b3c 60d7 5a3c 1c59 f93b d1fb 913c
00000090: 690e 613c 796e 953b e510 533c 0538 303c
000000a0: f6b8 283c bb0f 1f3c 16bd eb3b d32e 023c
000000b0: 5573 333c 4287 1b3c c6f9 2e3c 85cb 333c
000000c0: d2c4 223c a595 193c 7c61 183c 88e4 493c
000000d0: 9b60 0d3c 2363 0a3c 3dca 123c efde 533c
000000e0: c296 4c3c 78d4 fb3b 8076 183c e8d1 233c
000000f0: 6c08 f33b 4491 193c 5392 103c a3fa 253c
00000100: e981 383c 3b90 333c 2ab7 b43b aefb 323c
00000110: 1851 7d3c 8f59 293c c44f 6d3c 380c 243c
00000120: 1546 0f3c 3a4a 5e3c 7f4a 1c3c 5e5a 093c
00000130: 393e 253c d58a 453c 15c2 a53c eb96 363c
00000140: c9ad 9b3c 93a8 e03b af8c 213c ae89 7e3c
00000150: a97e 243c 7e84 493c e874 443c 3a30 543c
00000160: 7454 843c 547d 193c 5c04 893b cd8e 7d3c
00000170: ff15 2d3c b69e 2e3c 3aea 3b3c 2326 0f3c
00000180: e552 053c 8dce f23b f9b2 1c3c 6542 393c
00000190: d32d 313c 7bdb 3d3c 1564 f03b 464e 173c
000001a0: 435f 323c 1af4 243c 9b01 2c3c 40a6 173c
000001b0: a2ce 503c 427c 1c3c d0fa 183c 4d59 383c
000001c0: c911 1b3c 3aac 4f3c 30ea ef3b af4d 1a3c
000001d0: 0555 073c 4f07 1b3c feda 673c 320a 393c
000001e0: 1623 1e3c b4e7 2f3c c870 773c a985 453c
000001f0: b489 223b bf77 2d3c 622b 1d3c 7e11 2c3c
00000200: bfd6 083c e06e 2b3c c4c6 e33b e6f0 623c
00000210: b34c 4f3c a9f6 2f3c 2fa3 203c 1759 1f3c
00000220: 25f4 ee3b 69f6 183c e286 263c 598e 303c
00000230: 7407 eb3b c00f 303c 541a 023c ea89 273c
00000240: 69bc 103c c390 153c d6df 1d3c 7288 233c
00000250: b88b fe3b a180 623c b660 5b3c 2be2 2b3c
00000260: bb5d 223c d3e6 1d3c 729e 353c b639 183c
00000270: 1817 2f3c 1ad6 1d3c 8591 243c b7df 133c
00000280: d508 3c3c b7ce 533c e94d 763c 2700 753c
00000290: d5aa 253c 43da 143c 63b4 0d3c 1026 2b3c
000002a0: 12a9 1a3c 8e81 053c 61f4 0f3c 1253 4c3c
000002b0: 0890 1f3c 000f 443c cd37 173c c309 153c
000002c0: 986f 0b3c 9fb5 9d3b e160 513c 6a7e 073c
000002d0: 0be9 1c3c ea26 3d3c d2aa dc3b 1389 fc3b
000002e0: 6ad9 3f3c df56 1d3c abc3 ec3b b7b9 143c
000002f0: 6bb7 423c 9f09 b93b 6ac6 403c edfb 163c
00000300: 7c6e 083c 0f57 233c 6a02 453c f6d0 253c
00000310: 528e ed3b 30bc 453c 8b2f 7c3b 97b2 e33b
00000320: 220f 283c d10e 213c fa53 a83b d20d 403c
00000330: a566 3b3c 57f3 193c 6893 453c 2122 103c
00000340: 358e 1e3c eec9 533c 5841 293c dc2c 1a3c
00000350: 5fd5 1e3c 3946 1d3c a48f 073c 6edb fa3b
00000360: 3efa 4c3c fa2c 1c3c bef7 4e3c aa53 093c
00000370: 378e 053c f16b 393c 1b6e 243c 5e96 323c
00000380: 83cd 313c eaeb 133c 4177 203c 61fa 2d3c
00000390: 77ba 243c 421b 0e3c 7fdd 0d3c 3942 b93b
000003a0: ae70 113c 878d 233c 0c4d 363c 25e0 153c
000003b0: bd39 313c 4163 223c bc56 d43b def0 fb3b
000003c0: 8c9f 093c 2212 2b3c 84cd 243c 6105 433c
000003d0: 7b2e 5e3c c8b2 1c3c 5b19 3c3c 332d 2a3c
000003e0: e358 2e3c c0e6 163c 54a1 873c 5509 183c
000003f0: 4be7 363c a1f6 073c 747a 283c 25f6 1c3c

bn1.weight f4 [400]
1.0092286 0.9768435 0.9507061 0.9747912 0.9462687 0.95528877 0.98508966 0.95878375
0.97024226 0.96165764 0.98079795 0.96329087 0.97883636 0.9618049 0.9550181 0.9690621
0.97450584 0.9647127 0.9712394 0.9516895 0.9605486 0.9537762 0.97820497 0.96414334
0.98485965 0.9725133 0.946577 0.9642856 0.95834243 0.9792552 0.96202236 0.96321464
0.97403353 0.9650895 0.9807975 0.9757158 0.96007156 0.969602 0.9803693 0.9699943
0.9737108 1.0174291 0.95053476 0.9895454 0.982259 0.97624725 0.9693888 0.9890436
0.9586451 0.97893625 0.9927244 0.9616845 0.9827423 0.94460833 0.97669125 0.97710764
0.9626804 0.9596035 0.95524603 0.9935862 1.0034523 0.9613113 0.9582951 0.9784566
1.0278995 0.970325 0.9557234 0.96022505 0.9847625 0.9995863 0.96521765 0.9593233
0.9536359 0.97105086 0.9711262 0.9918721 0.98404 0.9913139 1.0199962 0.95555496
0.9638191 0.9594564 0.961977 0.98493034 0.96097684 0.97676295 0.9661901 0.97621393
0.9780528 0.982564 0.97803813 0.97060615 0.95336133 0.96956223 0.97850215 0.972152
0.9591716 0.9852397 0.9873647 0.9573244 0.97038245 0.9856698 0.964465 0.9751869
0.96590275 0.9883972 0.97341496 0.95447963 0.9770064 0.9560493 0.99551153 0.96278584
0.9585486 0.9375138 0.97963905 0.96374893 0.9706645 0.9764269 0.9878627 0.98003244
0.97097266 0.95313126 0.9461718 0.951321 0.97999275 0.964796 0.93528974 0.9862327
0.96786475 0.9607779 1.0093044 0.9918135 0.9706093 1.0003452 0.97615564 0.9499516
0.97505707 0.9872734 0.97873867 0.9771032 0.9790058 1.0039959 0.97847193 0.96402717
0.97011685 0.95714104 0.99815667 0.97570604 0.97890145 0.97982895 0.96644294 0.9502409
0.96925646 0.965362 0.9695295 0.9597357 0.9754852 0.98900753 0.9653006 0.9883052
0.99390155 0.9933438 0.9991225 0.9677178 0.97313935 0.9556394 0.9338457 0.94303375
0.9752554 0.94091076 0.98158467 0.9708149 0.98987544 0.99461544 0.9707754 0.9699982
0.9832444 0.95839566 0.96316004 0.97791016 0.9597667 0.9518709 0.95965993 0.961271
0.97305024 0.9647921 0.972525 0.97453153 0.96888644 0.9614948 0.9617858 0.96603936
0.96253085 0.96727437 0.9734146 0.9735003 0.9735045 0.9680722 1.0182108 0.99628234
0.96332943 0.9482673 0.9997564 0.9804052 0.9544336 0.9554688 0.9714275 0.98855746
0.9631732 0.9548692 0.96436626 0.98093915 0.978896 0.9624605 0.9632536 0.9826495
0.9511394 0.9706453 0.9558466 0.9763544 0.97032845 0.9477951 0.96728027 0.96943486
0.99104196 0.9757366 0.980383 0.982721 0.98209244 0.97214556 0.9506377 0.9676159
0.9954849 0.981942 0.9739143 0.9656304 0.9876829 0.97082615 0.9806991 0.9769593
0.9720205 0.9478989 0.9615205 0.9940584 0.97634727 1.0147917 0.9741622 0.9505391
0.96845496 0.95343244 1.0179161 0.99648786 0.97102696 1.0061437 0.9606805 0.9603537
00000000: 672e 813f 6a12 7a3f 7a61 733f eb8b 793f
00000010: aa3e 723f ce8d 743f d62e 7c3f da72 753f
00000020: cc61 783f 322f 763f 9315 7b3f 3b9a 763f
00000030: 0595 7a3f d938 763f 117c 743f 7414 783f
00000040: 3779 793f 69f7 763f 25a3 783f eca1 733f
00000050: 83e6 753f ad2a 743f a46b 7a3f 19d2 763f
00000060: c31f 7c3f a2f6 783f df52 723f 6cdb 763f
00000070: ee55 753f 78b0 7a3f 1947 763f 3c95 763f
00000080: 435a 793f 1b10 773f 8c15 7b3f 83c8 793f
00000090: 40c7 753f d637 783f 7cf9 7a3f 8c51 783f
000000a0: 1c45 793f 1e3b 823f 3f56 733f d952 7d3f
000000b0: 5375 7b3f 57eb 793f dd29 783f f631 7d3f
000000c0: c469 753f 919b 7a3f 3023 7e3f f530 763f
000000d0: 0095 7b3f dad1 713f 7008 7a3f ba23 7a3f
000000e0: 3972 763f 93a8 753f 018b 743f aa5b 7e3f
000000f0: 2071 803f 7f18 763f d452 753f 227c 7a3f
00000100: 3692 833f 3867 783f 4aaa 743f 4fd1 753f
00000110: 6519 7c3f e3e4 7f3f 8118 773f 3696 753f
00000120: 7b21 743f ca96 783f ba9b 783f 54eb 7d3f
00000130: 0cea 7b3f bfc6 7d3f 3c8f 823f 409f 743f
00000140: d9bc 763f ef9e 753f 2044 763f 6524 7c3f
00000150: 9402 763f 230d 7a3f 3c58 773f 28e9 793f
00000160: ab61 7a3f 5089 7b3f b560 7a3f a579 783f
00000170: 7d0f 743f 3b35 783f 1e7f 7a3f f4de 783f
00000180: 458c 753f ab38 7c3f efc3 7c3f 3613 753f
00000190: fc6a 783f db54 7c3f 2ee7 763f d9a5 793f
000001a0: 6745 773f 9907 7d3f b931 793f c758 743f
000001b0: 171d 7a3f a6bf 743f d8d9 7e3f 2279 763f
000001c0: 7163 753f e800 703f a0c9 7a3f 40b8 763f
000001d0: 787d 783f 1df7 793f 92e4 7c3f 68e3 7a3f
000001e0: aa91 783f 6900 743f 5138 723f c689 733f
000001f0: cee0 7a3f dffc 763f 266f 6f3f bf79 7c3f
00000200: fcc5 773f 8af5 753f e330 813f 7de7 7d3f
00000210: da79 783f 500b 803f 56e5 793f 0730 733f
00000220: 579d 793f f3bd 7c3f 9e8e 7a3f 6f23 7a3f
00000230: 20a0 7a3f f082 803f 237d 7a3f 7cca 763f
00000240: 9459 783f 3207 753f 3287 7f3f dfc7 793f
00000250: 4999 7a3f 12d6 7a3f ce68 773f fd42 733f
00000260: 3121 783f f721 773f 1633 783f 3db1 753f
00000270: 66b9 793f 992f 7d3f f11d 773f 9201 7d3f
00000280: 5570 7e3f c74b 7e3f 7ec6 7f3f 5bbc 773f
00000290: a91f 793f c9a4 743f 8310 6f3f a96a 713f
000002a0: 57aa 793f 87df 703f 2249 7b3f 5387 783f
000002b0: 7a68 7d3f 1e9f 7e3f bd84 783f cd51 783f
000002c0: e8b5 7b3f 6b59 753f a891 763f 5258 7a3f
000002d0: 45b3 753f d0ad 733f 46ac 753f db15 763f
000002e0: d219 793f 9dfc 763f 66f7 783f e67a 793f
000002f0: f108 783f 8624 763f 9837 763f 5b4e 773f
00000300: 6c68 763f 4b9f 773f b331 793f 5137 793f
00000310: 9737 793f 94d3 773f bb54 823f 5c0c 7f3f
00000320: c29c 763f a5c1 723f 09f0 7f3f d6fb 7a3f
00000330: c355 743f 9a99 743f 79af 783f 1a12 7d3f
00000340: 8592 763f 4f72 743f b5e0 763f d41e 7b3f
00000350: ee98 7a3f d063 763f ca97 763f eb8e 7b3f
00000360: df7d 733f 367c 783f 5db2 743f 5df2 793f
00000370: 7267 783f b3a2 723f ae9f 773f e22c 783f
00000380: edb4 7d3f e0c9 793f 61fa 7a3f 9a93 7b3f
00000390: 696a 7b3f 88de 783f fe5c 733f adb5 773f
000003a0: 19d8 7e3f 8d60 7b3f 7352 793f 8e33 773f
000003b0: c9d8 7c3f 1088 783f 190f 7b3f 011a 7a3f
000003c0: 56d6 783f 81a9 723f 3526 763f 9c7a 7e3f
000003d0: e5f1 793f b2e4 813f b262 793f 8856 733f
000003e0: aaec 773f 2614 743f 134b 823f d419 7f3f
000003f0: 3995 783f 51c9 803f 28ef 753f bdd9 753f

bn1.bias f4 [400]
-0.20628187 0.1739009 -0.0012659084 -0.07710372 -0.0038487434 -0.051761746 -0.033678535 0.10054651
0.15558954 0.07444508 -0.2228858 0.012417812 0.13342002 -0.030330982 -0.02581622 0.19523957
0.09515606 0.07188997 0.04348776 -0.048256204 -0.019704022 0.19946487 0.11041825 0.07753342
0.15681863 -0.20170668 0.14844209 0.10683574 0.14791894 0.05806453 0.11997033 0.11462056
0.15995769 0.1620323 0.10629705 -0.22872709 -0.24994087 0.16256501 0.08081463 -0.12864669
0.11050743 -0.20974734 0.0504793 -0.076005116 0.09551298 -0.036690574 0.019117787 -0.26018855
0.06867035 -0.20147786 -0.2379383 0.1338707 0.15908787 0.16957268 0.06706007 0.14101955
0.15167919 -0.05480823 -0.02602274 -0.14705601 -0.035020567 0.1042997 0.17150699 0.15318781
-0.0672688 0.1990115 0.18916042 0.13147573 0.14667815 -0.0015023276 0.17494804 -0.0011502099
0.18085824 0.1530765 0.12168739 -0.18784447 0.08107655 -0.1346319 -0.21254799 0.1915758
0.15100695 0.17815664 -0.012671525 0.19422323 0.049511097 -0.24687305 0.115544416 0.13455003
0.18850257 0.066750385 0.13014044 -0.1923319 0.060722373 0.07969388 0.09730984 -0.085139014
0.003841225 -0.21589476 0.12650956 0.13966706 0.13524453 -0.15900426 0.095747866 0.10652628
-0.1244194 -0.20056356 -0.013391885 0.09273529 0.14152113 0.1460504 -0.22142203 0.1175191
0.064984255 -0.16328517 0.13263671 0.106909476 0.04067828 0.16638687 0.18840764 0.11221553
0.1346755 0.022595318 -0.0811281 0.0025313466 0.15489554 0.14885397 0.0018304774 -0.04031205
0.062301166 0.12946527 -0.21608709 -0.24759765 0.14033791 -0.121996254 0.10554892 0.034257147
0.1012802 -0.17524892 -0.22390226 0.12337538 0.10798039 -0.19169082 -0.07024635 -0.096204326
0.14887206 -0.18397553 -0.2501834 0.09652822 0.09670984 -0.10037941 0.1354338 0.15303336
0.09662011 -0.10071072 0.16761087 -0.08611132 0.14393154 0.004949061 0.18130538 -0.030775007
0.04854855 0.045162596 -0.16431466 0.1859181 0.056879092 -0.12077949 -0.22350535 -0.033707637
0.12094945 -0.022808468 0.13328789 0.08700872 0.018254641 -0.104500316 0.18737543 -0.04890603
0.067436434 0.1920447 -0.06257244 0.020786054 0.20278025 0.035159077 -0.17700179 0.15826176
-8.916231e-05 -0.19965608 -0.07902129 -0.04708898 -0.08109832 0.15374392 0.084202446 -0.124708794
0.20765038 -0.13090841 0.027306737 0.10810144 -0.1961061 0.11112672 -0.20325083 -0.01611748
0.12161532 0.20606056 -0.18288395 0.12381427 0.08818007 0.030584596 0.021273317 0.101915
0.11079334 0.09695461 0.15652706 0.035396256 0.13693038 0.13059814 0.16765878 -0.16267423
0.15847415 -0.045724396 -0.18217993 -0.12452649 0.028195545 0.003856794 0.11682589 0.1738243
-0.04401372 -0.024770662 0.11901671 0.08811211 0.031380937 0.07867791 0.0337345 0.12286474
-0.21633159 0.14872502 0.062075723 -0.10117256 0.04844029 0.15383144 -0.22556491 0.12392713
0.11647652 -0.040974606 0.13059029 -0.003126968 0.08044188 -0.16384731 0.178734 -0.046112135
0.09035906 0.045065492 -0.19365399 -0.01202378 -0.1355339 -0.18717858 -0.103080444 0.10274963
00000000: 8e3b 53be 1413 323e d6ec a5ba 8ee8 9dbd
00000010: 333b 7cbb 2004 54bd 81f2 09bd 54eb cd3d
00000020: dd52 1f3e a976 983d 2d3c 64be 1474 4b3c
00000030: 429f 083e ae78 f8bc 8a7c d3bc e2ec 473e
00000040: 2ee1 c23d 0c3b 933d 3920 323d 4ca8 45bd
00000050: 546a a1bc 8540 4c3e f722 e23d d7c9 9e3d
00000060: 1095 203e 328c 4ebe 3401 183e b2cc da3d
00000070: 1078 173e 13d5 6d3d 01b3 f53d 2fbe ea3d
00000080: f3cb 233e cceb 253e 45b2 d93d 6f37 6abe
00000090: 80f0 7fbe 7177 263e 2482 a53d f5bb 03be
000000a0: b851 e23d 02c8 56be 62c3 4e3d 92a8 9bbd
000000b0: 4f9c c33d db48 16bd e89c 9c3c 6f37 85be
000000c0: 0aa3 8c3d 3650 4ebe 19a6 73be 6715 093e
000000d0: eee7 223e 76a4 2d3e ca56 893d 6e67 103e
000000e0: ca51 1b3e 987e 60bd a42d d5bc da95 16be
000000f0: ba71 0fbd 159b d53d 879f 2f3e 44dd 1c3e
00000100: 3ac4 89bd acc9 4b3e 45b3 413e 93a1 063e
00000110: cc32 163e c0e9 c4ba 9425 333e a4c2 96ba
00000120: e732 393e 16c0 1c3e 3d37 f93d 4d5a 40be
00000130: 760b a63d f2dc 09be 2ea6 59be 722c 443e
00000140: 91a1 1a3e b26e 363e 3a9c 4fbc 74e2 463e
00000150: 26cc 4a3d 4acc 7cbe 8da2 ec3d 7cc7 093e
00000160: d106 413e 6db4 883d 8943 053e a7f2 44be
00000170: 06b8 783d 8c36 a33d 624a c73d 5d5d aebd
00000180: 10bd 7b3b 8413 5dbe b98b 013e e204 0f3e
00000190: 8b7d 0a3e 03d2 22be 7517 c43d 732a da3d
000001a0: 99cf febd 8960 4dbe a369 5bbc 00ec bd3d
000001b0: eaea 103e 3c8e 153e 75bc 62be dbad f03d
000001c0: 7716 853d 3a34 27be ebd1 073e 5bf3 da3d
000001d0: 459e 263d 5261 2a3e efed 403e 41d1 e53d
000001e0: 60e8 093e d119 b93c 7d26 a6bd f3e4 253b
000001f0: f09c 1e3e 2d6d 183e a1ec ef3a 401e 25bd
00000200: 822f 7f3d 8b92 043e ef45 5dbe 3d8a 7dbe
00000210: beb4 0f3e 2cd9 f9bd 082a d83d 3951 0c3d
00000220: fe6b cf3d 7474 33be a246 65be 3bac fc3d
00000230: d324 dd3d 994a 44be 51dd 8fbd c606 c5bd
00000240: eb71 183e 1564 3cbe 0a18 80be 96b0 c53d
00000250: cf0f c63d b893 cdbd 28af 0a3e c7b4 1c3e
00000260: c4e0 c53d 6c41 cebd 2fa2 2b3e 225b b0bd
00000270: ca62 133e bc2b a23b 1ea8 393e de1b fcbc
00000280: d8da 463d 6afc 383d 1a42 28be 5061 3e3e
00000290: 0dfa 683d 3d5b f7bd 96de 64be 0511 0abd
000002a0: 58b4 f73d d3d8 babc 9f7c 083e a131 b23d
000002b0: c28a 953c 4304 d6bd 58df 3f3e b051 48bd
000002c0: 1d1c 8a3d 5ea7 443e fb25 80bd 8447 aa3c
000002d0: a0a5 4f3e f702 103d f53f 35be 5f0f 223e
000002e0: a7fc bab8 a572 4cbe ead5 a1bd 60e0 40bd
000002f0: e016 a6bd 0c6f 1d3e 5572 ac3d 5367 ffbd
00000300: 4da2 543e db0c 06be 61b2 df3c 4a64 dd3d
00000310: 0ad0 48be 6896 e33d fc20 50be ce08 84bc
00000320: 7411 f93d 8a01 533e ee45 3bbe 5692 fd3d
00000330: c197 b43d 8c8c fa3c 6145 ae3c d0b8 d03d
00000340: 9ee7 e23d 2390 c63d a148 203e aafb 103d
00000350: 7a37 0c3e 85bb 053e beae 2b3e 1394 26be
00000360: 0c47 223e 8149 3bbd 608d 3abe bf07 ffbd
00000370: 58fa e63c 44c2 7c3b 6a42 ef3d fffe 313e
00000380: bb47 34bd d8eb cabc 08bf f33d 1f74 b43d
00000390: 4c89 003d e221 a13d 302d 0a3d 82a0 fb3d
000003a0: 0786 5dbe 5f4b 183e 1d43 7e3d 8f33 cfbd
000003b0: 5369 463d fd85 1d3e 7dfa 66be 82cd fd3d
000003c0: 3e8b ee3d fdd4 27bd 76b9 053e d1ed 4cbb
000003d0: b6be a43d 97c7 27be 0c06 373e 14e0 3cbd
000003e0: 2c0e b93d 9896 383d 3b4d 46be 63ff 44bc
000003f0: 66c9 0abe beab 3fbe d71b d3bd 666e d23d

bn1.running_mean f4 [400]
0.0065584737 0.016377 0.0020235248 -0.00032336058 0.015159434 0.0055491165 0.014138286 0.000936646
0.0047166813 0.020366326 3.8991464e-05 0.013808524 0.0018854686 0.0029316284 0.011598199 0.0048215683
-0.0018199777 0.009543505 0.011250841 0.016745653 0.012612444 0.0120918695 0.0066775507 0.0041777184
0.0051779295 0.01909094 0.0066748997 0.013272172 0.018712783 0.0075211297 0.006503878 0.002781028
0.017149499 0.016969115 0.009898908 0.023227701 0.01609993 0.011081857 0.006871698 0.010038942
0.0049592624 0.010510739 0.009818867 0.005930952 0.0096217105 0.00685058 0.012900386 0.0057375734
0.014954181 0.013449497 0.01746661 0.009491797 0.0077677867 0.00082615815 0.005334353 0.008630108
0.010151975 0.011454055 0.010005206 0.022584846 0.0006637602 0.003276578 0.010131467 0.0013115089
0.010477094 0.01605231 0.003860377 0.01279332 0.026593937 0.014866383 0.014206656 0.009267442
-0.0007807985 0.008898494 0.006538208 0.0029829051 0.019597061 0.014006967 0.015914757 0.012361129
0.017369645 0.0027603544 0.007981492 0.012852013 0.004668237 0.013384594 0.014468155 0.007717268
0.014048827 0.013653631 0.0050561405 0.021828726 0.001009888 0.012061319 0.016458655 0.007651319
-0.00083348824 0.0032135649 0.0069939983 0.0077878586 0.00875698 0.006634968 0.0075859735 0.008535146
0.015448171 0.0056123156 0.005236319 0.0030494493 0.012313851 -0.0032640793 0.008965775 0.010727329
0.008204143 0.012380674 0.01529553 0.006403214 0.013553237 0.011097829 0.021894624 0.015577995
0.0061004017 0.0030781582 0.0053506573 0.009993253 0.013012374 0.015891213 0.013839202 0.008004136
0.0011611729 0.012511369 0.0077303858 0.011591902 0.020548332 -0.0022249504 0.0103281755 0.014765256
0.0007387974 0.0129813235 0.0018542453 0.009758954 0.0068317675 0.013839004 0.015019795 0.017835027
0.009770391 0.0063143936 0.0063379817 0.007840213 0.012887258 0.01687555 0.010526444 0.004181022
-8.545102e-05 0.018483346 0.020353448 0.01397828 0.008087728 0.010220981 0.006010336 0.011903488
0.014226587 0.012885555 0.015668295 0.0027678292 0.012153222 0.010939861 0.013820655 0.00884893
0.009538055 0.0046471786 0.005425391 0.0072112144 0.0107390955 0.01826795 0.007946506 0.011710803
0.016184825 -0.0021373697 0.016557276 0.007680134 0.0068081315 0.018423779 0.019319596 0.0089388015
0.024983414 0.006576864 0.00556217 0.018985538 0.024630135 0.006110293 0.018956345 0.008365521
0.013257018 0.0015800518 0.004224362 0.0142424805 0.011726824 0.011391313 0.007291084 0.0033360908
0.01674704 0.013435225 0.004415457 0.01267149 0.017205376 0.006571428 0.013343966 0.009746227
0.010076362 0.017387696 0.013398588 0.016474856 0.011984493 0.011708063 0.013165981 0.0117267035
0.008573005 0.011005634 0.0167469 0.0140037965 -0.0003546089 0.0054431376 0.012735671 0.01201733
0.016496362 -0.00028788034 0.005359722 0.01522919 0.006439586 0.0033341553 -0.000928027 0.0038097503
0.0057925317 0.018642891 0.008604663 0.008088805 0.017351313 0.016074909 0.007168913 0.0067324964
0.003883428 0.011952549 0.0022798483 0.013803223 0.013466235 0.012399166 0.005169136 0.011269238
0.014042308 0.01325094 0.010378481 0.008907243 0.008935385 0.0042348956 0.011118488 0.0112761995
00000000: 77e8 d63b 0f29 863c 1d9d 043b b988 a9b9
00000010: 465f 783c 5dd5 b53b 45a4 673c 4089 753a
00000020: 648e 9a3b 48d7 a63c c48a 2338 263d 623c
00000030: d421 f73a 9020 403b 5f06 3e3c 3ffe 9d3b
00000040: 518c eeba 5c5c 1c3c 7355 383c 2e2e 893c
00000050: 6da4 4e3c fa1c 463c 5bcf da3b 3ee5 883b
00000060: 9fab a93b 9a64 9c3c 1eb9 da3b 8673 593c
00000070: 8d4b 993c cf73 f63b 7c1e d53b e841 363b
00000080: 1b7d 8c3c d002 8b3c 082f 223c 0548 be3c
00000090: 00e4 833c ad90 353c fb2b e13b 607a 243c
000000a0: 4f81 a23b 3c35 2c3c 50df 203c 6e58 c23b
000000b0: 61a4 1d3c d57a e03b 245c 533c 4102 bc3b
000000c0: 6202 753c 475b 5c3c 2316 8f3c 7b83 1b3c
000000d0: eb88 fe3b 8992 583a cccb ae3b 4c65 0d3c
000000e0: 7854 263c caa9 3b3c e0ec 233c db03 b93c
000000f0: 3100 2e3a dbbb 563b 74fe 253c f0e6 ab3a
00000100: 1ea8 2b3c 2280 833c 61fe 7c3b 139b 513c
00000110: 87db d93c 2192 733c 09c3 683c 78d6 173c
00000120: 80ae 4cba fdca 113c 773e d63b d87c 433b
00000130: 048a a03c 7a7d 653c aa5f 823c 5586 4a3c
00000140: c94a 8e3c 10e7 343b cec4 023c 4091 523c
00000150: 03f8 983b 0e4b 5b3c d70b 6d3c 23e1 fc3b
00000160: 0d2d 663c 7bb3 5f3c fbad a53b 28d2 b23c
00000170: 385e 843a d79c 453c 4dd4 863c eab7 fa3b
00000180: 737e 5aba ac9a 523b e92d e53b 4b31 ff3b
00000190: 7079 0f3c 256a d93b c293 f83b ffd6 0b3c
000001a0: 531a 7d3c 84e7 b73b 6d95 ab3b 45d9 473b
000001b0: 09c0 493c 2aea 55bb 30e5 123c aec1 2f3c
000001c0: ab6a 063c 4fd8 4a3c 1a9a 7a3c 0dd2 d13b
000001d0: 650e 5e3c abd3 353c 5b5c b33c d93a 7f3c
000001e0: e1e5 c73b edba 493b 9154 af3b beba 233c
000001f0: da31 553c 4a2e 823c d2bd 623c c823 033c
00000200: 7f32 983a 7cfc 4c3c 2d4f fd3b f6eb 3d3c
00000210: fa54 a83c 79d0 11bb 8237 293c f9e9 713c
00000220: dbab 413a 9eaf 543c 260a f33a 05e4 1f3c
00000230: 05dd df3b fdbc 623c 9615 763c c31a 923c
00000240: fd13 203c f9e8 ce3b d8ae cf3b 3d74 003c
00000250: 1425 533c 983e 8a3c 1b77 2c3c f400 893b
00000260: 2b34 b3b8 636a 973c 46bc a63c 2805 653c
00000270: 6482 043c e775 273c 5af2 c43b d906 433c
00000280: a116 693c ef1d 533c cc5a 803c 7864 353b
00000290: 4f1e 473c 1a3d 333c 0770 623c 1afb 103c
000002a0: 8145 1c3c 5c47 983b 7ac7 b13b 0d4c ec3b
000002b0: 08f3 2f3c aba6 953c 1032 023c abde 3f3c
000002c0: 0a96 843c 1d13 0cbb 20a3 873c a2a9 fb3b
000002d0: bf16 df3b 77ed 963c 2144 9e3c 0d74 123c
000002e0: 04aa cc3c bc82 d73b dd42 b63b 8f87 9b3c
000002f0: 23c5 c93c da38 c83b 564a 9b3c 8a0f 093c
00000300: f733 593c be19 cf3a 846c 8a3b 4b59 693c
00000310: dd21 403c a1a2 3a3c 0cea ee3b 51a2 5a3b
00000320: 1731 893c 6b1f 5c3c 8aaf 903b 159c 4f3c
00000330: 4af2 8c3c 2255 d73b a6a0 5a3c a4ae 1f3c
00000340: 5317 253c a470 8e3c c085 5b3c 47f6 863c
00000350: 9b5a 443c 2dd3 3f3c 20b6 573c 5c21 403c
00000360: ca75 0c3c fa50 343c cb30 893c 2e70 653c
00000370: cdea b9b9 595c b23b 47a9 503c 56e4 443c
00000380: 6123 873c a5ee 96b9 9ba0 af3b da83 793c
00000390: 2a03 d33b d881 5a3b d646 73ba 01ad 793b
000003a0: 47cf bd3b fab8 983c 93fa 0c3c e886 043c
000003b0: 5724 8e3c 87af 833c 33e9 ea3b 469c dc3b
000003c0: 1c81 7e3b a0d4 433c 8269 153b ea26 623c
000003d0: 7ca1 5c3c df25 4b3c db61 a93b 9ca2 383c
000003e0: b511 663c 781a 593c 810a 2a3c afef 113c
000003f0: b965 123c e1c4 8a3b 522a 363c cfbf 383c

bn1.running_var f4 [400]
0.0071725147 0.005554132 0.007991791 0.0066010486 0.008121653 0.006371607 0.009716947 0.009496624
0.008075689 0.009797159 0.0065079946 0.005817846 0.0088860495 0.009094408 0.010542155 0.010655469
0.009173024 0.007177798 0.006390513 0.006853911 0.0045135347 0.006660613 0.006719341 0.011679678
0.006249212 0.01095743 0.010188469 0.0067676245 0.010142578 0.008689428 0.004132289 0.010269727
0.010272613 0.013045354 0.0072608115 0.010171051 0.012091889 0.0056843786 0.008855345 0.008490928
0.006639887 0.006180533 0.0061530145 0.0062040156 0.006207767 0.009393961 0.008615951 0.009984921
0.005608195 0.010424541 0.009814434 0.009321877 0.007957814 0.007189305 0.010884747 0.00713371
0.005395167 0.006583613 0.008635867 0.0071684 0.010355584 0.009163159 0.012733942 0.008914664
0.009726186 0.012716782 0.010331888 0.007299442 0.0053732386 0.010380767 0.012002184 0.009838633
0.009898192 0.0073285075 0.005818013 0.011895827 0.007139052 0.0057254285 0.006627472 0.009952708
0.005773515 0.012076451 0.008583399 0.0052565457 0.011206138 0.0048487023 0.008767425 0.0059179175
0.00738493 0.00479569 0.0033153538 0.0056048073 0.012597811 0.012804847 0.0056793815 0.007943779
0.011317596 0.0076134554 0.005691908 0.0045176987 0.01151609 0.009903797 0.0088004805 0.006642196
0.008602631 0.010356104 0.004995653 0.008204922 0.009004193 0.010282721 0.007506163 0.010306535
0.008621385 0.0044270097 0.007773995 0.008659254 0.007984575 0.0056224004 0.0067533203 0.008192723
0.00930625 0.009097167 0.007570416 0.009527842 0.00873947 0.009295948 0.009551258 0.011755932
0.0071928836 0.004066469 0.009304347 0.011214143 0.004452914 0.011724366 0.006851698 0.006620537
0.012246861 0.007270327 0.011460107 0.0072282655 0.010996683 0.0074286046 0.009187768 0.011163622
0.00960808 0.009300286 0.008935616 0.00466362 0.009383299 0.0049862554 0.007211677 0.007979883
0.011130865 0.010832983 0.0112613 0.0093181515 0.007938352 0.009463824 0.011206612 0.006506071
0.0090156915 0.008562689 0.008876082 0.0121972365 0.0056167184 0.008323624 0.008593885 0.0073871794
0.0096724965 0.0059932396 0.008941087 0.011063189 0.010371287 0.0069782846 0.005270252 0.0062831375
0.0063924906 0.008799193 0.006210303 0.008045962 0.0117088035 0.009574718 0.009493483 0.008136318
0.010086 0.008591395 0.0073307897 0.009211904 0.016630094 0.008737264 0.009495226 0.0074184574
0.008418831 0.006463035 0.010519591 0.007857989 0.0053936504 0.0073398906 0.008274809 0.0042339857
0.007579336 0.012385534 0.010251941 0.007310607 0.007958869 0.010835837 0.011520406 0.0046553058
0.0063130027 0.00958985 0.004334031 0.00642386 0.006718451 0.0070234924 0.010058318 0.008446309
0.009794124 0.009896666 0.006114309 0.009057884 0.0104513215 0.009899245 0.0075894515 0.008345267
0.011488445 0.012779414 0.010162167 0.00868462 0.006724611 0.011749069 0.008998155 0.0105358455
0.0061735925 0.007487663 0.005342288 0.0054163383 0.0077471607 0.010725837 0.0055789645 0.0062926495
0.006050185 0.005049616 0.008626302 0.0075445143 0.0070704347 0.008530266 0.005349391 0.009974319
0.010099806 0.007305979 0.007013019 0.007870883 0.008438525 0.010406565 0.0073320433 0.008453981
00000000: 6a07 eb3b 70ff b53b 00f0 023c 9c4d d83b
00000010: af10 053c eac8 d03b d433 1f3c ba97 1b3c
00000020: e54f 043c 4384 203c 0441 d53b a1a3 be3b
00000030: cb96 113c b600 153c 01b9 2c3c 4794 2e3c
00000040: 744a 163c bc33 eb3b 8267 d13b c696 e03b
00000050: 46e6 933b 4641 da3b eb2d dc3b 1f5c 3f3c
00000060: 31c6 cc3b cb86 333c 89ed 263c f3c2 dd3b
00000070: 0e2d 263c 1a5e 0e3c 2768 873b 5b42 283c
00000080: 764e 283c 2ebc 553c 1aec ed3b 7ba4 263c
00000090: 0f1d 463c 0644 ba3b 0216 113c 891d 0b3c
000000a0: 6993 d93b 1286 ca3b 3a9f c93b 0e4b cb3b
000000b0: 866a cb3b 21e9 193c eb29 0d3c cb97 233c
000000c0: f3c4 b73b b2cb 2a3c b8cc 203c c9ba 183c
000000d0: 7e61 023c 4394 eb3b f055 323c e6c1 e93b
000000e0: f1c9 b03b 59bb d73b 747d 0d3c e6e4 ea3b
000000f0: 78aa 293c 1321 163c 06a2 503c d00e 123c
00000100: 955a 1f3c 0d5a 503c 1447 293c 2830 ef3b
00000110: fe11 b03b 1814 2a3c cfa4 443c 3832 213c
00000120: 072c 223c fa23 f03b 08a5 be3b b7e6 423c
00000130: b5ee e93b 609c bb3b 442b d93b af10 233c
00000140: c12f bd3b 4fdc 453c 62a1 0c3c 1a3f ac3b
00000150: f399 373c dde1 9e3b 3fa5 0f3c 17eb c13b
00000160: 48fd f13b 2a25 9d3b 6846 593b 88a8 b73b
00000170: 0d67 4e3c 6ccb 513c 1b1a ba3b a026 023c
00000180: 706d 393c 4b7a f93b 2f83 ba3b 3409 943b
00000190: fbad 3c3c 8943 223c e42f 103c c7a6 d93b
000001a0: 0df2 0c3c a6ac 293c 93b2 a33b f06d 063c
000001b0: 5386 133c dc78 283c 42f6 f53b bedc 283c
000001c0: b640 0d3c 7310 913b ffbc fe3b 8bdf 0d3c
000001d0: bcd1 023c 1d3c b83b f54a dd3b c53a 063c
000001e0: 3e79 183c 490c 153c 4111 f83b aa1a 1c3c
000001f0: fe2f 0f3c 084e 183c e17c 1c3c f49b 403c
00000200: 48b2 eb3b 0440 853b 4371 183c 86bb 373c
00000210: c0e9 913b 8e17 403c 3584 e03b 17f1 d83b
00000220: 0fa7 483c ec3b ee3b 2cc3 3b3c 16db ec3b
00000230: 6e2b 343c a76b f33b 4b88 163c a0e7 363c
00000240: 356b 1d3c 3a60 183c b166 123c 48d1 983b
00000250: 69bc 193c be63 a33b ee4f ec3b 0ebe 023c
00000260: 3b5e 363c d37c 313c 5181 383c 29ab 183c
00000270: dd0f 023c 280e 1b3c f09b 373c e130 d53b
00000280: 8db6 133c 854a 0c3c fc6c 113c ebd6 473c
00000290: 730c b83b cf5f 083c 5ecd 0c3c 2710 f23b
000002a0: 6479 1e3c f062 c43b a37d 123c 6142 353c
000002b0: 55ec 293c 18aa e43b 14b2 ac3b c7e2 cd3b
000002c0: 1978 d13b 7e2a 103c cc7f cb3b 36d3 033c
000002d0: 48d6 3f3c 47df 1c3c 8e8a 1b3c 314e 053c
000002e0: c03f 253c ecc2 0c3c 1f37 f03b 87ed 163c
000002f0: d63b 883c be26 0f3c dd91 1b3c 8816 f33b
00000300: 23ef 093c dec7 d33b 5d5a 2c3c cbbe 003c
00000310: 38bd b03b 7783 f03b 1193 073c 3fbd 8a3b
00000320: 145c f83b b2ec 4a3c c2f7 273c d18d ef3b
00000330: eb65 023c cb88 313c 16c0 3c3c 898b 983b
00000340: 4edd ce3b bf1e 1d3c 7d04 8e3b 3e7f d23b
00000350: 7426 dc3b 5325 e63b a5cb 243c 6362 0a3c
00000360: 8977 203c a025 223c 8b5a c83b 8567 143c
00000370: 053c 2b3c 7130 223c efb0 f83b 96ba 083c
00000380: 083a 3c3c bf60 513c 387f 263c f049 0e3c
00000390: 205a dc3b 2b7f 403c ff6c 133c 8a9e 2c3c
000003a0: d94b ca3b 125b f53b 5c0e af3b 8a7b b13b
000003b0: e5db fd3b 6cbb 2f3c bfcf b63b 9232 ce3b
000003c0: a140 c63b 4077 a53b 5555 0d3c f937 f73b
000003d0: 1baf e73b 87c2 0b3c f249 af3b 536b 233c
000003e0: a879 253c fe66 ef3b 78cd e53b e0f4 003c
000003f0: bd41 0a3c 4c80 2a3c a341 f03b 9182 0a3c

fc2.weight f4 [300, 404]
-0.03895034 -0.07481614 0.03246558 0.07446205 0.038472764 -0.044931933 0.0397515 -0.06478368
0.07583098 0.04391394 0.02336098 -0.08269558 -0.014791163 0.03153594 -0.054881662 -0.0047263294
0.009079974 -0.09792303 -0.067442335 -0.052934784 0.071439095 -0.008401556 -0.008570227 0.0171601
0.042916916 0.017902898 -0.09703881 0.05079251 -0.037541598 0.028295886 0.07419048 -0.046874322
0.07158773 -0.052498516 0.036571994 0.009067352 0.052163746 -0.083025 -0.0939076 -0.09463378
0.033882383 0.060915828 -0.029831093 0.026227007 -0.057174284 0.07651336 -0.032133862 -0.09045442
-0.044179644 -0.040922433 0.08411818 -0.0300206 -0.075796686 -0.051522233 0.027680112 -0.011271939
0.02453261 -0.088244125 -0.0078062173 0.08189776 0.0043498864 0.022275766 0.02605431 -0.0750405
0.0025094377 -0.050025538 0.06255131 -0.04213657 0.054146454 -0.09254626 0.012444277 -0.041274518
0.04044997 -0.09229873 0.050605282 -0.073658496 0.034163166 -0.033881515 -0.0006730727 -0.0773837
-0.030034868 -0.07843712 -0.06966501 -0.0475909 0.052149396 -0.007121498 -0.020065293 0.030336406
-0.021956151 -0.08810298 0.007684461 -0.024143593 -0.008214765 0.0035042325 0.03282432 -0.0830339
0.069270596 0.0799813 -0.08462699 0.04811068 -0.06338235 0.011470566 0.013406386 -0.09656503
0.04638831 0.07754814 -0.012209108 0.012114744 -0.019873748 -0.09748981 -0.037724122 -0.079271585
-0.025814688 -0.09260741 -0.030754432 0.053414065 -0.08156862 0.020077694 -0.0034073114 -0.06740965
-0.081310034 0.062360454 0.013261355 -0.04372933 -0.012891602 0.024816861 -0.044733632 0.048741966
-0.09401204 -0.018130971 0.049000964 0.016475437 0.027271986 -0.060533423 0.06270624 -0.036459386
-0.09114806 -0.08596397 -0.03242385 -0.0262643 0.061641734 0.024764536 0.07191414 0.02365236
0.029779432 -0.017945284 0.052040283 -0.099700406 0.05085042 0.032585178 0.0796358 0.03681123
0.046127934 0.05957357 0.003003757 0.048588 -0.033660006 -0.041573904 -0.07358943 0.008358031
-0.074161895 0.01869303 -0.051810738 -0.060940273 -0.044082664 0.037019312 -0.08964889 -0.040057264
-0.094684124 0.082683295 0.055628285 0.048899908 0.039998095 0.07259614 0.017470272 0.075156175
-0.09308096 -0.10022218 -0.061536793 -0.09360555 0.035659384 0.052056067 0.0022356384 -0.061969113
0.0068329694 0.049159173 -0.03616237 0.0070567355 -0.0108449245 -0.06725424 -0.075495765 -0.047325168
0.07413409 0.019437214 0.020341553 -0.051661305 -0.09086929 0.075708985 -0.0009882522 0.07441368
0.08358587 0.003966904 -0.047640476 -0.04887854 -0.005190804 -0.092410214 0.028629094 -0.099199444
-0.03700465 -0.048459917 -0.065700755 0.044417445 -0.050707005 -0.016877612 0.025953362 0.06634641
0.054222126 -0.06700083 -0.058742855 -0.017579176 0.046972606 0.036569588 0.026783166 -0.06297455
0.018714216 -0.07198427 0.037651986 0.04117141 -0.01942469 0.06537192 -0.095649205 -0.011750034
-0.054406606 -0.08384816 0.068083815 -0.08989073 -0.05295548 -0.04182766 -0.02384222 0.062081527
0.07417177 -0.032850605 0.081525296 -0.028413586 -0.052082084 -0.086229324 0.024053784 -0.0018618527
-0.012316538 -0.07426625 0.0045903414 0.049130525 -0.06436791 -0.074769735 0.07819402 0.01372487
00000000: 648a 1fbd 3439 99bd a1fa 043d 8f7f 983d
00000010: 9e95 1d3d 8c0a 38bd 78d2 223d 4ead 84bd
00000020: 464d 9b3d 1bdf 333d 875f bf3c 4d5c a9bd
00000030: a256 72bc d42b 013d 98cb 60bd 53df 9abb
00000040: 2cc4 143c df8b c8bd 351f 8abd 25d2 58bd
00000050: a94e 923d aea6 09bc 236a 0cbc 5793 8c3c
00000060: a6c9 2f3d 19a9 923c 49bc c6bd cf0b 503d
00000070: 38c5 19bd c6cc e73c 2ef1 973d 4aff 3fbd
00000080: 969c 923d af08 57bd 84cc 153d 3b8f 143c
00000090: a7a9 553d 0309 aabd a152 c0bd 5bcf c1bd
000000a0: 41c8 0a3d e082 793d 5660 f4bc 05da d63c
000000b0: 952f 6abd 09b3 9c3d cc9e 03bd 2b40 b9bd
000000c0: b7f5 34bd 489e 27bd 2746 ac3d c3ed f5bc
000000d0: 4b3b 9bbd fa08 53bd 67c1 e23c f0ad 38bc
000000e0: 9df8 c83c 56b9 b4bd 4ccb ffbb 03ba a73d
000000f0: 7e89 8e3b ab7b b63c d96f d53c d5ae 99bd
00000100: 6175 243b 94e7 4cbd e71a 803d 6597 2cbd
00000110: acc8 5d3d e588 bdbd 15e3 4b3c 780f 29bd
00000120: deae 253d 1e07 bdbd 7c47 4f3d 44da 96bd
00000130: adee 0b3d 58c7 0abd 2571 30ba 587b 9ebd
00000140: af0b f6bc a4a3 a0bd 87ac 8ebd adee 42bd
00000150: 9b9a 553d 755b e9bb f85f a4bc 0e84 f83c
00000160: 63dd b3bc 566f b4bd eecd fb3b c9c8 c5bc
00000170: 3997 06bc 44a7 653b cb72 063d ad0d aabd
00000180: bedd 8d3d 3ccd a33d ea50 adbd b40f 453d
00000190: 9bce 81bd 0aef 3b3c 75a6 5b3c e3c3 c5bd
000001a0: ab01 3e3d 8fd1 9e3d b608 48bc eb7c 463c
000001b0: 45ce a2bc bda8 c7bd 9c84 1abd 2459 a2bd
000001c0: 5379 d3bc f4a8 bdbd b8f0 fbbc b5c8 5a3d
000001d0: 730d a7bd fa79 a43c 334d 5fbb 120e 8abd
000001e0: e085 a6bd ad6d 7f3d 2846 593c 871d 33bd
000001f0: 4c37 53bc bb4c cb3c 9d3a 37bd a8a5 473d
00000200: 6289 c0bd 6787 94bc 3cb5 483d 7ff7 863c
00000210: 8069 df3c e5f1 77bd 216c 803d 7056 15bd
00000220: d6ab babd e10d b0bd dfce 04bd 3b28 d7bc
00000230: 0b7c 7c3d ffde ca3c b847 933d 98c2 c13c
00000240: fff3 f33c fd01 93bc 3128 553d ba2f ccbd
00000250: 8848 503d 0978 053d 1818 a33d 5fc7 163d
00000260: a5f0 3c3d 6a03 743d aeda 443b 3604 473d
00000270: 13df 09bd 6649 2abd 0eb6 96bd 1ff0 083c
00000280: 31e2 97bd 2022 993c 7f37 54bd 829c 79bd
00000290: 0690 34bd 90a1 173d d699 b7bd 1613 24bd
000002a0: c0e9 c1bd dc55 a93d 7cda 633d 454b 483d
000002b0: 0bd5 233d 49ad 943d d11d 8f3c 7beb 993d
000002c0: 3ba1 bebd 4941 cdbd 010e 7cbd 44b4 bfbd
000002d0: 930f 123d be38 553d ca83 123b 53d3 7dbd
000002e0: 1ae7 df3b 215b 493d fe1e 14bd 303c e73b
000002f0: e9ae 31bc 97bc 89bd 869d 9abd 09d8 41bd
00000300: 9dd3 973d cb3a 9f3c 54a3 a63c ce9a 53bd
00000310: ae19 babd 500d 9b3d 3e88 81ba 3366 983d
00000320: 122f ab3d cdfc 813b a922 43bd dd34 48bd
00000330: 9f17 aabb 9141 bdbd 9087 ea3c 1429 cbbd
00000340: 3092 17bd e87d 46bd 1e8e 86bd 11ef 353d
00000350: 26b2 4fbd eb42 8abc 259c d43c a0e0 873d
00000360: 0518 5e3d bb37 89bd 599c 70bd 3402 90bc
00000370: 5966 403d fec9 153d 5f68 db3c cdf8 80bd
00000380: 8e4e 993c 7d6c 93bd f838 1a3d 5aa3 283d
00000390: 8720 9fbc b7e1 853d bbe3 c3bd 3783 40bc
000003a0: 76d9 5ebd 96b8 abbd 876f 8b3d a218 b8bd
000003b0: d8e7 58bd 7b53 2bbd c250 c3bc 3349 7e3d
000003c0: 5ee7 973d 5b8e 06bd bcf6 a63d 9cc3 e8bc
000003d0: 0654 55bd 0099 b0bd 710c c53c 6909 f4ba
000003e0: 4ecb 49bc e718 98bd 936a 963b 173d 493d
000003f0: 53d3 83bd e020 99bd 3024 a03d 47de 603c

fc2.bias f4 [300]
0.0014279465 0.15613103 0.118878655 0.14037028 0.17232957 0.15304062 0.0174138 0.17456369
0.096623346 0.00713008 0.16372727 0.002145749 0.07968535 0.026925072 0.016014606 0.13068274
0.18859611 0.20441872 0.16406935 0.101980366 0.25744155 0.17550997 0.13582319 0.13610469
0.09812785 0.041397013 0.19516659 0.15643199 0.14908597 0.14217973 0.11402493 0.15454584
0.14018914 0.13010977 0.0021443027 0.123947814 0.17199892 0.18891877 0.0016890591 0.1275093
0.001488116 0.14137618 0.13947006 0.16441776 0.09722432 0.10349615 0.15749896 0.18809864
0.09384162 0.18153083 0.1975619 0.16017696 0.109684095 0.0066338656 0.13174126 0.15083425
0.11686283 0.060206093 0.14804813 0.17563985 0.098317206 0.0012179073 0.14506948 0.13585083
0.14742504 0.0029959916 0.18103291 0.11930827 0.20139703 0.16348235 0.14361992 0.0019322846
0.16569267 0.13398218 0.17190997 0.042308412 0.18657683 0.0008680356 0.19023524 0.13014679
0.21291605 0.10680778 0.1322346 0.044094436 0.16391057 0.0058499095 0.22481425 0.12845978
0.13511635 0.12791173 0.008512365 0.15386528 0.19737633 0.110237844 0.13369688 0.23619655
0.0019897418 0.097203925 0.111163065 0.04777853 0.0015921325 0.23723862 0.16418046 0.085878745
-0.00069007726 0.0012971115 0.17755428 0.053824004 0.079894036 0.1486913 0.029125324 0.097304896
0.1305939 0.17165114 0.032664094 0.11567455 0.12834391 0.013212067 0.08201712 0.1331127
0.08083126 0.1948137 0.21776901 0.1676819 0.16477793 0.13953346 0.21749552 0.033344354
0.07052413 0.15345503 0.07808458 0.11784747 0.07912718 0.10493874 0.02146728 0.06858636
0.0019140806 0.0012643589 0.15893558 -0.007860306 0.15060768 0.18794926 0.11743687 0.1555566
0.20273475 0.1658301 0.20496775 0.14622338 0.16109665 0.1964345 0.1514822 0.005844643
0.14556205 0.16241993 -0.004606465 0.0039975243 0.012608683 -0.012965394 0.18709773 0.1740141
0.031521402 0.094639555 0.0018570264 0.103640996 0.12429523 0.15498033 0.13985862 0.097119376
0.18583502 0.11533661 0.18215643 0.0343497 0.12887427 0.15806168 0.16313767 0.0014642508
0.11394367 0.15434912 0.0075743385 0.18322726 0.1663409 0.13478106 0.00385349 0.14041425
0.07722552 0.045805514 0.18587515 0.0018542911 0.10819724 0.16810815 0.15214111 0.00845842
0.16694114 0.16022785 0.17082638 0.15108283 0.13499908 0.17010367 0.0011414378 0.15217704
0.100556724 0.1398385 0.14746577 0.0020407734 0.11414114 0.14395519 0.23185979 0.16481411
0.15322842 0.004776488 0.15769611 0.15288265 0.12443045 0.14053252 0.13116768 0.12824157
0.11985652 0.22366379 0.12860167 0.16810542 0.1265129 0.13488144 0.11759103 0.13289237
0.18984778 0.025402185 0.16197021 0.19810691 0.16669472 0.038272023 0.0010151806 0.011952762
0.0016670168 -0.020080704 0.003102823 0.15451175 0.1636611 0.21499929 0.17801525 0.08549104
0.19851762 0.15530255 0.16669716 0.184107 0.10818944 0.00027254844 0.0009367117 0.15143788
0.13972932 0.0011663277 0.1666621 0.1884071 0.06391939 0.188063 0.13516282 0.0015186014
00000000: ef29 bb3a d0e0 1f3e a776 f33d 3abd 0f3e
00000010: 2a77 303e aeb6 1c3e 63a7 8e3c d3c0 323e
00000020: 76e2 c53d 72a3 e93b 1fa8 273e b29f 0c3b
00000030: 1332 a33d f891 dc3c 1031 833c b2d1 053e
00000040: 571f 413e 2453 513e cc01 283e 15db d03d
00000050: 61cf 833e e3b8 333e 3c15 0b3e 075f 0b3e
00000060: 41f7 c83d ea8f 293d c0d9 473e b52f 203e
00000070: fea9 183e 9097 113e e785 e93d 4441 1e3e
00000080: be8d 0f3e 7f3b 053e 6e87 0c3b 5ad8 fd3d
00000090: 7c20 303e ec73 413e 6b63 dd3a cc91 023e
000000a0: e30c c33a ebc4 103e 3dd1 0e3e 215d 283e
000000b0: 8b1d c73d caf5 d33d 6847 213e ee9c 403e
000000c0: 0930 c03d 38e3 393e ab4d 4a3e 6e05 243e
000000d0: 0ea2 e03d e660 d93b 2ee7 063e 4b74 1a3e
000000e0: c855 ef3d aa9a 763d ee99 173e efda 333e
000000f0: 885a c93d 30a2 9f3a 188d 143e 7b1c 0b3e
00000100: 97f6 163e 6658 443b b160 393e e557 f43d
00000110: 063b 4e3e eb67 273e 1a11 133e b644 fd3a
00000120: 57ab 293e a032 093e 2b09 303e 964b 2d3d
00000130: ff0d 3f3e e28c 633a 07cd 423e 3345 053e
00000140: aa06 5a3e 0abe da3d 8268 073e 5e9c 343d
00000150: 2cd8 273e 99b0 bf3b b535 663e f68a 033e
00000160: f15b 0a3e 4bfb 023e 7277 0b3c dc8e 1d3e
00000170: 051d 4a3e 61c4 e13d d6e7 083e 82dd 713e
00000180: 5466 023b da12 c73d 76a9 e33d 6bb3 433d
00000190: 1aaf d03a aeee 723e ec1e 283e 32e1 af3d
000001a0: 4de6 34ba d703 aa3a cad0 353e 8f76 5c3d
000001b0: 7c9f a33d 8842 183e 3b98 ee3c ca47 c73d
000001c0: 68ba 053e 51c5 2f3e c9ca 053d c7e6 ec3d
000001d0: 966c 033e 6d77 583c 98f8 a73d b24e 083e
000001e0: dc8a a53d 3e7d 473e d7fe 5e3e ceb4 2b3e
000001f0: 8cbb 283e dce1 0e3e 25b7 5e3e 1794 083d
00000200: f46e 903d 5123 1d3e cfea 9f3d 045a f13d
00000210: 6e0d a23d 1fea d63d 26dc af3c 0177 8c3d
00000220: e3e1 fa3a d8b8 a53a 02c0 223e 83c8 00bc
00000230: e638 1a3e c575 403e be82 f03d 3b4a 1f3e
00000240: b399 4f3e 5ecf 293e 11e3 513e 95bb 153e
00000250: 85f6 243e 2026 493e 261e 1b3e 6b84 bf3b
00000260: 380e 153e 6951 263e d4f1 96bb aafd 823b
00000270: a694 4e3c ce6c 54bc 8c96 3f3e c130 323e
00000280: 961c 013d 62d2 c13d 7767 f33a bb41 d43d
00000290: 7f8e fe3d 2ab3 1e3e 1937 0f3e 86e6 c63d
000002a0: 894b 3e3e 9a35 ec3d 3787 3a3e 45b2 0c3d
000002b0: 9ef7 033e ecda 213e 900d 273e 1bec bf3a
000002c0: 4d5b e93d b20d 1e3e 2832 f83b ed9f 3b3e
000002d0: 4555 2a3e 0c04 0a3e d68a 7c3b c1c8 0f3e
000002e0: 6a28 9e3d 909e 3b3d 0e56 3e3e af0b f33a
000002f0: 8496 dd3d 8b24 2c3e e1ca 1b3e 2f95 0a3c
00000300: 9ef2 2a3e c512 243e 1ced 2e3e 75b5 1a3e
00000310: 333d 0a3e a82f 2e3e 4c9c 953a 4cd4 1b3e
00000320: aff0 cd3d d331 0f3e 4401 173e 7fbe 053b
00000330: d4c2 e93d fd68 133e a76c 6d3e 08c5 283e
00000340: e9e7 1c3e 1684 9c3b 177b 213e 458d 1c3e
00000350: 64d5 fe3d c2e7 0f3e d250 063e c251 033e
00000360: 5677 f53d 1f08 653e 28b0 033e d423 2c3e
00000370: 998c 013e 5c1e 0a3e 91d3 f03d f014 083e
00000380: 7567 423e 3e18 d03c 85db 253e 8adc 4a3e
00000390: 05b2 2a3e 20c3 1c3d cf0f 853a 84d5 433c
000003a0: cd7f da3a 4a80 a4bc bb58 4b3b 5438 1e3e
000003b0: c796 273e c628 5c3e a149 363e ed15 af3d
000003c0: 3448 4b3e a207 1f3e a9b2 2a3e 8c86 3c3e
000003d0: 6d92 dd3d d5e4 8e39 a88d 753a 8812 1b3e
000003e0: 3415 0f3e 77df 983a 78a9 2a3e caed 403e
000003f0: 2be8 823d 9693 403e 1f68 0a3e cf0b c73a
