models/best_critic.pt (torch, 511921 bytes, 9 tensors)

fc1.weight f4 [400, 8]
000000 dc b0 5e bd 5d 78 4c 3d b3 f0 aa 3e 55 c2 71 bd
       -0.054367885 0.049919475 0.33386764 -0.05902322
000010 07 cc 81 be 00 f8 98 bd a0 d3 b8 bd 35 c2 5b 3c
       -0.25350973 -0.07469177 -0.09024739 0.013413002
000020 0c 49 04 be 85 70 29 be 9b c7 e4 bb c0 e2 14 be
       -0.1291849 -0.16546829 -0.0069818026 -0.14539623
000030 94 a0 1c bc c4 26 20 be 92 10 e0 3c 33 78 92 3e
       -0.009559769 -0.15639788 0.027351651 0.2860733
000040 1b b6 30 3e 2f 9c 2d be bf ee 51 be 71 db ef 3d
       0.17256968 -0.1695411 -0.2050123 0.11711777
000050 b7 a5 b0 3d 04 9a 0e bd 66 7a 96 3e f0 21 02 3e
       0.086253576 -0.03481485 0.29390258 0.12708259
000060 c2 f9 54 3e 98 b5 e7 3c 58 e0 90 bd d0 08 d2 3d
       0.207984 0.028284833 -0.0707404 0.10255587
000070 b9 60 62 be 99 1e 9f bd d3 aa e1 3d 39 4b 78 3e
       -0.2210721 -0.07769508 0.1101891 0.24247445
000080 3a ba a1 bd 5a 9b 14 3e c6 92 00 3e 34 ce bc 3c
       -0.07896848 0.14512387 0.1255599 0.023047544
000090 fc a4 2d 3e 9a 5e ef bc 2b b7 a1 3d 54 b9 d5 be
       0.16957468 -0.029219914 0.07896265 -0.41742957
0000a0 a7 fc 67 3e 77 bc 0b 3d 58 aa 66 3d 4c e9 2a 3e
       0.22654973 0.03411528 0.056314796 0.16690558
0000b0 b1 44 90 3e 7f ae de 3d 07 c3 90 bd 6d 9b 27 3e
       0.28177407 0.10873126 -0.070684485 0.16367884
0000c0 fc 1e 6f bd 86 5e 18 bc c1 b1 ec bc 05 86 1d 3e
       -0.05837916 -0.00929988 -0.028893353 0.15383156
0000d0 60 78 79 3e 6d 74 53 be 28 fc 5d 3e 47 c4 26 be
       0.24362326 -0.20649882 0.21678221 -0.16285811
0000e0 15 c0 60 3e b0 fc 64 be 4f dd 5c 3e 68 83 2e 3e
       0.21948273 -0.22362018 0.21568798 0.17042315
0000f0 e1 66 34 3d 45 49 77 3c 23 dd 08 be 7f 3f fe bd
       0.044043425 0.015093152 -0.13365607 -0.12414455
000100 2a ec 5c bc 88 80 70 be 5d 26 01 3d 21 7b 5d 3e
       -0.01348404 -0.23486531 0.031530727 0.21629001
000110 44 3c 74 be bd 45 20 3e d3 70 c9 3d 64 07 60 3d
       -0.23851115 0.15651603 0.09835973 0.05469455
000120 01 9c da be 9d d7 ba bd fd d8 08 3e b9 a7 20 3d
       -0.42697147 -0.09123156 0.13364024 0.039222453
000130 6c ed 0f 3e 65 03 ab 3d 37 38 4e bd 6b 83 04 be
       0.14055413 0.08350257 -0.05034658 -0.12940757
000140 e2 29 2c 3d f0 71 89 3e 0d d2 e4 bd a3 f5 0d 3d
       0.04203213 0.2684474 -0.111728765 0.034658086
000150 1a 2e 2d bd d9 12 4d 3d 65 de 8d 3e 70 81 02 3e
       -0.042280294 0.050066803 0.27708736 0.12744689
000160 62 3f bf 3d 4c d6 2b 3e 9b 52 d9 bd 72 a8 35 3e
       0.09338261 0.16780967 -0.10611459 0.17740038
000170 65 dd 8d 3e 7b c5 12 3e a1 cb 61 bd 4b 67 48 3d
       0.27707973 0.14333145 -0.055125836 0.048926633
000180 63 7d 8a be d9 0f 10 be 14 fb e5 3d 8c 72 80 bc
       -0.27048787 -0.14068545 0.1122953 -0.01567962
000190 2c 7f 3d 3e bc 32 24 be 37 d1 11 3e 43 55 c3 3d
       0.18505543 -0.16034979 0.14239965 0.09537747
0001a0 77 25 ac 3d 5f e2 ac bd a5 ab b4 3b 2c fe 39 bd
       0.08405583 -0.08441614 0.0055136257 -0.045408413
0001b0 75 40 17 3d c9 da 98 3e a4 81 98 3e 31 f7 05 3e
       0.036926705 0.2985442 0.29786408 0.13082577
0001c0 1a e7 1d 3d d5 26 7f bd 71 f2 8f 3e 92 9b fb 3d
       0.038550474 -0.062292892 0.28114656 0.12285532
0001d0 f9 13 7f 3e 55 82 eb 3b 27 35 06 be 7d 51 55 3e
       0.24909963 0.0071871676 -0.13106214 0.20831867
0001e0 51 51 45 bd 8d 79 49 3e c2 15 2e bd 48 10 1a bc
       -0.048173252 0.19675274 -0.04250122 -0.009403296
0001f0 15 17 8a 3e dd 85 23 3d 69 4c 95 3e 8c c6 d5 3d
       0.26970735 0.039922584 0.2915986 0.104382604
000200 ca b1 09 3e 53 18 3c be 53 f1 e1 bd 98 82 9b 3e
       0.13446727 -0.18368654 -0.11032357 0.30373073
000210 97 ca c1 bd b5 a1 08 3e 53 d4 33 be b7 c8 4c 3c
       -0.09462469 0.13342936 -0.17561464 0.012499026
000220 cf 13 7c 3e 84 8d a7 3e ac f7 70 3b 36 24 11 be
       0.24616931 0.32725155 0.0036768718 -0.1417397
000230 ac 71 ce 3d 92 79 93 bb 55 e7 22 3d 9e 2f 0a bd
       0.10080275 -0.0045005763 0.039771397 -0.033736818
000240 94 09 2a be ae 86 62 be 80 c2 f3 3c ab af 13 be
       -0.16605216 -0.22121689 0.02975583 -0.14422481
000250 94 d7 62 bd 9e 32 82 3e a2 67 3f 3e a8 d1 be bc
       -0.055381373 0.25429243 0.18691877 -0.023293331
000260 cf 7c 9a 3d b7 5f 81 bd c1 6f 38 3d aa ef b7 be
       0.075433366 -0.06317084 0.04502845 -0.35925037
000270 48 de f0 3c 5b 3c 8b 3e f7 8a 82 bd 23 94 a1 3d
       0.029402867 0.27194485 -0.06374162 0.07889583
000280 ed 55 47 bc 75 30 46 be ea 3d cf bd 63 6b 3f be
       -0.012166482 -0.19354422 -0.10119231 -0.18693309
000290 8c 40 ed 3d b1 84 97 3e 87 04 61 3d d6 90 0f 3d
       0.11584577 0.29593423 0.05493596 0.035050236
0002a0 f4 e1 be bd 9d 4b f5 3d 8d 5e 62 bd 76 60 2b 3e
       -0.09320441 0.11977313 -0.055265952 0.16736016
0002b0 63 4b 01 be f4 8e 23 bd fc 4d 8f be 63 e5 2d 3e
       -0.12626414 -0.039931253 -0.27989185 0.16982035
0002c0 9f f9 70 bd 51 8e bd bd 43 a5 59 be bb 81 67 bd
       -0.058831807 -0.0925566 -0.21254449 -0.056520205
0002d0 a3 42 97 be c8 40 86 bc e1 74 38 3e 18 23 c8 bd
       -0.29543027 -0.016388312 0.18013336 -0.097723186
0002e0 b6 83 18 3e f5 ea 89 bd 4e 6f ce 3d 7b 33 1d 3e
       0.14893994 -0.067342676 0.100798234 0.1535167
0002f0 14 80 6e be 91 24 6d be de 61 24 3d 88 93 4e 3e
       -0.23291045 -0.2315848 0.040132396 0.20173466
000300 2e c6 74 bd 99 c4 fb 3b 67 a9 23 3e df 2e aa bc
       -0.05975931 0.0076833484 0.1598259 -0.020774303
000310 df d0 1c be c1 7a 69 be bb a1 39 be d9 ad 22 3e
       -0.15314053 -0.22800733 -0.18128102 0.1588663
000320 06 59 cd bd cc 7d 20 be dd 38 be 3d 7e 46 f7 bc
       -0.100267455 -0.15672988 0.092881896 -0.03018498
000330 d1 84 ef 3a dd 7f a7 be 1c 85 a4 bc d9 a5 6f be
       0.0018273835 -0.3271474 -0.020083003 -0.2340311
000340 5f 40 ac 3c fd 5a 45 be 05 4a 14 be 21 5b 67 3e
       0.021026788 -0.1927299 -0.14481361 0.22593357
000350 75 78 e5 3d a8 df fe bd 39 2a 82 be 05 db 48 bd
       0.11204616 -0.12445003 -0.25422838 -0.049037
000360 5a 42 04 bd d2 a7 8a bd b6 93 ff 3d 81 06 6d 3d
       -0.03228984 -0.067702904 0.124793455 0.05786753
000370 7d c1 93 bd 51 0f ff 3d a2 ec d2 3e b5 1e 1e 3e
       -0.07214639 0.12454093 0.41196162 0.15441401
000380 f1 31 4f be 20 a7 a0 3e db 9e 21 bd 76 ac 14 bd
       -0.20233895 0.31377506 -0.039458137 -0.036297284
000390 8e 13 15 3e bf d7 39 bd a0 68 67 3e be 9c 81 bd
       0.14558241 -0.045371767 0.22598505 -0.06328724
0003a0 7f d1 ba 3d c5 9d 83 be 3e 64 19 3e a8 35 c9 3c
       0.091219895 -0.25706306 0.14979646 0.024561718
0003b0 9b d0 66 3e d3 b4 0a 3d db f2 11 be 5e 97 6e 3e
       0.22540514 0.033863854 -0.14252798 0.2329993
0003c0 05 92 16 3e 1c 61 97 bc f4 cb 41 ba 45 93 25 3e
       0.1470414 -0.018478923 -0.0007392757 0.1616946
0003d0 dc ea d7 bd 59 b0 fb 3d ca 7b 2f be c8 bf 6d be
       -0.10542843 0.12289495 -0.17137066 -0.2321769
0003e0 1e d1 78 3e e6 d6 e1 bd 4b ba af bc a1 3f 01 bd
       0.24298522 -0.11027317 -0.021451136 -0.031554822
0003f0 dd 86 0f 3e 6e 5b 7d bd 25 5b 91 3e 8b f0 4f be
       0.1401629 -0.061854772 0.2838985 -0.20306604

fc1.bias f4 [400]
000000 9c ba 10 bd 1a 7f 09 bd 24 d1 b9 bd a5 63 0c bd
       -0.035334215 -0.03356848 -0.090730935 -0.034274716
000010 6f 2e 82 bd 10 e6 85 bd 72 b7 d6 bc 16 72 9f bd
       -0.06356513 -0.065380216 -0.02621052 -0.07785432
000020 f2 6c 9f 3d 9f 1b 28 3d 60 70 23 bd da 1f a4 bd
       0.077844515 0.041041967 -0.03990209 -0.08013888
000030 99 8a d3 3d b1 fd 29 3d 63 29 8c 3d 5a 93 ca bd
       0.1032917 0.041501705 0.068438314 -0.09891386
000040 2f ec 30 3d 24 af 17 3e c8 20 8f bd 61 ee 5e 3d
       0.043193992 0.14812905 -0.069886744 0.054426555
000050 cb ca 86 3c 71 4a 82 3b a4 25 51 3d 40 4e 04 bd
       0.016454121 0.0039761593 0.051061288 -0.032301188
000060 5c 74 1d 3d 31 a5 d0 3c 27 a2 43 bd 12 20 71 bd
       0.038441047 0.025469394 -0.047762062 -0.058868475
000070 c5 d4 0e bc 40 ce bd 3c 1d 99 d0 bd ce 49 8a bd
       -0.00871772 0.023169637 -0.10185454 -0.067523584
000080 9d e9 76 3d 6d be a0 3d 40 20 93 3c 5e ce 21 3e
       0.060281385 0.07848821 0.017959714 0.15801379
000090 d1 5e 2c 3e c4 81 62 3d 22 d7 f2 bc 8c 16 b3 3d
       0.16833045 0.055299535 -0.029643599 0.08744535
0000a0 4c 57 20 bd 0d 53 55 3d 26 15 94 3d 44 ff ab 3c
       -0.039145753 0.052081157 0.07230596 0.020995744
0000b0 a4 4c b9 bd a2 5e 0d bd 78 e4 ff 3c 83 b6 14 3e
       -0.09047821 -0.034514077 0.031236872 0.14522748
0000c0 23 7f 2f bd 68 6e a5 bd 0c f5 1b bd 50 bd c6 3d
       -0.042845856 -0.08077699 -0.03807549 0.09704077
0000d0 0f 37 32 3d 30 54 4d 3d b3 ee 1b 3e b3 9c 60 3d
       0.04350954 0.050129116 0.15227775 0.05483694
0000e0 e6 21 c5 bd 4c cb 9a bd f4 fe 9e bd b7 0a 74 3d
       -0.09625606 -0.07558307 -0.07763472 0.05958053
0000f0 a3 a6 26 3c e0 87 1b ba 38 8a df 3c 99 0c ec bd
       0.010171565 -0.0005933028 0.027287588 -0.1152584
000100 a6 cb c0 3d e8 23 54 bd 75 a5 9f 3d f2 6f 3d 3d
       0.09413843 -0.051792055 0.0779523 0.046249337
000110 ef 42 f1 bd 8c 0a 9c 3c b9 86 8b 3d 24 8e d4 3c
       -0.11780345 0.019047998 0.06812806 0.025946684
000120 33 fb 01 3d e6 15 22 bb ba 36 1a bd 3d 9b 0e bc
       0.031733703 -0.002473229 -0.037649848 -0.008704004
000130 48 83 f9 bd ee fd 1e bb f7 4c 49 be c6 89 14 3d
       -0.12183243 -0.002426024 -0.19658266 0.036264203
000140 6e 11 3a 3b b0 12 ab 3d f4 90 fe 3c 53 22 06 3d
       0.0028391737 0.08353174 0.031074978 0.032747578
000150 ad 57 84 bc 04 ed c4 3d 9a ea 24 3e d8 ba d3 3d
       -0.016155088 0.0961552 0.16105118 0.10338372
000160 27 0d 66 bb e0 42 e4 bc 6d ce e8 3b c6 9b d6 bd
       -0.0035103054 -0.02786392 0.007104686 -0.1047893
000170 45 84 91 3c 14 88 5d 3d 64 69 12 bd 49 91 06 3e
       0.017763266 0.054084852 -0.03574504 0.1314136
000180 01 c2 e3 bc 45 33 f8 3c 6a 57 94 3d a7 8a 3a 3d
       -0.02780247 0.030297885 0.072432354 0.045542385
000190 ad 18 02 3c 37 41 e3 3d 20 29 d2 3d 19 9f b5 3d
       0.0079404535 0.11096423 0.1026175 0.08868236
0001a0 e9 9a 86 3d cb 63 5d bd 92 94 ad 3c 40 0f 04 3d
       0.065725155 -0.054050248 0.021189008 0.032241106
0001b0 b6 55 e2 bd 2a 81 c7 3d 29 f8 e3 bb 57 d1 87 bd
       -0.11051504 0.09741433 -0.006957073 -0.06631725
0001c0 8c 4c 7d 3d ca ab 0d 3c 52 7a b6 bc d1 92 98 bc
       0.06184058 0.008646915 -0.022275124 -0.018624695
0001d0 fb 75 47 bd 35 32 ad bd 8b 4e a0 bc 6f 0e 9f bd
       -0.0486965 -0.08456842 -0.019568702 -0.07766425
0001e0 22 10 89 3d db aa ab bd 9d 69 07 3c 10 bf 06 3d
       0.0669253 -0.083821975 0.008264926 0.032897055
0001f0 17 c4 aa bc 49 c0 0e bd 0f 60 87 bd ea fb 27 bc
       -0.020845456 -0.034851346 -0.066101186 -0.010252932
000200 1c 64 52 3d 41 8a 9d 3d 78 a7 8d 3d 98 e8 37 be
       0.051365003 0.076923855 0.06916708 -0.17959821
000210 e0 f1 01 3b 82 5d f5 bc 18 29 c1 bb 4a c4 01 3c
       0.0019828007 -0.029951815 -0.0058947913 0.007920334
000220 f4 c5 e6 3c 02 c6 52 bd 59 0b ce 3d 8b 6c 1e 3d
       0.028170563 -0.051458366 0.10060758 0.038677733
000230 85 4f 07 3e a9 65 9b 3b c1 5a 00 3d 37 55 83 ba
       0.13213928 0.0047423434 0.03133655 -0.0010019903
000240 50 4b d4 3d 9c 24 c3 3d 0f b5 25 bd 70 01 eb 3b
       0.10365927 0.09528467 -0.040455874 0.007171802
000250 c3 2f 3f 3d 2c 6d e1 3c 74 8d 3e bc 89 58 62 bc
       0.04667641 0.027517878 -0.011630405 -0.013815054
000260 3a 9c a3 bd 02 fb f6 bd 54 f5 a1 3c a7 07 83 3c
       -0.07988782 -0.12059595 0.019770302 0.01599486
000270 ee 58 f1 bc 00 d1 c2 3d e6 33 5e 3d 6a 87 93 3d
       -0.02946135 0.0951252 0.054248713 0.072035626
000280 36 f8 d4 3c 57 4c d2 ba 7b ac 8f bc 05 61 91 3d
       0.025997262 -0.001604448 -0.0175383 0.07098583
000290 81 31 5e 3d bf 94 07 bc 15 60 b3 bd dd c3 85 bd
       0.05424643 -0.00827521 -0.087585606 -0.065314986
0002a0 d8 6e ce bb 44 df 8f 3b 2c f7 63 3d b0 b5 99 b9
       -0.0062998347 0.004390629 0.055655643 -0.00029317802
0002b0 2c 37 df bd 80 f2 12 3d 77 f8 b0 bc 46 dd 0f 3d
       -0.10899195 0.035875797 -0.021602852 0.035123132
0002c0 ec 60 cb 3d 13 98 01 3e 82 72 1b bd 8b 15 da bd
       0.09930596 0.12655668 -0.037951 -0.1064864
0002d0 85 0a 57 bd 50 85 a7 3c d9 a1 cf bc cf 8f be 3d
       -0.052500267 0.02044931 -0.02534573 0.09304773
0002e0 18 31 f8 3c 8a 44 44 3d 8f fe a1 3a 67 40 02 be
       0.030296847 0.047916926 0.001235919 -0.1271988
0002f0 8a ae f7 bb c9 66 a7 bc a6 eb 6c 3d 6c 43 29 3d
       -0.0075586485 -0.020434754 0.05784192 0.041324064
000300 31 3b 80 3b e5 b4 d9 bc 30 40 88 3d 51 ac 00 bb
       0.003913306 -0.026575515 0.06652868 -0.0019633959
000310 44 c5 cc 3d ef 2a d5 bc e9 27 1c 3e 67 fa 91 bc
       0.09998563 -0.026021449 0.152496 -0.017819596
000320 a0 27 83 bd f1 07 ec 3c 08 2f df bd 2e 8f 33 3d
       -0.06404042 0.02881238 -0.108976424 0.04383772
000330 46 13 91 3c 06 94 6c 3d 4f 28 d9 3d 73 e2 f6 3c
       0.017709386 0.057758354 0.106033914 0.030137276
000340 36 6f 26 3d 95 52 7f bc ba b7 0d 3e 04 59 9c 3c
       0.040633403 -0.015583654 0.13839617 0.019085415
000350 54 a1 dc 3c 4b e1 79 bc 55 69 62 3d 33 5d 3f 3e
       0.026932396 -0.015251468 0.055276234 0.18687896
000360 a7 19 b9 3c 5a 45 b9 3d 4e d6 03 3c b6 79 73 bd
       0.02259524 0.09046431 0.0080467 -0.059442244
000370 ce d7 43 3d 3b b8 3f bd dc fb a3 3c ed d1 a2 3d
       0.04781323 -0.046806555 0.020017557 0.079501964
000380 c0 3b b6 3d a1 a0 c5 bc e0 3d 45 bd d7 ae 0c 3c
       0.08898115 -0.024124445 -0.04815471 0.008586607
000390 4d 1b e3 3c a3 89 47 3d 15 97 27 bd 47 58 62 3c
       0.027722979 0.048715245 -0.040915567 0.013814992
0003a0 55 16 a0 3d 64 a6 eb 3c 78 eb 82 3d 4d 6f 38 bd
       0.078167595 0.028765865 0.06392568 -0.04502802
0003b0 fc f8 1a 3d f3 8b 28 3d ac 40 6f bc 78 76 d3 bb
       0.037835106 0.04114909 -0.014602821 -0.0064533316
0003c0 a8 92 9d bb b1 52 2d 3d fe 43 b0 bc e2 7f e9 bd
       -0.0048087426 0.04231519 -0.021516796 -0.11401345
0003d0 17 46 4d 3d 14 4c 4f 3c d9 4c 13 bd 80 50 92 3c
       0.05011567 0.012652416 -0.03596196 0.017860651
0003e0 ac af f0 bd e1 13 1a 3c 92 fd 13 3c 03 c5 e5 3d
       -0.11752257 0.009404154 0.009032624 0.11219218
0003f0 b3 e4 8b 3d dc 60 8b bd 0c 22 32 bd 8f 97 9c 3c
       0.0683073 -0.06805584 -0.0434895 0.019115238

bn1.weight f4 [400]
000000 9f 54 85 3f 06 8f 57 3f d0 c4 65 3f 3f 2a 80 3f
       1.0416449 0.8420261 0.8975344 1.0012892
000010 4b dd 75 3f c9 c2 4c 3f 53 ea 6c 3f 92 6b 4a 3f
       0.9604079 0.7998472 0.9254505 0.7907039
000020 2f 0c 5c 3f 9b 93 68 3f cb 88 74 3f 72 9d 7c 3f
       0.8595609 0.9085023 0.9552123 0.9867774
000030 d4 41 4d 3f 92 a2 6a 3f 09 82 56 3f 75 1a 69 3f
       0.8017857 0.9165431 0.8379217 0.91055995
000040 09 1c 4f 3f 1b 4a 66 3f f8 af 52 3f 90 04 50 3f
       0.80902153 0.89956826 0.82299757 0.8125696
000050 2d 19 62 3f ac 6e 50 3f fa 90 55 3f 47 d0 4e 3f
       0.88319665 0.8141887 0.8342434 0.80786556
000060 53 f9 43 3f 56 36 8e 3f 30 dd 4f 3f 34 5b 56 3f
       0.76552314 1.1110332 0.8119688 0.83732915
000070 00 c3 58 3f f7 01 53 3f b2 0c 4e 3f cd ac 48 3f
       0.84672546 0.82424873 0.8048812 0.78388673
000080 0d f6 3b 3f aa d6 3e 3f fc d8 7a 3f fe ae 71 3f
       0.7342232 0.745463 0.9798734 0.9440764
000090 73 0e 73 3f 3b fc 4a 3f 5f d4 5f 3f 1b a0 77 3f
       0.9494392 0.79291123 0.8743343 0.96728677
0000a0 52 8c 68 3f ce 48 82 3f b4 b8 45 3f 04 67 80 3f
       0.9083911 1.0178468 0.7723496 1.0031438
0000b0 3f 2e 64 3f 62 12 67 3f f8 34 42 3f 15 e3 7f 3f
       0.89133066 0.90262425 0.75862074 0.99955875
0000c0 0d 70 55 3f 7f cc 73 3f 11 26 84 3f c0 1c 54 3f
       0.833741 0.9523391 1.0324117 0.8285637
0000d0 58 68 52 3f 95 d4 61 3f 3f e2 62 3f 96 2d 60 3f
       0.82190466 0.88215 0.88626474 0.8756956
0000e0 69 65 58 3f a5 d1 56 3f ce 23 6e 3f 07 fb 71 3f
       0.8452974 0.8391364 0.93023384 0.9452366
0000f0 74 f1 77 3f 7f 1d 6f 3f ea 03 4b 3f db 0c 5c 3f
       0.96852803 0.9340438 0.7930285 0.85957116
000100 34 94 8c 3f a7 c8 4b 3f 30 40 32 3f 9c 08 51 3f
       1.0982728 0.79603046 0.6962919 0.8165376
000110 06 ec 69 3f 56 b6 76 3f 36 82 45 3f 9a 27 5d 3f
       0.9137577 0.9637197 0.7715181 0.8638855
000120 65 7b 3e 3f 26 e9 66 3f ad ea 4f 3f 69 b7 77 3f
       0.74407035 0.90199506 0.8121746 0.96764237
000130 a3 33 4d 3f 0e 5b 61 3f d5 4f 72 3f 75 1a 4c 3f
       0.80156916 0.88029563 0.94653064 0.7972787
000140 89 d6 54 3f c7 99 49 3f a9 e0 4d 3f 66 6d 4a 3f
       0.83139855 0.7875027 0.8042093 0.7907318
000150 38 65 56 3f 89 52 66 3f 8c 17 5c 3f f8 55 5a 3f
       0.837482 0.8996969 0.8597343 0.8528743
000160 9a f5 54 3f 82 98 76 3f ec 5a 2a 3f ca 3c 8b 3f
       0.8318726 0.9632646 0.66544986 1.0877926
000170 e0 17 45 3f f3 06 5a 3f e8 b2 7f 3f b5 3c 6f 3f
       0.76989555 0.85166854 0.99882364 0.93452007
000180 e1 36 6f 3f b5 d1 74 3f ac 1e 50 3f 2a 92 52 3f
       0.93443114 0.9563249 0.812968 0.8225428
000190 88 64 6a 3f e1 49 81 3f 1a 1a 53 3f 12 d9 2b 3f
       0.9155965 1.0100671 0.824617 0.671281
0001a0 fd fe 8c 3f ea aa 7e 3f e3 4e 49 3f 17 dd 41 3f
       1.1015316 0.99479544 0.78635997 0.7572798
0001b0 e2 81 53 3f ad 48 7a 3f 99 cc 81 3f cf 69 59 3f
       0.8262006 0.97767144 1.0140563 0.84927076
0001c0 79 8b 3c 3f 23 08 7e 3f ca af 54 3f 38 0f 83 3f
       0.7365032 0.99231166 0.8308073 1.0239019
0001d0 75 18 6c 3f 71 46 48 3f eb 3d 68 3f 9e be 65 3f
       0.9222482 0.78232485 0.9071948 0.89743984
0001e0 50 01 5e 3f 58 3e 58 3f ba 43 4d 3f c2 3e 5b 3f
       0.8672075 0.8447013 0.8018147 0.85642636
0001f0 69 78 66 3f ef 1b 40 3f a6 6c 3e 3f 77 96 86 3f
       0.9002748 0.75042623 0.74384534 1.0514668
000200 c6 7a 4f 3f 8c fd 6b 3f f7 25 83 3f 45 1a 75 3f
       0.8104671 0.92183757 1.0245961 0.9574321
000210 94 08 4c 3f 31 f6 70 3f 69 58 5e 3f ad ab 38 3f
       0.7970059 0.9412566 0.86853653 0.72136956
000220 64 39 65 3f cb 0b 64 3f 6c bd 80 3f c4 ef 4d 3f
       0.89540696 0.89080495 1.0057807 0.8044398
000230 8b f1 4e 3f fb 43 7c 3f 76 44 77 3f b9 08 3f 3f
       0.80837315 0.9854123 0.9658884 0.74622685
000240 38 0a 59 3f 48 99 67 3f 24 2f 72 3f 87 cb 5d 3f
       0.8478122 0.90468264 0.9460318 0.86638683
000250 61 d1 53 3f 5b d2 56 3f d4 d2 3f 3f 3b d7 4b 3f
       0.8274136 0.83914727 0.74931073 0.7962529
000260 35 96 5a 3f 2c c7 77 3f 32 9e 51 3f 2a 11 61 3f
       0.8538545 0.9678829 0.8188201 0.87916815
000270 b9 be 56 3f 67 d8 82 3f 46 57 62 3f 44 6b 5d 3f
       0.8388477 1.0222291 0.8841442 0.864918
000280 0a f1 3e 3f 40 d3 4b 3f 9b 76 7b 3f 1f 4f 5a 3f
       0.74586546 0.79619217 0.9822785 0.8527698
000290 3f 60 32 3f 67 e8 4c 3f dc d0 7d 3f ad 15 80 3f
       0.6967811 0.8004212 0.9914682 1.0006615
0002a0 de e5 76 3f 68 e0 6e 3f 54 6b 69 3f 38 1d 69 3f
       0.964445 0.93311167 0.91179395 0.9106021
0002b0 7c f0 86 3f ef d3 67 3f 9e 41 53 3f f2 8e 60 3f
       1.054214 0.9055776 0.82522 0.8771812
0002c0 be 0f 56 3f ab ee 55 3f 8f f1 5c 3f 65 fa 41 3f
       0.8361777 0.83567303 0.8630609 0.75772697
0002d0 41 78 4a 3f e3 6a 6f 3f 10 9d 64 3f 4d 81 43 3f
       0.7908974 0.9352247 0.8930216 0.7636917
0002e0 4d 25 6b 3f 96 57 6d 3f fe f3 8b 3f 2b fc 5a 3f
       0.9185379 0.9271177 1.0933836 0.8554103
0002f0 9c 0d 71 3f 75 99 5a 3f 52 52 52 3f 90 7b 68 3f
       0.9416139 0.85390407 0.8215686 0.9081354
000300 69 02 47 3f 59 89 65 3f 5e de 4c 3f 07 ac 3e 3f
       0.7773805 0.896627 0.80026805 0.7448124
000310 a9 2d 81 3f 0c 6c 65 3f 25 14 85 3f ea df 81 3f
       1.0092059 0.8961799 1.0396773 1.0146458
000320 32 ae 5f 3f 30 65 64 3f e8 ca 84 3f 9f 94 5b 3f
       0.87375176 0.892169 1.0374422 0.8577365
000330 cf 72 67 3f cf 14 66 3f 97 f5 58 3f 1b 7b 58 3f
       0.9040956 0.898755 0.8474974 0.84562844
000340 bf 38 49 3f cb 24 4e 3f 68 ad 44 3f 31 2f 34 3f
       0.7860221 0.8052489 0.76827097 0.7038451
000350 98 52 5c 3f 53 d0 58 3f 75 31 5f 3f 3e b6 74 3f
       0.8606353 0.8469288 0.8718484 0.9559058
000360 12 71 3d 3f e7 a7 63 3f 66 0c 67 3f 03 e8 73 3f
       0.74000657 0.88928074 0.90253294 0.95275897
000370 e3 0f 4e 3f 16 2e 3b 3f 21 55 53 3f dc 9f 51 3f
       0.8049299 0.73117197 0.8255177 0.8188455
000380 79 f8 5c 3f 2f 30 5b 3f 2c 4d 54 3f 34 32 56 3f
       0.8631664 0.856204 0.82930255 0.83670354
000390 a7 5f 4d 3f 36 13 53 3f f2 20 6c 3f f0 50 38 3f
       0.8022408 0.8245119 0.9223777 0.719985
0003a0 4b 8a 6e 3f fc a7 61 3f 18 94 7e 3f 2e 0b 78 3f
       0.9317977 0.8814695 0.99444723 0.9689206
0003b0 8f 86 4c 3f 95 8b 69 3f 8a 39 76 3f f6 53 69 3f
       0.7989282 0.9122861 0.9618155 0.9114374
0003c0 90 7d 69 3f 32 87 33 3f fe ea 4d 3f 0b f2 5a 3f
       0.9120722 0.70128167 0.80436695 0.8552558
0003d0 60 04 63 3f b8 60 7f 3f 6f 0f 59 3f d2 43 6d 3f
       0.8867855 0.99756956 0.84789175 0.9268161
0003e0 7f f5 50 3f 99 84 45 3f 3e 6b 80 3f c2 bf 67 3f
       0.816246 0.7715545 1.0032728 0.90526974
0003f0 d3 88 7c 3f 40 61 7b 3f 2e e8 5f 3f 77 a0 71 3f
       0.9864628 0.98195267 0.87463653 0.94385475

bn1.bias f4 [400]
000000 af d1 22 bf 0a dc 8e 3d 5c 1a 8f bd 23 a1 c1 be
       -0.636012 0.06975563 -0.069874495 -0.3781825
000010 d2 73 1a bf a0 b5 18 bf c4 88 24 be a0 b1 c0 3d
       -0.6033298 -0.5965214 -0.16067797 0.09408879
000020 4b eb 94 3d b4 52 0c be a7 32 de be f6 35 7b be
       0.07271441 -0.13703424 -0.4339802 -0.24532303
000030 4d 80 90 3e a8 53 0b bf 4a c2 f5 be 7a 6b 28 3e
       0.28222886 -0.54424524 -0.47999793 0.16447249
000040 6a 1f 98 be 59 78 aa be 4d 83 dc bd 85 38 bf be
       -0.29711467 -0.33294943 -0.10767231 -0.37347808
000050 2e a9 b3 be b7 6a 64 3e a4 58 2e bd 10 17 72 be
       -0.3509001 0.22306333 -0.042565003 -0.2364161
000060 ac d1 21 3e 56 ba 0a bf f9 dc 7f bd 6c a3 2a 3e
       0.1580264 -0.54190576 -0.062466595 0.16663903
000070 9b 25 1b 3d d2 f4 1d bc a9 9a aa bd 6a ac 98 bd
       0.03787766 -0.009640889 -0.0833028 -0.074547604
000080 b3 21 d6 bc 0e 51 38 3d 44 d4 a6 3d 37 06 02 bf
       -0.026139116 0.044999175 0.08145955 -0.50790733
000090 0a 84 ce be de 66 00 3d 73 d9 b9 3d 54 97 ec be
       -0.40335113 0.0313481 0.09074678 -0.46209204
0000a0 82 86 cd 3d 18 85 f7 be f9 9c b1 be 03 c8 b6 be
       0.10035421 -0.4834373 -0.34690073 -0.35699472
0000b0 ba 50 be bd 35 0f a2 be 1f 59 28 bf 3a 37 09 bf
       -0.09292741 -0.31652227 -0.6576099 -0.53599894
0000c0 e5 d4 b1 be ee 2c 07 bf da c5 ef be 7f 43 d3 bd
       -0.34732738 -0.5280293 -0.46830636 -0.10315608
0000d0 7a 59 70 3d 38 78 7a 3d 36 54 fa be ae 79 00 bd
       0.05867908 0.061149806 -0.48892373 -0.031366043
0000e0 bb 57 cc bd bd de d0 be f0 52 f7 be 3e ee 0d bf
       -0.09977671 -0.40794936 -0.48305464 -0.55441654
0000f0 04 6c 89 be 17 30 32 be f9 06 29 3d 05 f9 f9 3d
       -0.26840222 -0.17401157 0.041266415 0.122057
000100 fa bb a8 be b8 51 14 3e 9d ba a7 3e f1 a1 06 bd
       -0.32955915 0.14484298 0.32759562 -0.032869283
000110 f8 3f ec 3c bf 02 e4 be 4b 3b cd 3b e6 0f bd be
       0.028839096 -0.44533345 0.006263172 -0.36926192
000120 06 04 04 3e 23 8b 80 3d d7 6e 1d be 8c 2d a9 be
       0.1289216 0.06276538 -0.15374313 -0.33042562
000130 c6 5f a2 3c 1e 0c 20 bf d7 ff 1e bf 56 f3 19 3d
       0.019821059 -0.6251849 -0.6210913 0.03758558
000140 dd 39 72 3e 15 6c 83 3e 8c 87 40 be f3 12 af 3e
       0.23654886 0.25668398 -0.18801707 0.34194145
000150 1e 09 5a be 7d 35 22 bf 2f 86 0e 3e 2c 44 e4 3c
       -0.2129254 -0.63362867 0.13918374 0.027864538
000160 56 64 09 3e 46 8a 4b 3e e3 8b 29 be 7d f4 e4 be
       0.13417181 0.19876966 -0.16557269 -0.4471778
000170 6a 0a 4b 3d 33 2c 07 bc c1 69 55 be 84 38 ef bd
       0.04957048 -0.008250284 -0.20841123 -0.116807014
000180 96 de e3 be 6f 0c 15 bf 13 c2 a8 3d aa e1 01 bc
       -0.44505757 -0.582221 0.08240142 -0.007927338
000190 f7 c7 62 be 2e e5 88 be ad 25 95 be 42 5e 8a bd
       -0.22146593 -0.2673735 -0.29130307 -0.067562595
0001a0 2d 2a a8 be de 0e 02 bf f8 89 97 be 0b 9e a5 3d
       -0.32844678 -0.50803936 -0.2959745 0.08086785
0001b0 39 e7 6f bd ce e9 32 be 4d c6 08 bf a2 f5 83 3d
       -0.05857012 -0.17472002 -0.5342758 0.06443335
0001c0 64 78 66 3d 75 f7 c0 be 16 08 58 3d 1f 4f 50 be
       0.056267157 -0.37688795 0.052742086 -0.20342682
0001d0 c4 30 9e be 31 26 9a 3b d4 9f 51 3e ce d6 bb bb
       -0.3089658 0.00470426 0.20471126 -0.005732394
0001e0 4c f8 73 be 83 02 6d be c9 ae e1 be e6 e6 67 be
       -0.23825186 -0.2314549 -0.44078663 -0.22646675
0001f0 66 6e df 3d 86 2c 1f 3e 8c 79 97 be bd e3 83 be
       0.10909729 0.15544328 -0.2958492 -0.25759688
000200 db 44 ad bd bf 19 ce bd cc c4 ff be 1b 20 1c bf
       -0.08460399 -0.100635044 -0.49954832 -0.6098649
000210 77 b3 a0 3d fb 1b f5 be b2 60 fa 3c 7b e8 e4 be
       0.0784673 -0.4787291 0.030563686 -0.4470862
000220 e3 a8 8d be 04 a8 35 bf a4 4d 02 bf c9 f8 88 bd
       -0.27667913 -0.70959496 -0.5089972 -0.06688077
000230 a3 bc c7 3d af dc 28 bf 08 7b ac be 4b 2d 21 bf
       0.097527765 -0.65961736 -0.33687615 -0.62959737
000240 9c 6a 00 3e ab 48 38 bf f1 71 22 bf 6a 69 fa bd
       0.12540668 -0.7198588 -0.6345511 -0.122271374
000250 b3 49 9f be 93 59 e0 be 18 c2 64 be b0 a0 c5 bd
       -0.31110916 -0.4381834 -0.22339666 -0.09649789
000260 dd 62 e8 bd c8 54 0c bf 0b 21 7b 3d 35 27 11 bf
       -0.11346982 -0.54816866 0.06131081 -0.5670045
000270 de 89 7b 3b 6c 94 7d bc a9 f7 5a 3e 96 a7 c1 be
       0.0038381736 -0.015477281 0.21383537 -0.3782317
000280 65 73 44 be 31 48 e5 bc f3 a0 f4 be 7a d8 8c 3e
       -0.19184645 -0.027988525 -0.47779045 0.2750891
000290 00 00 20 be 86 71 20 bf db 75 10 bf a5 39 08 be
       -0.15625 -0.62673223 -0.56429833 -0.1330324
0002a0 ad 09 6a bc 3f b7 4d bd 1b 18 a8 bd 75 46 2a bd
       -0.014284533 -0.050223585 -0.08207723 -0.0415711
0002b0 52 22 17 be 1a 66 07 bf 47 c8 9b 3d 2b fe 0e bf
       -0.14759186 -0.5289017 0.07606559 -0.5585658
0002c0 b4 ce b2 be 66 9b 2b 3e 8a f3 e4 be eb a0 86 be
       -0.34923327 0.16758499 -0.44717056 -0.26294646
0002d0 0b c2 83 3e 41 c1 a7 be 7d fd 2d bf ff 24 e8 3d
       0.2573398 -0.3276463 -0.6796492 0.113351814
0002e0 10 36 9c be 0e 6d 1e bf 99 73 e0 be 13 6f 12 bf
       -0.30509996 -0.61885154 -0.43838194 -0.57200736
0002f0 4e 51 c0 be 74 13 b2 3c 72 ee a0 3c 18 94 fb be
       -0.3756203 0.021737792 0.01964495 -0.49136424
000300 b9 3e 28 3e 8b 21 1c bf 39 92 bd be 52 ec d9 bc
       0.16430177 -0.6098868 -0.37025622 -0.026601944
000310 79 fe 94 be 8a 5b 17 be 7f 51 ef be 88 05 c3 be
       -0.29100397 -0.14781013 -0.46741864 -0.38090158
000320 04 36 61 be e5 c9 7a 3e 4e b9 f9 be 08 c8 72 bd
       -0.21993262 0.24491079 -0.4877419 -0.059272796
000330 82 0a 6f bd 92 53 56 3d a8 de d6 be 09 7e fb bd
       -0.05835963 0.052325793 -0.41966748 -0.12279899
000340 31 a5 c1 be 23 99 a5 bc 23 7a 8a 3d 73 ea 74 be
       -0.37821344 -0.020214623 0.06761577 -0.2391756
000350 e5 f8 30 be 76 0b 6f be d6 1c 8a be 67 a2 12 bf
       -0.17282446 -0.23344216 -0.26975125 -0.57279056
000360 ac 9b fb bc 48 7e 00 bf 94 a3 0a bf cd cc d0 be
       -0.030713879 -0.5019269 -0.5415585 -0.4078125
000370 96 52 8d be f3 0d 05 be 4b f4 7f bd 97 3c 03 3e
       -0.2760207 -0.12993602 -0.062488835 0.12816082
000380 88 06 be be 77 b3 e8 3d 1e cc e2 3d 35 b0 52 bd
       -0.37114358 0.11362355 0.110740885 -0.051437575
000390 8b 31 b6 bd 86 43 9c bd 73 ee e7 be 56 91 8a 3d
       -0.08896168 -0.076300666 -0.4529911 0.06766002
0003a0 9f 7d f8 be 95 2a 4f 3e 6f 7c 33 bd b1 9e ea be
       -0.4853334 0.20231088 -0.04381984 -0.45824197
0003b0 dc d1 04 be 6c cd 08 3e 2d 83 f9 be be 8a ff 3b
       -0.1297068 0.13359612 -0.48732892 0.007798522
0003c0 c1 04 a5 be a2 4a 9c bd 35 e8 a5 bd ee 48 69 be
       -0.3223019 -0.076314226 -0.081009306 -0.22781727
0003d0 bb db e8 bd 79 88 f6 be 56 93 5a 3e 33 74 62 be
       -0.11370035 -0.48150995 0.21345267 -0.22114639
0003e0 18 31 36 bd 59 94 35 be bc 9d f9 be 59 3a e0 be
       -0.044480413 -0.17732371 -0.48753154 -0.43794516
0003f0 fe 5a a9 be 42 0e 0d bf 31 02 3d bf 83 6c 3d 3c
       -0.33077234 -0.5509988 -0.7383147 0.011561516

bn1.running_mean f4 [400]
000000 fa 9d eb bc 7e e6 c8 bc 11 07 b5 bd cf a8 fa bc
       -0.028761853 -0.02452397 -0.088392384 -0.030598072
000010 32 7b 85 bd b8 e8 86 bd 8e 30 d7 bc 73 e1 8a bd
       -0.06517638 -0.06587356 -0.02626827 -0.06781282
000020 fe 5f 9c 3d 2d be 01 3d da 6a 3c bd e4 23 b9 bd
       0.076354966 0.031675506 -0.04600034 -0.09040049
000030 16 d0 d8 3d 3e 29 2c 3d 72 99 92 3d 30 c0 d2 bd
       0.10586564 0.04203152 0.071581736 -0.10290563
000040 49 2f 20 3d 84 c8 18 3e da ce 8d bd 22 a2 6e 3d
       0.039107595 0.1492024 -0.069242194 0.05826009
000050 c7 af 86 3c 1b df 9d bb 1c bf 4e 3d 45 76 b6 bc
       0.016441239 -0.004817856 0.050475225 -0.022273192
000060 eb d1 33 3d 3c 01 12 3d 07 7a 46 bd c6 87 65 bd
       0.043901365 0.03564571 -0.048456218 -0.056037687
000070 7f 35 94 bc a6 96 07 3d d4 6b d8 bd e9 93 6b bd
       -0.018091915 0.033102654 -0.105674416 -0.057514105
000080 31 63 4e 3d c6 1d 97 3d cf e0 47 3c a9 a9 23 3e
       0.050387565 0.07378726 0.012199595 0.15982689
000090 69 a7 20 3e d7 53 45 3d fd 8a 8d bc 97 40 ad 3d
       0.15688862 0.04817566 -0.017278189 0.08459585
0000a0 40 ee 13 bd d3 10 43 3d b2 1a a0 3d a5 ec ba 3c
       -0.036115885 0.047623467 0.07817592 0.022817919
0000b0 49 6f a8 bd 1c 77 19 bd 8b f2 a5 3c 92 f8 13 3e
       -0.08224351 -0.037467107 0.020257255 0.14450291
0000c0 6d b7 43 bd 66 52 a6 bd 9e 40 03 bd 7e 06 b9 3d
       -0.04778235 -0.08121185 -0.032044046 0.090344414
0000d0 cf 15 1e 3d 35 9c 51 3d 05 44 1b 3e a5 7d 7b 3d
       0.038595017 0.05117436 0.15162666 0.06139912
0000e0 72 73 be bd d8 93 94 bd 5b a7 a6 bd 9b c1 5d 3d
       -0.09299363 -0.072547615 -0.08137389 0.054139715
0000f0 69 13 8c 3c cf 61 0c bc 0e 31 bf 3c d6 6c e1 bd
       0.0170991 -0.008568241 0.02333882 -0.11007087
000100 45 66 cf 3d 95 2c 24 bd ba 74 ae 3d 58 66 42 3d
       0.10126928 -0.04008158 0.085183576 0.047460884
000110 a4 36 01 be 95 94 be 3c 23 e1 68 3d 92 da 9c 3c
       -0.126185 0.023264209 0.056855332 0.019147191
000120 68 90 15 3d 03 8a 86 3b 93 d7 32 bd 1d 69 7d bb
       0.03651467 0.0041058077 -0.04366262 -0.0038667389
000130 7b d1 fb bd 5f 9c 6d bb 79 81 45 be fa 9d 13 3d
       -0.122958146 -0.0036256535 -0.19287671 0.03603933
000140 4f 3d 47 3c b8 1c cb 3d 89 6b de 3c 24 74 c6 3c
       0.012160613 0.09917587 0.027150886 0.024225302
000150 9b 61 20 ba 50 5d cb 3d b7 a3 1c 3e 1f 21 e0 3d
       -0.000611806 0.09929907 0.15296827 0.10943817
000160 4e de 08 3b 78 ca c2 bc 6d 03 df ba 60 22 f9 bd
       0.0020884457 -0.023778185 -0.0017014571 -0.1216476
000170 08 01 cf 3c 03 b0 51 3d 95 e2 10 bd 34 17 09 3e
       0.025269046 0.05119325 -0.035372335 0.13387758
000180 9e d0 25 bc be 18 0d 3d 42 dc 9b 3d c1 c8 3a 3d
       -0.010120539 0.034447424 0.0761037 0.04560161
000190 7a d7 9a bb 53 1a f2 3d 39 08 d5 3d 45 d7 b6 3d
       -0.004725394 0.11821427 0.10401959 0.08927778
0001a0 7b 08 83 3d db c5 51 bd cf e2 e5 3c e4 8f fd 3c
       0.06398102 -0.05121408 0.028062252 0.030952401
0001b0 45 7c e1 bd 09 0f e0 3d a0 45 54 bc a6 46 97 bd
       -0.11010031 0.10940368 -0.012956053 -0.07386522
0001c0 0a 7a 85 3d 4c 28 af bb c7 92 0c bd 24 5b 82 bc
       0.06517418 -0.00534538 -0.034319665 -0.0159126
0001d0 77 ac 69 bd 0b 34 aa bd 01 29 a8 bc 22 ec 98 bd
       -0.05704924 -0.08310708 -0.020527365 -0.07466914
0001e0 ac 22 80 3d 0c 12 9d bd 2b c2 0c 3c 99 17 2b 3d
       0.06256613 -0.07669458 0.008591215 0.04177055
0001f0 a2 9b ab bc d7 4f 55 bd a4 63 69 bd c8 3e 11 bc
       -0.020948235 -0.052078094 -0.05697979 -0.008865066
000200 86 c5 15 3d 7c 97 95 3d fa 18 6c 3d 6f c7 2d be
       0.036565326 0.07304284 0.057641007 -0.16970609
000210 72 dc 77 bb 89 dd b3 bc ea af 8f 3b 4a 86 34 3c
       -0.0037820605 -0.021956222 0.0043849843 0.011018345
000220 59 3c 90 3c d4 8e 58 bd 10 77 c4 3d cb 3b 30 3d
       0.017606901 -0.052870587 0.09593022 0.043025773
000230 ac 19 07 3e 40 31 8d 3b 76 da c1 3c c3 f3 ed ba
       0.13193387 0.0043088496 0.02366374 -0.0018154312
000240 f1 41 ca 3d 6a ee ca 3d f0 0c 4b bd c8 f5 ea 3b
       0.098758586 0.09908755 -0.049572885 0.0071704127
000250 27 65 1d 3d e5 27 a5 3c e2 b3 09 bc c3 c6 4f bc
       0.038426545 0.020160625 -0.008404704 -0.012681666
000260 3b cf 96 bd 3c de ec bd 39 af 1e 3c 2e 15 c5 3a
       -0.07363745 -0.11565825 0.009685331 0.0015036219
000270 67 80 0a bd 30 b3 d4 3d 62 6e 6c 3d 77 94 84 3d
       -0.03381386 0.1038574 0.057722457 0.0647363
000280 6b 3d e4 3c da 26 0c 3b e4 6c 9a bc e0 14 9c 3d
       0.027861318 0.0021385462 -0.018850751 0.07621169
000290 6b 8b 38 3d 7e c7 67 bc 47 72 c5 bd b6 29 87 bd
       0.045054834 -0.014146684 -0.09640937 -0.065997526
0002a0 a7 16 27 3b e0 49 02 3a 9a e1 5c 3d 81 05 70 bb
       0.002549568 0.00049701147 0.053926088 -0.0036624374
0002b0 c9 cd eb bd 55 11 1f 3d 6e 67 ed bb d1 5c 2b 3d
       -0.1151386 0.03883489 -0.007244996 0.041836563
0002c0 b6 5c d1 3d 1a be 07 3e fd b6 34 bd d4 c3 e3 bd
       0.10222761 0.13256112 -0.044119824 -0.111213356
0002d0 79 65 5f bd 40 97 a3 3c 75 5d f5 bc a3 ca bb 3d
       -0.05454013 0.019969583 -0.02995179 0.09169509
0002e0 8c c8 00 3d 77 82 44 3d 3d f4 7b bb f5 ba 04 be
       0.031441256 0.047975983 -0.0038445138 -0.12961943
0002f0 76 52 c8 bb 0b 13 b3 bc 77 1f 32 3d 34 2a 26 3d
       -0.0061133457 -0.021859666 0.04348704 0.04056759
000300 29 da 01 3b 60 92 ca bc 7a ff 7e 3d 73 f5 2e bb
       0.0019813871 -0.024728 0.06225536 -0.0026696592
000310 25 bb bd 3d 78 7c ad bc ad 52 14 3e 61 e7 69 bc
       0.092642106 -0.021177515 0.14484663 -0.014276356
000320 67 03 82 bd 32 ca 1b 3d 3f 03 ec bd b7 45 50 3d
       -0.06348305 0.038034625 -0.11524057 0.050847735
000330 c6 51 88 3c 6e 0b 72 3d b6 20 d0 3d 41 45 b0 3c
       0.016640555 0.05909293 0.10162489 0.021517398
000340 4c fc 40 3d c6 9a 54 bc 38 fa 17 3e f9 bd a1 3b
       0.04711561 -0.012976354 0.14841545 0.0049359766
000350 a5 77 19 3d 8b 2c cd bc ca c6 5e 3d 9e 20 46 3e
       0.037467618 -0.025045654 0.0543888 0.1934838
000360 92 40 ac 3c 76 f0 c6 3d ae 98 ef b8 db 89 7b bd
       0.021026883 0.09713833 -0.00011424847 -0.061410766
000370 ef 9c 74 3d fa d8 25 bd 9f b1 91 3c be d5 a0 3d
       0.059719976 -0.040490128 0.017784892 0.07853268
000380 8e 35 b6 3d db b0 e2 bc e3 b4 4b bd a7 21 41 3c
       0.088969335 -0.027672222 -0.049733054 0.0117878085
000390 95 18 c1 3c 10 d3 51 3d a5 ae 25 bd 6c 47 91 3c
       0.023571292 0.051226676 -0.040449757 0.017734252
0003a0 6e 07 a8 3d 4e fd aa 3c 2e fe 9b 3d 7f 28 2e bd
       0.08204542 0.020872738 0.0761684 -0.04251909
0003b0 45 ae 05 3d a8 d6 38 3d 57 f5 66 bc 49 fb 5e bc
       0.0326369 0.045126587 -0.0140965795 -0.013609716
0003c0 cf 5b 5a 3b 73 26 26 3d 3a 59 a2 bc 60 d2 f3 bd
       0.0033318882 0.04056401 -0.019817937 -0.1190536
0003d0 19 a7 6e 3d 6d 61 da 3b 4d 6a 0a bd 4c 4e eb 3c
       0.058264825 0.006664446 -0.033792783 0.028723858
0003e0 ad 93 00 be 77 f2 87 3c 4f 87 81 3c aa dc 00 3e
       -0.12556334 0.016595108 0.01581159 0.12584177
0003f0 1c 94 68 3d 84 32 98 bd ec a6 ed bc d9 96 bc 3c
       0.056781873 -0.0743151 -0.029010259 0.023021149

bn1.running_var f4 [400]
000000 99 f9 04 3d 90 0a 08 3d 2f f5 14 3d 16 ac 04 3d
       0.032464597 0.0332132 0.036366638 0.032390676
000010 66 fd 3b 3d e7 10 04 3d 8c e6 0f 3d 0d 25 27 3d
       0.045895956 0.03224268 0.035131976 0.04080682
000020 35 13 1d 3d 33 c2 37 3d 23 57 1e 3d 04 40 00 3d
       0.038348395 0.044862937 0.03865732 0.03131105
000030 c8 29 0d 3d 31 29 1c 3d 68 4d 16 3d 23 f3 1f 3d
       0.034463674 0.03812522 0.036694914 0.039050233
000040 1f 29 2b 3d ec 86 25 3d fb a9 1c 3d 02 8b 2e 3d
       0.041787263 0.040411875 0.038248044 0.042613037
000050 65 b8 10 3d 9a 0f 08 3d e1 e9 f3 3c 8b af 10 3d
       0.035332102 0.033218004 0.029774608 0.03532366
000060 7c 8b ed 3c f9 db 12 3d a7 dc 20 3d 3d c1 2d 3d
       0.028997175 0.035854314 0.03927293 0.042420615
000070 6d 6e 39 3d fa b9 2c 3d b4 1f f7 3c f6 1b 22 3d
       0.045271326 0.04216955 0.030166484 0.039577447
000080 66 02 18 3d 29 d2 0f 3d db 58 08 3d 3b e7 08 3d
       0.037111662 0.035112534 0.033287864 0.033423644
000090 99 52 2b 3d 10 cd 07 3d 8d 96 1f 3d 42 b7 0a 3d
       0.04182682 0.033154547 0.038961936 0.033866175
0000a0 4c 18 0e 3d 91 c0 05 3d 92 db 06 3d ce d1 ff 3c
       0.03469114 0.03265435 0.032924242 0.031227972
0000b0 ed 57 16 3d 5c 7b 23 3d 78 9a 10 3d b1 c5 06 3d
       0.036704946 0.039912567 0.035303563 0.032903377
0000c0 db ea 0e 3d e7 5b 1f 3d b9 4e 11 3d 15 90 07 3d
       0.034891944 0.038906004 0.035475466 0.03309639
0000d0 55 72 03 3d ac 2c 42 3d 76 9e 2a 3d 25 03 ed 3c
       0.032091457 0.047405884 0.041655026 0.028932163
0000e0 bb f2 18 3d 96 18 0d 3d da 4f 20 3d 50 d2 09 3d
       0.03734086 0.034447275 0.039138652 0.033647835
0000f0 79 75 22 3d 93 35 16 3d bf 42 27 3d 7a 4e 33 3d
       0.039662812 0.036672186 0.04083514 0.043776013
000100 3a 60 10 3d df 7e 0f 3d 94 17 2e 3d d5 6e 0f 3d
       0.03524802 0.035033103 0.042502955 0.035017807
000110 26 5f e0 3c e7 c4 30 3d 4d 7e 0a 3d 8b 58 32 3d
       0.02738912 0.04315653 0.033811856 0.043541472
000120 c2 b6 13 3d 64 af 01 3d 73 1a 09 3d 80 ce 17 3d
       0.036062963 0.031661406 0.03347249 0.037062168
000130 ae 2f 07 3d 91 24 15 3d 80 6d 0f 3d e0 0a 11 3d
       0.033004455 0.036411826 0.035016537 0.03541076
000140 06 d6 14 3d ca e5 38 3d 78 5a 20 3d 1f 02 14 3d
       0.03633692 0.04514102 0.039148778 0.036134835
000150 b4 54 37 3d ff a1 d1 3c 14 4a 01 3d a5 fb 04 3d
       0.044758514 0.025589941 0.031564787 0.03246655
000160 c4 bb fd 3c 82 86 72 3d 7f 04 04 3d 3e 77 17 3d
       0.030973323 0.059210308 0.03223085 0.036978953
000170 bb 8e 15 3d c7 7a 35 3d 24 b7 0c 3d aa 03 24 3d
       0.03651307 0.044306543 0.034354344 0.040042557
000180 73 3f 36 3d d2 63 18 3d 84 95 01 3d 07 64 f5 3c
       0.044494104 0.03720457 0.03163673 0.029954923
000190 11 b9 12 3d c5 d0 26 3d d0 7e 0e 3d 41 3d 12 3d
       0.035821024 0.040726442 0.034788907 0.035702948
0001a0 64 f4 20 3d c4 8e 14 3d ad 3e 06 3d c7 b9 05 3d
       0.03929557 0.036268964 0.032774616 0.032647874
0001b0 90 06 2b 3d e3 58 12 3d d8 88 14 3d 7d 1a 22 3d
       0.041754305 0.0357293 0.036263317 0.039576042
0001c0 0b 82 24 3d e8 77 23 3d c6 af 25 3d c3 12 1f 3d
       0.04016308 0.039909273 0.040450834 0.038836252
0001d0 65 23 16 3d 0b 3d 04 3d d9 6e 0f 3d 12 26 04 3d
       0.03665485 0.032284778 0.035017822 0.03226287
0001e0 e1 0b 19 3d 2d 09 18 3d 6d 87 06 3d 2a 83 1b 3d
       0.037364844 0.037118126 0.032843996 0.037966885
0001f0 bb 83 04 3d 46 ef 2e 3d ee ab 23 3d 9d c4 30 3d
       0.03235219 0.042708658 0.039958887 0.043156255
000200 a0 38 25 3d 81 04 1e 3d 2c 57 16 3d 12 9b 08 3d
       0.040337205 0.038578514 0.036704227 0.03335101
000210 32 ad 05 3d 7c c6 15 3d df aa 15 3d 71 a2 0e 3d
       0.032635875 0.036566243 0.03653991 0.034822885
000220 5e 67 16 3d 14 ad 0c 3d 1c cb 1b 3d 98 8b 17 3d
       0.036719672 0.034344748 0.038035497 0.03699836
000230 5c 6b 2e 3d e3 31 17 3d 3e e9 2d 3d 7d 9b 1b 3d
       0.042582855 0.03691281 0.042458765 0.037990082
000240 43 2d 24 3d 49 73 1c 3d c5 23 21 3d 31 b8 13 3d
       0.040082227 0.038195882 0.039340753 0.03606433
000250 c6 7f 15 3d b1 1a 0a 3d 9b 32 29 3d b4 10 11 3d
       0.036498807 0.03371686 0.041308027 0.03541632
000260 b6 83 1c 3d c8 07 29 3d 38 0c 0a 3d 99 cc 17 3d
       0.038211547 0.041267186 0.03370306 0.037060354
000270 b7 34 28 3d ab 50 3a 3d 94 08 18 3d 00 16 3b 3d
       0.041065898 0.045487087 0.037117556 0.045675278
000280 1a dd 33 3d 22 30 0b 3d f8 49 09 3d 5d 3c 1e 3d
       0.04391203 0.03398145 0.033517808 0.038631786
000290 40 7d 3d 3d d6 b9 0d 3d a2 91 23 3d 8e 89 0a 3d
       0.046262026 0.034601055 0.03993381 0.03382259
0002a0 8e 43 21 3d 91 8f 0f 3d 3c cb 24 3d f7 a0 32 3d
       0.039371066 0.035049025 0.040232882 0.04361054
0002b0 a7 a3 26 3d 6c bf 1c 3d a8 7b 00 3d 4e 60 0f 3d
       0.040683415 0.03826849 0.031367928 0.035003953
0002c0 ab 4d 17 3d f4 7b 10 3d d6 2e 21 3d d6 2f 0c 3d
       0.036939304 0.03527446 0.039351307 0.034225307
0002d0 d0 3f 0c 3d ba 55 43 3d b6 87 11 3d e5 a8 0f 3d
       0.034240544 0.047689177 0.035529815 0.03507318
0002e0 7c cb 1a 3d 8e 73 1d 3d 14 54 28 3d 56 60 14 3d
       0.037791714 0.03844028 0.04109581 0.036224686
0002f0 cb f4 3f 3d c3 a6 0a 3d 17 3c 2c 3d 8b fe 0c 3d
       0.046864312 0.033850443 0.042049494 0.03442244
000300 b4 dd 06 3d c7 de fc 3c 22 84 15 3d fe 99 11 3d
       0.032926276 0.030867947 0.036502965 0.03554725
000310 db b6 ef 3c 84 e8 0b 3d c6 91 41 3d 0c b9 e9 3c
       0.029261997 0.03415729 0.04725816 0.02853062
000320 2d 83 18 3d 37 27 1a 3d 79 d1 16 3d a1 6e 10 3d
       0.037234474 0.037635054 0.036820862 0.035261754
000330 84 72 18 3d 47 45 32 3d 17 24 29 3d c5 99 0b 3d
       0.037218586 0.0435231 0.041294184 0.034082193
000340 23 58 17 3d d7 33 2d 3d 94 6a 0b 3d ef 41 34 3d
       0.036949288 0.042285766 0.034037188 0.04400819
000350 94 0a 33 3d fe c8 1a 3d de 06 2a 3d 7f 58 17 3d
       0.04371126 0.037789337 0.041510455 0.03694963
000360 db b5 3f 3d df 73 34 3d d2 13 04 3d 57 09 0a 3d
       0.04680429 0.044055816 0.032245465 0.033700313
000370 df 14 1a 3d 78 d6 32 3d 75 c8 08 3d fc c0 29 3d
       0.03761756 0.043661565 0.033394296 0.04144381
000380 b3 cb 37 3d 25 48 2c 3d 73 2a 28 3d c2 51 17 3d
       0.044871997 0.04206099 0.041056108 0.036943205
000390 4f d9 34 3d 58 13 1d 3d fd bf 2a 3d 63 5b 21 3d
       0.044152554 0.038348526 0.041687 0.039393794
0003a0 1a b6 ee 3c 04 c2 11 3d d7 fc 09 3d 8d 0b 37 3d
       0.029139567 0.03558542 0.033688392 0.04468875
0003b0 a9 35 0b 3d c7 72 1b 3d c5 65 08 3d ba 61 0d 3d
       0.03398672 0.037951257 0.03330018 0.034517027
0003c0 37 57 eb 3c 38 52 05 3d c5 94 16 3d f3 f6 1d 3d
       0.02872811 0.032549113 0.03676297 0.038565587
0003d0 87 72 26 3d 6e 39 20 3d 16 32 00 3d db 95 36 3d
       0.040636566 0.03911727 0.031297766 0.044576507
0003e0 85 1e 10 3d 3a 76 24 3d a9 a5 fc 3c fe 19 26 3d
       0.035185356 0.040151812 0.030840712 0.04055213
0003f0 a6 79 41 3d 05 db 24 3d e3 f9 25 3d 60 18 13 3d
       0.047235154 0.040247936 0.040521514 0.035911918

fc2.weight f4 [300, 404]
000000 65 8a 1f bd 4e 0d b6 bd 1f a4 47 3a 06 08 2f 3d
       -0.038950343 -0.088892564 0.00076157035 0.04273226
000010 9e 95 1d 3d 8c 0a 38 bd d4 43 f5 3c 61 1f bb bd
       0.038472764 -0.044931933 0.02993957 -0.091368444
000020 1d a8 34 3d 1b df 33 3d d8 11 08 bc 76 b4 e9 bd
       0.044105638 0.04391394 -0.0083050355 -0.11411373
000030 4d 0b f4 bc d9 3c 22 b9 98 cb 60 bd 6f f8 32 bd
       -0.029790545 -0.00015472191 -0.054881662 -0.043693956
000040 ad 0b b9 bc 74 13 06 be 28 f1 ca bd cd 55 a2 bd
       -0.022588575 -0.13093358 -0.09909278 -0.079265215
000050 2a fb 22 3d ad a6 09 bc 80 83 44 bd 98 47 62 bc
       0.03979031 -0.008401555 -0.04797697 -0.013811015
000060 61 61 19 3d b9 2a 49 3b 49 bc c6 bd 1a 53 9c 3c
       0.037446383 0.003069563 -0.09703881 0.019082595
000070 ee 6b 31 bd c6 cc e7 3c 8a 7a 2e 3d 77 a1 ab bd
       -0.04331582 0.028295886 0.04259733 -0.08380406
000080 5a ed 83 3d d9 eb ab bd 84 cc 15 3d a5 46 b4 bc
       0.064417556 -0.08394594 0.036571994 -0.022006342
000090 c0 81 a7 3c 03 09 aa bd 79 70 00 be 5b cf c1 bd
       0.020447612 -0.083025 -0.12542905 -0.09463378
0000a0 03 9c 81 bb e0 82 79 3d 04 df 18 bd e5 58 80 3c
       -0.0039553656 0.060915828 -0.03732206 0.015667388
0000b0 7d b1 8f bd 20 e5 93 3d cc 9e 03 bd 61 33 fa bd
       -0.07016275 0.072214365 -0.032133862 -0.12216831
0000c0 b7 f5 34 bd 47 9e 27 bd 7e ec 9b 3d c3 ed f5 bc
       -0.044179644 -0.04092243 0.07613467 -0.0300206
0000d0 28 2d dc bd 3a 67 bb bd 8f be b0 3c a3 f9 73 bc
       -0.107508 -0.09150548 0.02157524 -0.014891061
0000e0 9d f8 c8 3c 56 b9 b4 bd dd 73 58 bd 19 2c 9f 3d
       0.02453261 -0.088244125 -0.05284487 0.07772083
0000f0 cf 51 9a 3a de 22 1a bc 30 c8 8b 3c 07 ab da bd
       0.0011773648 -0.009407727 0.01706323 -0.10677152
000100 18 9c 09 bc a6 ae 82 bd e7 1a 80 3d 63 97 2c bd
       -0.008399032 -0.06380968 0.06255131 -0.04213656
000110 ac c8 5d 3d e5 88 bd bd 6f d8 9c bc 78 0f 29 bd
       0.054146454 -0.09254626 -0.019146172 -0.041274518
000120 f3 d2 6c ba 1e 07 bd bd 13 1c 2b 3d 44 da 96 bd
       -0.00090341194 -0.09229873 0.04177482 -0.073658496
000130 7c 3f de 3c 58 c7 0a bd 2b a2 04 bd f3 3f b0 bd
       0.027129881 -0.033881515 -0.032381218 -0.08605947
000140 d4 bf 34 bd ff ee 00 be cb c1 d6 bd 96 6f a2 bd
       -0.044128254 -0.1259117 -0.10486182 -0.079314396
000150 2a 63 a5 3c 41 9e 4b bc 7c dc 53 bd 61 14 b5 ba
       0.020188887 -0.012427867 -0.051723942 -0.0013815277
000160 9c ee f7 bc 39 06 fa bd bb 84 c4 bc c9 c8 c5 bc
       -0.030265145 -0.12208218 -0.023989072 -0.024143593
000170 13 9f 42 bd 85 fb c4 bb cb 72 06 3d d0 49 e8 bd
       -0.047514986 -0.006011429 0.03282432 -0.113422036
000180 e9 85 7f 3d 1a a9 45 3d ce 94 c4 bd 7e 2d 86 3c
       0.062383566 0.04825697 -0.09598695 0.016379114
000190 c6 b6 c2 bd 05 68 23 3c 5d f1 09 3b e3 c3 c5 bd
       -0.095075175 0.009973531 0.0021048405 -0.09656503
0001a0 b2 55 24 3d 48 76 25 3d 33 c5 67 bd e8 a6 a0 bc
       0.040120788 0.040396005 -0.05658455 -0.019610837
0001b0 47 84 66 bd dd 49 04 be 4b 78 24 bd a9 0a b7 bd
       -0.056278493 -0.12918802 -0.040153783 -0.0893758
0001c0 66 04 8b bd 8a 39 f7 bd b8 f0 fb bc b3 ec 6c 3c
       -0.06787948 -0.120715216 -0.030754432 0.01446073
0001d0 73 0d a7 bd 10 05 44 bc dd 33 3d bc 12 0e 8a bd
       -0.08156862 -0.011964098 -0.01154801 -0.06740965
0001e0 e0 85 a6 bd c9 f0 fb 3c c4 ab 96 bc f7 53 3a bd
       -0.081310034 0.030754464 -0.018392451 -0.04549023
0001f0 b3 4c af bc 9f 9f d1 bb e9 8f 5c bd c6 20 1e 3d
       -0.021398878 -0.006397202 -0.05384818 0.038605474
000200 a9 bc 00 be a8 7c c1 bc 3c b5 48 3d 7c 35 74 3b
       -0.12571968 -0.023619011 0.049000964 0.0037263324
000210 80 69 df 3c e5 f1 77 bd 07 e1 ba 3c 70 56 15 bd
       0.027271986 -0.060533423 0.02281238 -0.036459386
000220 71 5c fb bd e1 0d b0 bd df ce 04 bd 3c 28 d7 bc
       -0.12273491 -0.08596397 -0.03242385 -0.026264302
000230 91 7f 57 3d 80 cd ea bb b8 47 93 3d 3f 76 24 3c
       0.05261189 -0.007165611 0.07191414 0.010037958
000240 79 46 e7 3c b0 5b 57 bd 31 28 55 3d ba 2f cc bd
       0.028231846 -0.052577674 0.052040283 -0.099700406
000250 36 45 9d 3c b1 2b ba 3a 02 57 9e 3d 1f 0f aa 3b
       0.019198041 0.0014203695 0.07731439 0.005189791
000260 95 42 20 3d e7 a8 53 3d 5a d4 c3 bc 36 04 47 3d
       0.039125998 0.05167475 -0.023904968 0.048588
000270 13 df 09 bd 7a 2b 44 bd cc cf a0 bd 94 0c 8b 3b
       -0.033660006 -0.047893025 -0.07852134 0.004243443
000280 5f 58 a5 bd a3 be 60 3c 80 37 54 bd ee c4 bd bd
       -0.08073496 0.013717326 -0.05181074 -0.09266077
000290 6f 64 5a bd 8b eb b7 3b d6 99 b7 bd 16 13 24 bd
       -0.053318437 0.0056127957 -0.08964889 -0.040057264
0002a0 d5 5b 01 be 79 bb 50 3d 39 25 c9 3c 13 84 5d 3c
       -0.12632687 0.050960038 0.024553882 0.0135202585
0002b0 bc 8a 04 3d 49 ad 94 3d d0 e6 48 3b 7b eb 99 3d
       0.03235887 0.07259614 0.0030655153 0.075156175
0002c0 3b a1 be bd 6b 84 0c be 01 0e 7c bd 44 b4 bf bd
       -0.09308096 -0.13722388 -0.061536793 -0.09360555
0002d0 e8 3d 06 bc 4e 78 44 3d ca 83 12 3b a6 7b c7 bd
       -0.008193471 0.047966294 0.0022356384 -0.09740381
0002e0 a0 ab a5 3b 14 d8 92 3c fd 1e 14 bd 69 23 9a 3b
       0.0050558597 0.0179253 -0.036162365 0.0047039283
0002f0 3a 36 94 bc 97 bc 89 bd 65 bf 9b bd 09 d8 41 bd
       -0.018092263 -0.06725424 -0.07604865 -0.047325168
000300 96 83 7d 3d 77 18 44 bc 72 49 34 3c 42 06 aa bd
       0.06189307 -0.0119687235 0.011003839 -0.08301975
000310 23 07 fb bd 7c bc 80 3d 50 75 37 bc cb 84 82 3d
       -0.122572206 0.062859505 -0.011197403 0.063729845
000320 12 2f ab 3d 5c e2 22 bd 81 b8 9f bd bd 50 7a bd
       0.08358587 -0.039766654 -0.07798863 -0.061112154
000330 a0 17 aa bb 26 f8 fd bd 62 2c 41 bc 3e 0b 06 be
       -0.0051908046 -0.12400846 -0.011790367 -0.13090226
000340 34 54 50 bd 6f b9 6e bd 9e 08 a4 bd 11 ef 35 3d
       -0.050861552 -0.058282312 -0.08009456 0.044417445
000350 25 9c 69 bd 91 04 2c bd a3 f8 65 bc a0 e0 87 3d
       -0.057033677 -0.041996542 -0.01403633 0.06634641
000360 78 6d 3e 3d 99 c3 9b bd 5a 9c 70 bd da f1 41 bd
       0.046491116 -0.07605667 -0.05874286 -0.04734979
000370 5d 60 93 3b 05 16 a3 3b a3 0d a1 bb 8b a8 c1 bd
       0.0044975714 0.00497699 -0.0049149557 -0.09455975
000380 e7 6c 3d 3c c7 e3 d7 bd af a6 a0 b9 55 1c ca bb
       0.011561609 -0.10541492 -0.00030641767 -0.006167928
000390 6b ce ce bc 33 5e bb 3c e7 41 02 be 63 5f 31 bd
       -0.025244912 0.022872066 -0.12720452 -0.04330386
0003a0 76 d9 5e bd e5 a5 ec bd 87 6f 8b 3d 2c db f8 bd
       -0.054406606 -0.11555079 0.068083815 -0.12151179
0003b0 d9 e7 58 bd 62 1b 4f bd c3 50 c3 bc a5 e8 77 3d
       -0.052955482 -0.050563224 -0.023842221 0.0605246
0003c0 e2 99 81 3d 5a 8e 06 bd 3b 54 4c 3d d6 c1 75 bd
       0.06328179 -0.0328506 0.049885016 -0.05999931
0003d0 15 d1 b1 bd 00 99 b0 bd 27 1b 57 bc e3 2b c3 bc
       -0.08682457 -0.086229324 -0.013129032 -0.023824638
0003e0 c8 0b 33 bd 21 30 a4 bd c0 0a 03 bd 2e fa 0b 3d
       -0.043712407 -0.08016992 -0.031992674 0.034174137
0003f0 5a 81 84 bd e0 20 99 bd ce d2 8a 3d a8 28 a9 bc
       -0.06469984 -0.074769735 0.06778489 -0.02064927
