models/best_actor.pt (torch, 516706 bytes, 14 tensors)

fc1.weight f4 [400, 8]
0	0xbd83431d	-0.06409285
1	0x3d61d5fa	0.055135705
2	0x3dd5e2e7	0.10443669
3	0x3ca7c019	0.020477341
4	0x3d9e39a0	0.07725835
5	0xbda314b4	-0.07962933
6	0x3c7c26c9	0.0153901065
7	0xbdf92790	-0.12165749
8	0x3c655ba4	0.0139989
9	0xbd9e67da	-0.07734652
10	0xbe0a9997	-0.13535152
11	0xbd960497	-0.07325094
12	0xbd9ceecc	-0.076627344
13	0x3d4466d4	0.047949627
14	0x3c4eaeea	0.012614945
15	0x3c2cacd9	0.010539257
16	0x3b4e72b1	0.0031501467
17	0x3dd20a0e	0.10255824
18	0x3d4ba780	0.049720287
19	0xbdc2e4b0	-0.09516275
20	0xbd8fa07e	-0.07013033
21	0xbdf69f2f	-0.120420806
22	0x3dcc141a	0.099647716
23	0x3db67bc7	0.089103274
24	0xbd00321b	-0.031297784
25	0xbd9b99a8	-0.07597667
26	0x3bf403e3	0.0074467524
27	0xbd4d9db3	-0.05019922
28	0x3d55a8c4	0.0521629
29	0x3d6ff574	0.05858369
30	0xbd99dd78	-0.07512945
31	0xba18fe01	-0.00058361894
32	0xbdd3e4a6	-0.103463456
33	0xbd7db05f	-0.06193578
34	0xbd4df325	-0.05028071
35	0xbd713a23	-0.058893334
36	0x3c4a13b6	0.012333801
37	0x3dcd2834	0.10017434
38	0x39e324a2	0.00043324108
39	0x3d87f146	0.06637816
40	0xbd290df5	-0.041273076
41	0xbdcba94e	-0.09944402
42	0xbd46aa0f	-0.048502024
43	0x3dc94651	0.09827865
44	0xbda5ff63	-0.08105352
45	0xbdae0124	-0.08496311
46	0xbdd9d945	-0.10637144
47	0x3db4267e	0.08796404
48	0xbd25b47b	-0.040455323
49	0x3ceac67c	0.028659098
50	0xbd0ef4ea	-0.034901537
51	0x3dc54222	0.096317545
52	0x3d922fbe	0.07138012
53	0x3c126ed6	0.008937558
54	0xbde59653	-0.11210313
55	0x3d55a69f	0.052160855
56	0x3dfe9eb0	0.12432611
57	0xbd9f947c	-0.07791993
58	0x3d18bdbb	0.037290316
59	0xbdc660af	-0.0968641
60	0xbd2d6134	-0.04232903
61	0xbc6f5a8b	-0.0146089895
62	0x3d2fe31b	0.042941194
63	0xbd83c9c1	-0.06434966
64	0xbd09d6fe	-0.0336523
65	0x3db460c1	0.08807517
66	0x3da91ba5	0.08257226
67	0x3cee92b7	0.029122693
68	0xbd8599c4	-0.06523469
69	0xbc6189f9	-0.013765805
70	0xbcc9e76b	-0.024646481
71	0xbdabc5da	-0.083873466
72	0x3db710d5	0.08938757
73	0xbdc4a14c	-0.096010774
74	0xbdf491a4	-0.11941841
75	0x3d6689cf	0.05628377
76	0x3ca07767	0.019588185
77	0xbd80b1d2	-0.062839165
78	0x3db1df5f	0.08685183
79	0x3dd519dc	0.10405323
80	0x3df4c21b	0.11951085
81	0x3cfffea8	0.03124936
82	0x3d739563	0.05946864
83	0x3bf04ce6	0.0073333858
84	0xbb9b2ea9	-0.004735787
85	0x3df92f1b	0.12167188
86	0x3d490a81	0.049082283
87	0xbc474c45	-0.01216418
88	0x3d0b8006	0.03405764
89	0xbddd9d06	-0.108209655
90	0xbb8b3e41	-0.0042493646
91	0x3d46061c	0.04834567
92	0x3de3bbd8	0.11119813
93	0x3d19bc0f	0.037532862
94	0x3da48170	0.08032501
95	0xbcf9a69b	-0.030474951
96	0x3dce833b	0.10083624
97	0xbd8380a5	-0.06421021
98	0xbd310faa	-0.04322783
99	0x3d814b95	0.06313244
100	0xbbde8f9d	-0.0067920224
101	0x3dd54d66	0.10415153
102	0x3d6c151c	0.05763732
103	0xbd78987a	-0.060692288
104	0x3cab0527	0.02087648
105	0xbd163f04	-0.03668119
106	0x3cecf87e	0.028927084
107	0x3d157f31	0.036498252
108	0x3daebed7	0.085324936
109	0x3d5390c7	0.051651742
110	0x3db18a05	0.08668903
111	0xbd599da1	-0.053128842
112	0x3c81c903	0.01584292
113	0x3df37848	0.11888176
114	0xbd05272e	-0.032508068
115	0xbd0c96f3	-0.034323644
116	0xbd506fb4	-0.05088778
117	0xbddb784f	-0.107163064
118	0xbd7f394c	-0.062310502
119	0xbdae4e12	-0.085109845
120	0x3cc8d312	0.024514709
121	0xbd9df053	-0.07711854
122	0x3d5ad58d	0.053426314
123	0x3dc6e4d9	0.09711618
124	0xbd8210d9	-0.0635087
125	0xbdfa4a82	-0.122212425
126	0xbdd1511c	-0.102205485
127	0xbcb17799	-0.021663474
128	0x3d76ecec	0.06028454
129	0x3daebbc8	0.0853191
130	0x3df3c621	0.119030245
131	0x3db51345	0.08841566
132	0xbd1462f0	-0.036227167
133	0x3c94bb54	0.018155731
134	0xbcd89f5f	-0.026443182
135	0x3db4782f	0.08811986
136	0xbdfcf73b	-0.12351843
137	0xbaee7cfa	-0.0018195205
138	0xbd8d2c3a	-0.06893201
139	0xbd9110b7	-0.07083266
140	0xbc49be15	-0.0123133855
141	0x3dba562d	0.09098468
142	0x3da84627	0.082165055
143	0x3dd47682	0.10374166
144	0xbdea9b8d	-0.1145545
145	0x3d9b22bd	0.07574985
146	0xbdbb7c29	-0.09154541
147	0xbce020b9	-0.027359353
148	0x3cf027a3	0.029315775
149	0xbd05794f	-0.032586392
150	0x3d233f8b	0.03985552
151	0xbca3d5f4	-0.019999482
152	0x3c06218f	0.008186712
153	0xbd5bc146	-0.053651117
154	0x3b942fba	0.004522291
155	0xbc8897fa	-0.01667403
156	0xbde876ca	-0.11350782
157	0x3dc0a504	0.09406474
158	0x3dbf4d3a	0.09340902
159	0x3dad7961	0.08470417
160	0x3cf925fe	0.030413624
161	0xbd734211	-0.059389178
162	0x3d6b73a1	0.05748332
163	0x3dcb40b9	0.09924454
164	0xbcbb08a2	-0.022831265
165	0x3dc9492d	0.0982841
166	0x3d903fae	0.07043396
167	0x3dc28641	0.09498263
168	0x3d47e52d	0.048802543
169	0xbde98075	-0.11401454
170	0x3db91ec2	0.0903907
171	0xba1b815f	-0.00059320586
172	0x3c5000dd	0.012695518
173	0x3d5bdb32	0.053675838
174	0x3d977176	0.07394688
175	0xbcbd061e	-0.023074206
176	0xbcefd279	-0.029275166
177	0x3ce51d18	0.027967975
178	0xbdfdcffc	-0.123931855
179	0x3cb9d860	0.022686183
180	0x3d33eeeb	0.04392902
181	0x3da30225	0.079593934
182	0xbca07153	-0.019585287
183	0x3d3392d6	0.043841206
184	0x3ce6645e	0.02812403
185	0xbd1a672f	-0.03769606
186	0x3d88c0a0	0.06677365
187	0x3d45ecb9	0.04832146
188	0x3da155b1	0.078776725
189	0xbceeab01	-0.029134275
190	0xbc43c6e0	-0.011949271
191	0x3ca577c4	0.02019871
192	0xbdb6e387	-0.08930116
193	0xbda041e3	-0.07825067
194	0x3d62c3e5	0.0553626
195	0xbdc3f083	-0.09567358
196	0xbcb87c2c	-0.022520147
197	0xbb258296	-0.0025254837
198	0xbd45ce68	-0.048292547
199	0x3c4e0ae8	0.012575842
200	0x3dd9e25a	0.10638876
201	0x3dde440e	0.10852824
202	0x3cc47503	0.023981577
203	0xbd814550	-0.063120484
204	0xbdcfd20e	-0.101474866
205	0xbc331007	-0.010929114
206	0xbcdb6f02	-0.026786331
207	0x3d1a52f5	0.03767677
208	0x3d3b6f9c	0.045760736
209	0x3def84f4	0.11695281
210	0x3cdf9438	0.027292356
211	0x3d87777d	0.066145875
212	0xbd013434	-0.031543925
213	0xbd2b75d5	-0.04186042
214	0x3d2a938a	0.04164461
215	0x3c28dcff	0.010306596
216	0x3da047e1	0.0782621
217	0xbd5dcfd5	-0.054153282
218	0x3c394b55	0.011309464
219	0x3dbafc71	0.091301806
220	0x3c95109a	0.018196393
221	0x3dcb21c0	0.09918547
222	0xbd50f33c	-0.051013216
223	0xbd77fc7f	-0.060543533
224	0x3d1d843d	0.03845619
225	0xbc90cf92	-0.017677102
226	0xbde17653	-0.11008897
227	0xbde161db	-0.110049926
228	0xbd5d6520	-0.05405152
229	0x3b69826e	0.003563072
230	0x3dd579a2	0.1042359
231	0xbdb1d13a	-0.08682485
232	0xbd14171b	-0.036154848
233	0xbdc7f0c5	-0.0976272
234	0x3d95b926	0.07310705
235	0x3d14909f	0.036270734
236	0x3d0e9e6d	0.034819055
237	0x39b69cf7	0.00034830693
238	0xbbddd0c4	-0.0067692716
239	0x3dce2eb9	0.100675054
240	0xbc7b23f3	-0.015328395
241	0x3d3d63e9	0.04623786
242	0x3def4f7b	0.116850816
243	0x3ddbdf27	0.10735922
244	0x3d99a238	0.07501644
245	0x3d3427d4	0.043983296
246	0xbd9291a4	-0.07156685
247	0x3d97ebf2	0.0741805
248	0xbde5440c	-0.111946195
249	0x3d01986f	0.031639513
250	0x3da39c2f	0.07988774
251	0xbd7173e8	-0.058948427
252	0xbc99ae07	-0.01875974
253	0xbce92234	-0.028458692
254	0x3d2731f0	0.04081911
255	0xbd487acc	-0.048945233

fc1.bias f4 [400]
0	0x3c237116	0.009975692
1	0x3c238110	0.009979501
2	0x3c2404d6	0.010010919
3	0x3c23e9f9	0.010004514
4	0x3c23c1e4	0.009994958
5	0x3c246691	0.010034219
6	0x3c23b479	0.0099917585
7	0x3c23c2ac	0.009995144
8	0x3c23ec57	0.010005078
9	0x3c23e65d	0.010003653
10	0x3c23a4b8	0.0099880025
11	0x3c236fab	0.009975354
12	0x3c23e828	0.010004081
13	0x3c2447da	0.010026896
14	0x3c24ee3a	0.010066563
15	0x3c23c668	0.009996034
16	0x3c2385c0	0.009980619
17	0x3c23c154	0.0099948235
18	0x3c24979b	0.010045911
19	0x3c24392b	0.0100233955
20	0x3c23dafc	0.01000094
21	0x3c23f3c6	0.010006851
22	0x3c23a61b	0.009988333
23	0x3c236816	0.0099735465
24	0x3c245b20	0.0100314915
25	0x3c23e150	0.010002449
26	0x3c23cc79	0.009997481
27	0x3c23c40f	0.0099954745
28	0x3c23c26a	0.009995082
29	0x3c23ad05	0.009989982
30	0x3c24333c	0.010021981
31	0x3c23c981	0.009996773
32	0x3c240794	0.010011572
33	0x3c240538	0.01001101
34	0x3c23c474	0.009995569
35	0x3c2435ce	0.010022594
36	0x3c24a6d9	0.010049545
37	0x3c240658	0.010011278
38	0x3c23ea74	0.010004628
39	0x3c23a340	0.009987652
40	0x3c23cf57	0.009998164
41	0x3c23aa5b	0.009989346
42	0x3c239c60	0.009986013
43	0x3c23ca3f	0.00999695
44	0x3c23dfc5	0.010002081
45	0x3c23bd87	0.009993917
46	0x3c23d7f8	0.010000221
47	0x3c23e5f2	0.010003554
48	0x3c23b54a	0.009991953
49	0x3c2388cc	0.009981345
50	0x3c23b5f6	0.009992113
51	0x3c23ebc6	0.010004943
52	0x3c2414aa	0.010014692
53	0x3c23f03d	0.010006008
54	0x3c23c2e9	0.009995201
55	0x3c23c79d	0.009996322
56	0x3c23d3df	0.0099992445
57	0x3c23e7c4	0.010003988
58	0x3c23b25a	0.009991253
59	0x3c23c7b0	0.00999634
60	0x3c23c059	0.00999459
61	0x3c239960	0.009985298
62	0x3c247a14	0.010038871
63	0x3c240d66	0.01001296
64	0x3c236a0d	0.009974015
65	0x3c23e5c3	0.01000351
66	0x3c239f47	0.009986705
67	0x3c23be50	0.0099941045
68	0x3c23f7d0	0.010007814
69	0x3c241a18	0.010015987
70	0x3c23d71b	0.010000016
71	0x3c245970	0.010031089
72	0x3c23c1c3	0.009994927
73	0x3c23a656	0.009988388
74	0x3c23ed19	0.010005259
75	0x3c2405f9	0.01001119
76	0x3c24a7fc	0.010049816
77	0x3c2439bb	0.01002353
78	0x3c235eaa	0.0099713
79	0x3c23bfd0	0.009994462
80	0x3c23b51b	0.009991909
81	0x3c242377	0.010018221
82	0x3c23e5de	0.010003535
83	0x3c23d7cb	0.0100001795
84	0x3c23ecc5	0.010005181
85	0x3c23f430	0.010006949
86	0x3c23d38d	0.009999168
87	0x3c23df60	0.010001987
88	0x3c23e070	0.010002241
89	0x3c24bc64	0.010054681
90	0x3c23d92b	0.010000507
91	0x3c23d8d0	0.010000423
92	0x3c23eb64	0.010004852
93	0x3c238441	0.009980262
94	0x3c245cab	0.010031859
95	0x3c23d936	0.010000518
96	0x3c23cc55	0.009997447
97	0x3c23cc80	0.009997487
98	0x3c23dd2c	0.010001462
99	0x3c23ef6a	0.010005811
100	0x3c23df83	0.01000202
101	0x3c23c8de	0.009996621
102	0x3c23c222	0.009995015
103	0x3c23cbea	0.009997347
104	0x3c23765c	0.00997695
105	0x3c23abfb	0.009989734
106	0x3c2406c4	0.010011379
107	0x3c24226f	0.010017975
108	0x3c2404c4	0.010010902
109	0x3c23b9b2	0.009993004
110	0x3c23de77	0.01000177
111	0x3c23efe5	0.010005926
112	0x3c229b86	0.009924775
113	0x3c23c088	0.0099946335
114	0x3c23e429	0.010003128
115	0x3c23c218	0.009995006
116	0x3c23f546	0.010007208
117	0x3c21962e	0.009862466
118	0x3c23e45d	0.0100031765
119	0x3c23386a	0.009962181
120	0x3c23d406	0.009999281
121	0x3c23c12a	0.009994784
122	0x3c23fa15	0.010008355
123	0x3c24d712	0.010061042
124	0x3c240332	0.010010527
125	0x3c23dbca	0.010001132
126	0x3c24003b	0.010009821
127	0x3c24027c	0.010010358
128	0x3c23cd1c	0.009997632
129	0x3c242982	0.010019662
130	0x3c23eb91	0.010004894
131	0x3c237dbe	0.00997871
132	0x3c23c403	0.009995463
133	0x3c23d4ac	0.009999435
134	0x3c23fb89	0.010008701
135	0x3c23fa6d	0.010008437
136	0x3c23c6c0	0.009996116
137	0x3c24295c	0.0100196265
138	0x3c23dacc	0.010000896
139	0x3c235e6d	0.009971243
140	0x3c23e38f	0.010002985
141	0x3c23c3a5	0.009995376
142	0x3c23f7ee	0.0100078415
143	0x3c23f9b7	0.010008267
144	0x3c23e4a0	0.010003239
145	0x3c23c69a	0.009996081
146	0x3c23dd31	0.010001467
147	0x3c23ac36	0.009989789
148	0x3c238a71	0.0099817375
149	0x3c23dcc4	0.010001365
150	0x3c23003d	0.009948787
151	0x3c23ddb4	0.010001589
152	0x3c23ed7c	0.010005351
153	0x3c23d443	0.009999338
154	0x3c23b734	0.0099924095
155	0x3c240973	0.0100120185
156	0x3c2416b2	0.010015177
157	0x3c243631	0.010022686
158	0x3c23e1dd	0.0100025805
159	0x3c23e625	0.010003601
160	0x3c23e36b	0.010002951
161	0x3c23c8f5	0.009996642
162	0x3c23c1f8	0.009994976
163	0x3c23b4b3	0.0099918125
164	0x3c23d9cd	0.010000658
165	0x3c240332	0.010010527
166	0x3c23bc63	0.009993645
167	0x3c23c2d4	0.009995181
168	0x3c23df23	0.01000193
169	0x3c23f399	0.010006809
170	0x3c241daa	0.010016838
171	0x3c24dffd	0.010063169
172	0x3c23d463	0.009999367
173	0x3c23e33a	0.0100029055
174	0x3c23a90d	0.009989035
175	0x3c249579	0.010045403
176	0x3c23746e	0.0099764895
177	0x3c23d54b	0.0099995835
178	0x3c2337f0	0.009962067
179	0x3c23fe98	0.01000943
180	0x3c23ca44	0.009996954
181	0x3c24027b	0.010010357
182	0x3c240380	0.0100106
183	0x3c23d577	0.009999624
184	0x3c23e49c	0.010003235
185	0x3c23b9f0	0.009993061
186	0x3c23a429	0.009987869
187	0x3c23cd6e	0.009997709
188	0x3c23ec10	0.010005012
189	0x3c2320eb	0.009956579
190	0x3c23e35d	0.010002938
191	0x3c2402da	0.0100104455
192	0x3c23b8e6	0.009992814
193	0x3c23ba49	0.009993144
194	0x3c23f128	0.010006227
195	0x3c23df3f	0.0100019565
196	0x3c23e8b8	0.010004215
197	0x3c23e9e9	0.010004499
198	0x3c2423be	0.010018287
199	0x3c241d73	0.010016787
200	0x3c239ee9	0.009986618
201	0x3c241a3f	0.010016023
202	0x3c23ce7b	0.009997959
203	0x3c23d630	0.009999797
204	0x3c2383e7	0.009980178
205	0x3c23c5fc	0.009995934
206	0x3c23af7b	0.009990568
207	0x3c23a738	0.0099885985
208	0x3c23f434	0.010006953
209	0x3c240e81	0.010013224
210	0x3c23db1b	0.010000969
211	0x3c23a6a1	0.009988458
212	0x3c23e2e0	0.010002822
213	0x3c23d289	0.009998926
214	0x3c242e9d	0.010020879
215	0x3c23c1e4	0.009994958
216	0x3c239a97	0.009985588
217	0x3c23d4a5	0.009999429
218	0x3c23c7a7	0.009996331
219	0x3c23d6e8	0.009999968
220	0x3c23cbd5	0.009997328
221	0x3c23a7bf	0.009988724
222	0x3c23d873	0.010000336
223	0x3c23ee0e	0.010005487
224	0x3c23af9e	0.009990601
225	0x3c23dab2	0.0100008715
226	0x3c23d810	0.010000244
227	0x3c23d8bf	0.010000407
228	0x3c23e2f7	0.010002843
229	0x3c23de4b	0.010001729
230	0x3c23ab58	0.009989582
231	0x3c246fab	0.010036389
232	0x3c2441e4	0.010025475
233	0x3c23ee6d	0.010005576
234	0x3c238c5d	0.009982196
235	0x3c23db0a	0.010000953
236	0x3c24322a	0.010021726
237	0x3c243d5d	0.010024396
238	0x3c23c526	0.009995734
239	0x3c23b1e9	0.009991148
240	0x3c23bace	0.009993268
241	0x3c23dd1f	0.01000145
242	0x3c239d70	0.0099862665
243	0x3c23db03	0.010000947
244	0x3c23ed5d	0.010005322
245	0x3c23f7c4	0.010007802
246	0x3c24017b	0.010010119
247	0x3c24154d	0.010014844
248	0x3c23b122	0.009990962
249	0x3c23d443	0.009999338
250	0x3c23aa23	0.009989294
251	0x3c239896	0.00998511
252	0x3c23c67e	0.009996055
253	0x3c23b6df	0.00999233
254	0x3c23bfd0	0.009994462
255	0x3c23cfbe	0.00999826

bn1.weight f4 [400]
0	0x3f7e8fc2	0.99438107
1	0x3f802130	1.0010128
2	0x3f809e31	1.0048276
3	0x3f7dbb5d	0.9911402
4	0x3f7db42f	0.99103063
5	0x3f7f49a4	0.9972174
6	0x3f7e4970	0.99330807
7	0x3f7a9342	0.9788095
8	0x3f7a55c6	0.9778713
9	0x3f7dba6e	0.99112594
10	0x3f803d2b	1.0018667
11	0x3f8189d6	1.0120189
12	0x3f81ba5a	1.0134995
13	0x3f8239ea	1.0173924
14	0x3f816bdb	1.011104
15	0x3f81582f	1.0105036
16	0x3f8002b9	1.0000831
17	0x3f7f0828	0.9962182
18	0x3f7cb3e0	0.9871197
19	0x3f7f50a8	0.99732447
20	0x3f7ef9dd	0.9960001
21	0x3f807a4a	1.003732
22	0x3f7d4228	0.9892907
23	0x3f80556e	1.0026071
24	0x3f7f0506	0.9961704
25	0x3f7f8bb9	0.99822575
26	0x3f7b965f	0.98276323
27	0x3f7f212d	0.9966
28	0x3f8046b7	1.002158
29	0x3f7ff6ee	0.9998616
30	0x3f807fd0	1.0039005
31	0x3f835f9b	1.0263551
32	0x3f7dd1e1	0.99148375
33	0x3f7a1e02	0.9770204
34	0x3f7ce956	0.9879354
35	0x3f80b129	1.0054065
36	0x3f7ff379	0.99980885
37	0x3f7dc371	0.99126345
38	0x3f7f9748	0.9984021
39	0x3f82ac47	1.0208825
40	0x3f7ece8b	0.9953391
41	0x3f80180a	1.0007336
42	0x3f7f0148	0.9961133
43	0x3f7e7619	0.9939895
44	0x3f7ca7a2	0.9869329
45	0x3f803ec7	1.0019158
46	0x3f7df5e4	0.99203324
47	0x3f7d905a	0.9904839
48	0x3f81e836	1.014899
49	0x3f80adef	1.005308
50	0x3f79ea21	0.9762288
51	0x3f7f74d0	0.99787617
52	0x3f7e5f74	0.993644
53	0x3f7b08eb	0.9806048
54	0x3f7d82c5	0.99027663
55	0x3f7e91f8	0.9944148
56	0x3f7e655f	0.9937343
57	0x3f7b1624	0.9808066
58	0x3f801b22	1.000828
59	0x3f7e2a31	0.9928313
60	0x3f80ff51	1.0077916
61	0x3f80fab7	1.0076512
62	0x3f8126e4	1.0089993
63	0x3f7bd49a	0.9837128
64	0x3f80279d	1.0012089
65	0x3f7eb20a	0.99490416
66	0x3f8068e6	1.0032012
67	0x3f7e68ed	0.99378854
68	0x3f7f8e74	0.9982674
69	0x3f82d793	1.0222038
70	0x3f8027ab	1.0012106
71	0x3f825eb2	1.0185149
72	0x3f7ddc55	0.99164325
73	0x3f7a89af	0.9786634
74	0x3f80b6f5	1.0055834
75	0x3f8120e2	1.008816
76	0x3f82ea29	1.022771
77	0x3f80375f	1.0016898
78	0x3f823593	1.01726
79	0x3f7e4739	0.9932743
80	0x3f7d7938	0.9901309
81	0x3f7d3328	0.98906183
82	0x3f803783	1.0016941
83	0x3f7f0895	0.9962247
84	0x3f81f73b	1.0153574
85	0x3f7d36b4	0.98911595
86	0x3f80091a	1.0002778
87	0x3f7ce3b1	0.9878493
88	0x3f8292e3	1.0201076
89	0x3f80ccb7	1.0062474
90	0x3f7ea711	0.99473673
91	0x3f7e9369	0.9944368
92	0x3f7f5954	0.9974568
93	0x3f7f200e	0.99658287
94	0x3f80deb0	1.0067959
95	0x3f81c03a	1.0136788
96	0x3f7e128b	0.99247044
97	0x3f8040d8	1.0019789
98	0x3f7e7b19	0.9940658
99	0x3f842bce	1.0325868
100	0x3f7cf5aa	0.98812354
101	0x3f8199f6	1.012511
102	0x3f7d3e97	0.9892363
103	0x3f7c6b8a	0.9860159
104	0x3f812a17	1.009097
105	0x3f7e78ca	0.9940306
106	0x3f8163f4	1.0108628
107	0x3f7ee479	0.9956737
108	0x3f7d798b	0.99013585
109	0x3f803f26	1.0019271
110	0x3f807d59	1.0038253
111	0x3f8190ef	1.0122355
112	0x3f827f53	1.0195106
113	0x3f808a01	1.0042115
114	0x3f7c4120	0.9853687
115	0x3f8094ec	1.0045447
116	0x3f7e3d5d	0.9931238
117	0x3f81f823	1.015385
118	0x3f7e8fe1	0.9943829
119	0x3f82fb00	1.0232849
120	0x3f813b49	1.0096217
121	0x3f7fada9	0.9987436
122	0x3f7f0c17	0.9962782
123	0x3f83a2ea	1.0284092
124	0x3f81afda	1.0131791
125	0x3f809a76	1.0047138
126	0x3f7e0a1c	0.99234176
127	0x3f7a3b49	0.9774671
128	0x3f7e0de4	0.99239945
129	0x3f8182ed	1.011808
130	0x3f7b74bf	0.98225015
131	0x3f7eed46	0.995808
132	0x3f7ca4b8	0.9868884
133	0x3f8067c5	1.0031668
134	0x3f7dae69	0.99094254
135	0x3f8091aa	1.0044453
136	0x3f7e947a	0.9944531
137	0x3f812385	1.0088965
138	0x3f7eb8dc	0.99500823
139	0x3f809797	1.0046262
140	0x3f7feab6	0.99967515
141	0x3f823c40	1.0174637
142	0x3f78d71a	0.9720322
143	0x3f7f6129	0.9975763
144	0x3f7e5757	0.9935202
145	0x3f8230ae	1.0171106
146	0x3f818909	1.0119945
147	0x3f808210	1.0039692
148	0x3f7fad09	0.99873406
149	0x3f80892f	1.0041865
150	0x3f7eb784	0.9949877
151	0x3f7dbe7d	0.9911879
152	0x3f814fcd	1.0102478
153	0x3f7ee095	0.99561435
154	0x3f7ef3f8	0.99591017
155	0x3f7f7bbf	0.99798197
156	0x3f80fca0	1.0077095
157	0x3f81502a	1.0102589
158	0x3f7bce82	0.9836198
159	0x3f7b4189	0.98146874
160	0x3f7fb658	0.9988761
161	0x3f808f17	1.0043668
162	0x3f7df484	0.99201226
163	0x3f7f6db3	0.9977676
164	0x3f8302ce	1.0235231
165	0x3f81e859	1.0149032
166	0x3f7b8f80	0.9826584
167	0x3f801e7a	1.0009301
168	0x3f80f905	1.0075995
169	0x3f7b98d1	0.98280054
170	0x3f81335c	1.0093799
171	0x3f81e346	1.0147483
172	0x3f7deee3	0.9919264
173	0x3f7d6911	0.98988444
174	0x3f7f7239	0.99783665
175	0x3f815cb2	1.0106413
176	0x3f7f393f	0.99696726
177	0x3f7acf01	0.9797211
178	0x3f815feb	1.0107397
179	0x3f7c9124	0.98658967
180	0x3f7dfcd9	0.9921394
181	0x3f80081f	1.0002478
182	0x3f81fbd9	1.0154983
183	0x3f7cd1b7	0.987575
184	0x3f7e832f	0.9941892
185	0x3f7a4cf3	0.97773665
186	0x3f7efcbf	0.9960441
187	0x3f818913	1.0119957
188	0x3f80a2b6	1.0049655
189	0x3f828bde	1.0198934
190	0x3f7bf5b0	0.98421764
191	0x3f7cbd6e	0.98726547
192	0x3f8205b0	1.0157986
193	0x3f814d97	1.0101804
194	0x3f812c12	1.0091574
195	0x3f8099cb	1.0046934
196	0x3f7c8762	0.9864408
197	0x3f7e146b	0.99249905
198	0x3f81d7c5	1.0143973
199	0x3f81679b	1.0109743
200	0x3f7f3eaa	0.9970499
201	0x3f80f543	1.0074848
202	0x3f807d89	1.003831
203	0x3f7c0eb5	0.9845994
204	0x3f81e47a	1.014785
205	0x3f7e68f4	0.99378896
206	0x3f7ed00e	0.99536216
207	0x3f7d7f1d	0.99022084
208	0x3f7ffbc9	0.9999357
209	0x3f7f9932	0.9984313
210	0x3f8256ce	1.0182741
211	0x3f7cd9bb	0.9876973
212	0x3f7fd588	0.999352
213	0x3f7db79f	0.9910831
214	0x3f80c71e	1.0060766
215	0x3f7bf0be	0.9841422
216	0x3f7fa0eb	0.99854916
217	0x3f7f794e	0.9979447
218	0x3f8046ed	1.0021645
219	0x3f7e30e9	0.9929338
220	0x3f7f188d	0.99646837
221	0x3f7da55b	0.9908044
222	0x3f7f8a7f	0.99820703
223	0x3f7f1193	0.9963619
224	0x3f7d3cdd	0.98920995
225	0x3f7afdae	0.98043334
226	0x3f822adf	1.0169333
227	0x3f8059d7	1.0027417
228	0x3f805d4a	1.002847
229	0x3f7dadb1	0.9909316
230	0x3f805c4f	1.002817
231	0x3f7f1161	0.99635893
232	0x3f810a49	1.0081264
233	0x3f82f6f4	1.0231614
234	0x3f7f08f4	0.99623036
235	0x3f8071ed	1.0034767
236	0x3f800617	1.0001858
237	0x3f816a2e	1.0110528
238	0x3f7fc9a2	0.9991704
239	0x3f800b86	1.0003517
240	0x3f7db3a6	0.99102247
241	0x3f7f2a4e	0.99673927
242	0x3f82183a	1.0163643
243	0x3f81c8a2	1.0139353
244	0x3f78d095	0.9719327
245	0x3f7ec5ec	0.99520755
246	0x3f7e1a7c	0.9925916
247	0x3f7e892e	0.9942807
248	0x3f7c768c	0.9861839
249	0x3f7e6651	0.9937487
250	0x3f7d1351	0.988576
251	0x3f7c7f9a	0.98632205
252	0x3f7b6132	0.98195183
253	0x3f7e6421	0.99371535
254	0x3f7d64d9	0.98982006
255	0x3f8191dd	1.0122639

bn1.bias f4 [400]
0	0x3d149cdc	0.036282405
1	0x3c1e1cdf	0.009650438
2	0x3ca58336	0.020204168
3	0x3c47a79d	0.012185958
4	0x3c1838ee	0.009290917
5	0x3c8033f1	0.015649768
6	0x3c854e90	0.016272813
7	0xbc3920c6	-0.011299318
8	0x3c15673e	0.009118853
9	0x3c7794b4	0.015111137
10	0x3c8c759e	0.017145928
11	0x3cdf52f5	0.027261237
12	0x3cca7196	0.024712365
13	0x3cedabba	0.02901255
14	0x3c8708d8	0.01648371
15	0x3cbe79c8	0.02325143
16	0x3cd170b8	0.025566444
17	0x3bec8d45	0.007218989
18	0x3ac1c890	0.0014784504
19	0x3a3827a4	0.000702495
20	0x3cfbca57	0.030736132
21	0x3bbaf6d8	0.0057056956
22	0x3c45eca2	0.012080343
23	0x3cee3836	0.029079538
24	0x3bc4503a	0.005991009
25	0x3c2f6327	0.010704792
26	0xbb1fba62	-0.0024372567
27	0x3d28483e	0.04108452
28	0x3c632e6f	0.013866051
29	0x3b018d78	0.001976816
30	0x3ce6c8c3	0.028171903
31	0x3c9b7c26	0.018980097
32	0x3c7f6d7e	0.01559007
33	0x3a8b8241	0.0010643677
34	0x3babe9d3	0.00524638
35	0x3ce04714	0.027377643
36	0x3c3391c7	0.010960049
37	0x3c015689	0.007894167
38	0x3cbb29e0	0.022847116
39	0x3cc51d99	0.024061965
40	0x3c3331c8	0.010937162
41	0x3c85fff7	0.016357405
42	0x3b840f74	0.0040301625
43	0x3bbd683b	0.0057802475
44	0xbb3c6d8e	-0.0028751823
45	0x3c41ab42	0.011820616
46	0x3c4a8b72	0.012362348
47	0x3b1c993c	0.0023895046
48	0x3c5836e0	0.013196677
49	0x3c948639	0.018130409
50	0xbc3ce2bb	-0.011528666
51	0xbb4c1727	-0.003114173
52	0x3ced7230	0.028985113
53	0x3bb0352c	0.0053774323
54	0x3bffbf76	0.0078048063
55	0x3cd2e5b1	0.025744291
56	0x3cc62185	0.024185905
57	0xbb61069f	-0.0034336222
58	0x3c680e36	0.014163544
59	0x3b452f20	0.0030087903
60	0x3c9bc958	0.019016907
61	0x3c791358	0.015202366
62	0x3c9adb5c	0.018903427
63	0x3bae77da	0.005324346
64	0x3c14c203	0.009079459
65	0x3c158d48	0.009127922
66	0x3c4cf21e	0.012508897
67	0x3bb98c8d	0.005662507
68	0x3c13b780	0.009015918
69	0x3cc61b1f	0.024182854
70	0x3cb704c6	0.022341143
71	0x3cb16d75	0.021658638
72	0x3bbbfec8	0.0057371594
73	0xbafef4d4	-0.0019451627
74	0x3d063786	0.032767795
75	0x3cc435c0	0.023951411
76	0x3c68d2bd	0.0142104
77	0x3cbaa88a	0.022785444
78	0x3c531629	0.012883701
79	0x3c51fb28	0.012816228
80	0x3b9a08c7	0.0047007534
81	0x3b9626eb	0.004582276
82	0x3c995f00	0.018722057
83	0x3b6bf6f5	0.0036005352
84	0x3d1f3e4b	0.038877767
85	0x3c5c0189	0.0134281
86	0x3c58cd37	0.013232521
87	0x3c8a27b5	0.016864637
88	0x3c1a3f25	0.009414469
89	0xbb44f1c0	-0.003005132
90	0x3bf10832	0.0073557133
91	0x3c7be6ec	0.01537488
92	0x3c07435c	0.008255806
93	0x3ab8516b	0.001406235
94	0x3c5a63fa	0.0133295
95	0x3c957fd0	0.018249422
96	0x3c295646	0.010335511
97	0x3d0abf42	0.033873804
98	0x3c662c45	0.014048641
99	0x3d386886	0.045021556
100	0x3bceb240	0.00630787
101	0x3cbc30b2	0.022972438
102	0x3c9c9f36	0.019118886
103	0xb9f30e56	-0.00046359253
104	0x3c7041d1	0.014664129
105	0x3bcad52f	0.0061899642
106	0x3bc64ec2	0.006051869
107	0x3c365816	0.0111294
108	0x3c42e351	0.011895017
109	0x3c764535	0.015031149
110	0x3b7055f5	0.0036672328
111	0x3cb3828e	0.02191284
112	0x3c3947f2	0.011308657
113	0x3cb1eadb	0.021718433
114	0x3c0be315	0.008538027
115	0x3c3d638a	0.0115593765
116	0x3ca01ea8	0.019545868
117	0x3c6fd454	0.014638025
118	0x3b9dc545	0.004814776
119	0x3c9ed11c	0.01938682
120	0x3b10b672	0.0022081402
121	0x3c89bb72	0.016813014
122	0x3c3698de	0.011144845
123	0x3cba5354	0.022744812
124	0x3d3a20b0	0.04544133
125	0x3d30b9f5	0.043146092
126	0x3c921d85	0.017836342
127	0x3bee1fbb	0.007266966
128	0x3cb86163	0.022507375
129	0x3ca172b5	0.019708017
130	0xbb6104ed	-0.0034335211
131	0x3b1a472d	0.002354096
132	0x3c0a1eb8	0.0084301755
133	0x3cd01b72	0.025403712
134	0x3c1ee9fb	0.00969934
135	0x3cd4ab25	0.025960514
136	0x3c595d70	0.013266906
137	0x3d11d871	0.035606805
138	0x3d2e21ed	0.042512823
139	0x3caf75c9	0.021418469
140	0x3bae2795	0.005314777
141	0x3d0fa1e6	0.035066508
142	0xbc9c0644	-0.019045956
143	0x3c58f02d	0.013240856
144	0x3bd4f239	0.0064986018
145	0x3d3c71a5	0.046006817
146	0x3b6d156a	0.0036176094
147	0x3c94030a	0.018067855
148	0x3c78745e	0.015164463
149	0x3c8fd027	0.01755531
150	0x3cbe6e13	0.023245847
151	0x3c01a9f8	0.007914059
152	0x3c7b12fb	0.0153243495
153	0x3c0996d9	0.008397781
154	0x3c788f91	0.015170948
155	0x3c0e601a	0.008689905
156	0x3cbe8930	0.023258775
157	0x3c3c5f50	0.011497334
158	0x3c7e901e	0.01553729
159	0x3b2af168	0.002608383
160	0x3caf418f	0.021393565
161	0x3c0ec95a	0.008714998
162	0x3bfd4c2f	0.007730029
163	0x3c958683	0.018252617
164	0x3d297ace	0.04137688
165	0x3ca27764	0.01983232
166	0x3c340f94	0.010990042
167	0x3ccb1678	0.024790987
168	0x3c108d9b	0.008822824
169	0xbb3aa1fa	-0.0028477893
170	0x3c808509	0.015688436
171	0x3c1d66eb	0.009607057
172	0x3c20d968	0.009817459
173	0x3c553e54	0.013015348
174	0x3c272a11	0.0102029005
175	0x3bbdc06f	0.005790762
176	0x3cc25d83	0.02372623
177	0x3bd34aa8	0.0064481087
178	0x3cd81fa8	0.026382282
179	0xbc1f2b77	-0.009714953
180	0x3b13a659	0.002252957
181	0x3c4a60b2	0.0123521555
182	0x3ca63263	0.020287698
183	0x3b07c3ee	0.0020716148
184	0x3c5f6a6f	0.013636216
185	0xbafc91ea	-0.001926956
186	0x3c570a84	0.013125066
187	0x3c04d98a	0.008108506
188	0x3bd03c7a	0.0063548656
189	0x3c84c638	0.0162078
190	0xbb879983	-0.004138173
191	0xb8f1b556	-0.00011525552
192	0x3d0f2bf6	0.034954034
193	0x3cb8c203	0.02255345
194	0x3cee129e	0.029061612
195	0x3ca3afb0	0.019981235
196	0x3bf4ea13	0.007474193
197	0x3a265c8a	0.0006346187
198	0x3d3dd7f5	0.04634853
199	0x3c484e22	0.01222566
200	0x3ce4bb84	0.027921446
201	0x3cf2c057	0.02963273
202	0x3c6f0054	0.014587481
203	0xbbdd1ce5	-0.0067478293
204	0x3c8c2b2a	0.017110426
205	0x3b634b55	0.0034682353
206	0x3c5d423c	0.013504561
207	0x3b940218	0.004516851
208	0x3bf551bf	0.0074865515
209	0x3bc95d51	0.0061451574
210	0x3d18bb69	0.037288103
211	0x3a2a2265	0.00064901105
212	0x3c7edafc	0.01555514
213	0x3c0fa8e0	0.00876829
214	0x3cc8eabe	0.024525996
215	0xbb93a94c	-0.0045062657
216	0x3c3b89e9	0.011446455
217	0x3c7dedbb	0.015498574
218	0x3c89a9a8	0.016804531
219	0x3cd9f62b	0.02660664
220	0x3c94b457	0.018152399
221	0x3c62e994	0.013849635
222	0x3beffa23	0.00732352
223	0x3c057559	0.008145654
224	0x3ba28141	0.004959256
225	0xbc055048	-0.008136816
226	0x3d2749dc	0.040841922
227	0x3c415454	0.011799891
228	0x3c7da9af	0.01548235
229	0x3c83c406	0.016084682
230	0x3c3a3f49	0.011367627
231	0x3b3e9468	0.0029080156
232	0x3c52b2cd	0.012860012
233	0x3c9a289a	0.018818188
234	0x3d058445	0.032596845
235	0x3bd4383d	0.0064764307
236	0x3ce1b783	0.027553326
237	0x3c7ebceb	0.015547971
238	0xbb65c3c6	-0.0035059317
239	0xb9e78dd9	-0.00044165438
240	0x3bee3f6f	0.0072707455
241	0x3cac6d8e	0.021048333
242	0x3b806b3e	0.0039190343
243	0x3c9e94da	0.019358087
244	0xbc787b4b	-0.015166114
245	0x3c40be5f	0.011764138
246	0x3b751ce2	0.0037401249
247	0x3b86bff1	0.0041122367
248	0xba62fdc5	-0.00086590304
249	0x3c58a676	0.013223281
250	0x3c1fb4d6	0.0097477045
251	0xbc737b6e	-0.014860971
252	0x3b7ef0fa	0.0038900957
253	0x3c57314b	0.013134311
254	0x3aba31a4	0.0014205468
255	0x3c45f605	0.012082581

bn1.running_mean f4 [400]
0	0x3c70539e	0.014668373
1	0x3c1d336a	0.009594778
2	0x3c21fef9	0.00988745
3	0x3c70dbcd	0.014700842
4	0x3c71a7b5	0.014749457
5	0x3b30724e	0.00269236
6	0x3c189a85	0.009314184
7	0x3c186719	0.009301924
8	0x3c2e599c	0.010641482
9	0x3ab121ee	0.001351414
10	0x3c002e6d	0.007823569
11	0x3c109f9b	0.008827115
12	0x3ba84403	0.0051350608
13	0x3c2a1376	0.010380616
14	0x3c3d0a77	0.01153814
15	0x3b4f3431	0.0031616802
16	0x3b8a9f9f	0.004230454
17	0x3c6ad242	0.014332356
18	0x3c7684c1	0.015046299
19	0x3bc6b8b0	0.006064497
20	0x3b50a14d	0.0031834424
21	0x3c0b0ac1	0.008486451
22	0x3c348908	0.011018999
23	0x3c0c0495	0.008546014
24	0x3c7de8df	0.015497415
25	0x3c0079de	0.007841555
26	0x3bb6290e	0.0055590933
27	0x3bd1ad30	0.0063988194
28	0x3c4384f2	0.011933552
29	0x3c072449	0.008248397
30	0x3c0f8172	0.0087588895
31	0x3c8140be	0.015777942
32	0x3c5cf5af	0.01348631
33	0x3c790f52	0.015201407
34	0x3c323029	0.01087574
35	0x3c709a0c	0.014685165
36	0x3c0f91f7	0.008762828
37	0x3bf5d7bc	0.007502524
38	0x3c5333cb	0.012890766
39	0x39bba731	0.00035791987
40	0x3c39a84a	0.011331627
41	0x3bd99d8e	0.0066410964
42	0x3bfd6b67	0.0077337506
43	0x3c4d8f49	0.012546369
44	0x3c3d0096	0.011535784
45	0x3c28a9d1	0.010294394
46	0x3b892a04	0.004185917
47	0x3c6101dc	0.0137333535
48	0x3b8f4256	0.0043719215
49	0x3c7a8764	0.015291069
50	0x3c5f357a	0.01362359
51	0x3bf46d69	0.007459332
52	0x3b9e973f	0.0048398073
53	0x3c2dadee	0.01060055
54	0x3c566946	0.013086623
55	0x3c027c27	0.007964171
56	0x3c381ddb	0.011237587
57	0x3c3b0fa9	0.011417308
58	0x3c5039b9	0.012709075
59	0x3c5dadd1	0.013530211
60	0x3bfc3e32	0.007697844
61	0x3b4a5a11	0.0030876438
62	0x3c577147	0.013149566
63	0x3c7c1837	0.015386633
64	0x3c5164e4	0.012780402
65	0x3c8a9941	0.01691878
66	0x3c5f8d5a	0.013644541
67	0x3c3e1b20	0.011603147
68	0x3c3058e9	0.010763385
69	0x3b62fd18	0.003463572
70	0x3c114140	0.0088656545
71	0x3c188f72	0.009311544
72	0x3b3f572a	0.002919624
73	0x3c082b11	0.008311049
74	0x3c101e99	0.008796358
75	0x3bfb7960	0.007674381
76	0x3c5feb31	0.013666914
77	0x3c5aa931	0.013346002
78	0x3c88d302	0.016702179
79	0x3be775fa	0.0070636244
80	0x3c63eb1c	0.013911035
81	0x3c9a9f91	0.018874915
82	0x3c348ca0	0.011019856
83	0x3c494ddc	0.0122866295
84	0x3b04cb16	0.002026265
85	0x3c1c2e56	0.009532532
86	0x3ba30b53	0.004975715
87	0x3c5da2ba	0.013527567
88	0x3cac8252	0.021058235
89	0x3c805f07	0.015670313
90	0x3c048163	0.008087489
91	0x3bc0e94f	0.0058871876
92	0x3bdb1f05	0.0066870474
93	0x3c6566d8	0.014001571
94	0x3c5917ce	0.013250304
95	0x3c7126c9	0.01471872
96	0x3ca4b51f	0.020105897
97	0x3c71fece	0.014770223
98	0x3c5972e4	0.013272021
99	0x3b8cd753	0.0042981296
100	0x3c522821	0.01282695
101	0x3b8e8106	0.004348877
102	0x3b267895	0.0025401462
103	0x3c3d7510	0.011563554
104	0x3ca40be2	0.020025197
105	0x3c4e67b4	0.012597967
106	0x3c46ca20	0.012133151
107	0x3c32bb5f	0.010908931
108	0x3bfbff59	0.007690352
109	0x3c20373e	0.009778796
110	0x3c759890	0.014989987
111	0x3c34eff5	0.011043538
112	0x3c6a51b1	0.014301703
113	0x3c53a1be	0.01291698
114	0x3c44a20f	0.012001528
115	0x3b904819	0.004403126
116	0x3b384b8b	0.00281212
117	0x3c556a82	0.013025882
118	0x3c26e532	0.01018648
119	0x3c542169	0.012947419
120	0x3c3f6e77	0.011684052
121	0x3bdab4ac	0.00667437
122	0x3c1ecc42	0.009692254
123	0x3c4d4f6b	0.012531142
124	0x3bfe11d8	0.007753592
125	0x3b5b6ad4	0.0033480423
126	0x3c0a5354	0.008442719
127	0x3c60daca	0.013724038
128	0x3c0a5964	0.008444164
129	0x3c8e23c6	0.017351042
130	0x3c12eb62	0.008967252
131	0x3bf43fa1	0.007453874
132	0x3c2e0a97	0.010622642
133	0x3c10bf3b	0.008834655
134	0x3c2d8b2f	0.010592266
135	0x3c0c71b1	0.008572028
136	0x3c020e66	0.007938003
137	0x3aef52cd	0.001825893
138	0x3b0ea64a	0.0021766596
139	0x3c55d989	0.013052353
140	0x3b22ba54	0.0024830298
141	0x3c0e203f	0.00867468
142	0x3c87f137	0.016594512
143	0x3c73e8ae	0.014887018
144	0x3c16e3ad	0.009209556
145	0x3be2ab48	0.006917391
146	0x3c00312a	0.007824222
147	0x3b0d458e	0.002155635
148	0x3c40c603	0.01176596
149	0x3c466fb4	0.012111593
150	0x3c5f4ecf	0.013629629
151	0x3c79a03a	0.015235955
152	0x3c75d9a6	0.015005505
153	0x3bfab9fb	0.007651565
154	0x3c1908d2	0.009340482
155	0x3c7a74da	0.015286649
156	0x3c40fb6f	0.011778696
157	0x3bbdd948	0.005793724
158	0x3b9d0e90	0.0047929958
159	0x3c55eac4	0.013056461
160	0x3c0bd252	0.008534031
161	0x3b8aec48	0.0042395927
162	0x3c1afc1e	0.0094595235
163	0x3bf39619	0.0074336645
164	0x3bcecdcb	0.0063111535
165	0x3c52a6ef	0.012857183
166	0x3c22d32b	0.009938042
167	0x3ba5e18f	0.005062289
168	0x3c10c910	0.008837
169	0x3b6c1df5	0.0036028598
170	0x3bf1e83b	0.0073824204
171	0x3c741bca	0.014899204
172	0x3c2999dc	0.010351624
173	0x3bd96425	0.0066342526
174	0x3c6ae7d9	0.014337503
175	0x3befbbc1	0.007316083
176	0x3c1c80a4	0.009552155
177	0x3bfe8d27	0.0077682915
178	0x3c29b912	0.010359066
179	0x3bd5995e	0.006518527
180	0x3c30246c	0.010750871
181	0x3c1c98ec	0.009557944
182	0x3c3d67c6	0.011560386
183	0x3c5be2b8	0.013420753
184	0x3bd55787	0.006510678
185	0x3b28233f	0.0025655774
186	0x3c6986df	0.014253347
187	0x3be41eac	0.006961664
188	0x3c150d04	0.009097341
189	0x3c659857	0.014013371
190	0x3c101a0e	0.008795274
191	0x3c827e37	0.015929325
192	0x3bd7b6c6	0.0065830676
193	0x3bd09b2b	0.0063661537
194	0x3bff41eb	0.0077898405
195	0x3a5a52ee	0.00083283975
196	0x3c58f734	0.013242532
197	0x3be08944	0.006852301
198	0x3b8f5421	0.0043740426
199	0x3bea9a92	0.0071595395
200	0x3c361503	0.011113408
201	0x3bae85d0	0.0053260103
202	0x3c3f235f	0.011666148
203	0x3c5030a5	0.01270691
204	0x3c079811	0.008276002
205	0x3c0c3b01	0.0085589895
206	0x3b83824f	0.0040133367
207	0x3c538cc2	0.012911977
208	0x395f6684	0.00021305127
209	0x3c8b988c	0.017040513
210	0x3b17e57a	0.002317755
211	0x3bc73027	0.0060787383
212	0x3bd55298	0.00651009
213	0x3c77183e	0.015081463
214	0x3c887830	0.016658872
215	0x3c3631c3	0.011120263
216	0x3c04c54c	0.00810368
217	0x3ba4d74b	0.0050305477
218	0x3c6a4391	0.014298336
219	0x3c0fa661	0.008767695
220	0x3c848da7	0.016180826
221	0x3c53fd63	0.01293883
222	0x3c0f160f	0.0087332865
223	0x3c4719e1	0.012152166
224	0x3c48b25f	0.012249558
225	0x3c3f7e2d	0.0116877975
226	0x3c4bfd10	0.0124504715
227	0x3bdd859b	0.006760312
228	0x3bc65768	0.0060529
229	0x3c641924	0.01392201
230	0x3c055463	0.008137795
231	0x3b1cbd7b	0.002391665
232	0x3c14ad04	0.009074453
233	0x3c9df1b6	0.019280296
234	0x3c57e413	0.013176936
235	0x3be5e7ec	0.0070161726
236	0x3c24d1a4	0.010059748
237	0x3bafc076	0.0053635193
238	0x3c512a29	0.012766399
239	0x3bd12c4b	0.006383454
240	0x3c062084	0.008186463
241	0x3c72fbc7	0.014830536
242	0x3c36cb4c	0.011156868
243	0x3beeaf32	0.0072840685
244	0x3bb79fde	0.0056037745
245	0x3c68811b	0.014190937
246	0x3b9252a7	0.0044654193
247	0x3c8c7ed7	0.017150326
248	0x3c13ed97	0.009028814
249	0x3c46f9eb	0.012144546
250	0x3c653ce2	0.013991566
251	0x3c03ff1d	0.008056429
252	0x3bc6db58	0.0060686283
253	0x3bec16e4	0.007204877
254	0x3bacd83a	0.0052747997
255	0x3c809c70	0.015699595

bn1.running_var f4 [400]
0	0x3c1b0d01	0.00946355
1	0x3beeb088	0.0072842278
2	0x3c13fd63	0.00903258
3	0x3b7508f5	0.0037389372
4	0x3bd801d0	0.006592013
5	0x3c253244	0.010082785
6	0x3bbf3286	0.0058348803
7	0x3be2bd23	0.0069195195
8	0x3bab4fd5	0.0052280226
9	0x3c2e019e	0.010620503
10	0x3bd97962	0.0066367844
11	0x3bbb35a4	0.0057131816
12	0x3bd3448a	0.0064473795
13	0x3b886717	0.00416268
14	0x3bf9d0a9	0.007623751
15	0x3c0f3ad6	0.008742055
16	0x3bf6e553	0.007534662
17	0x3c1e4aa8	0.009661354
18	0x3bb5b18b	0.0055448464
19	0x3c0b19f8	0.008490078
20	0x3c0a07e2	0.008424731
21	0x3bc11178	0.005891975
22	0x3bb8b9ff	0.005637407
23	0x3b494f76	0.0030717528
24	0x3ba24c3e	0.0049529364
25	0x3bd576ec	0.0065144207
26	0x3b8a20bf	0.0042153294
27	0x3ba947aa	0.0051660137
28	0x3c074d25	0.008258139
29	0x3ba78808	0.0051126517
30	0x3c03ee31	0.008052395
31	0x3ba9129f	0.0051596905
32	0x3bf34d98	0.0074250214
33	0x3c0d133d	0.008610544
34	0x3bfc8b5e	0.0077070436
35	0x3ba01976	0.0048858477
36	0x3bba84f7	0.00569212
37	0x3c116334	0.0088737495
38	0x3b7f147a	0.0038922117
39	0x3c130b70	0.008974895
40	0x3bcd8141	0.006271512
41	0x3bd3a412	0.0064587677
42	0x3b32a7b5	0.0027260606
43	0x3b869936	0.0041076196
44	0x3bc887d1	0.006119706
45	0x3c3479ac	0.011015337
46	0x3bb28ffd	0.0054492936
47	0x3c2046b4	0.009782482
48	0x3b98ae2b	0.0046594343
49	0x3bb5292c	0.0055285897
50	0x3b8e6cbf	0.0043464596
51	0x3bfd29e5	0.0077259415
52	0x3c1ee68a	0.0096985195
53	0x3bd4f776	0.006499226
54	0x3c17611a	0.009239459
55	0x3c03a048	0.0080338195
56	0x3c372fdd	0.011180845
57	0x3b867a90	0.004103966
58	0x3bfc8883	0.007706703
59	0x3b8de8be	0.0043307235
60	0x3c248a41	0.010042728
61	0x3c05d6ef	0.00816892
62	0x3b9afd6f	0.0047299187
63	0x3c05779b	0.008146192
64	0x3be1cf24	0.006891148
65	0x3bc70018	0.006073009
66	0x3c1726bc	0.009225544
67	0x3c247480	0.010037541
68	0x3b951d0b	0.0045505813
69	0x3bdf7531	0.00681939
70	0x3ae405a3	0.0017396699
71	0x3bb8eafa	0.0056432458
72	0x3bd98a7c	0.006638823
73	0x3bf2e710	0.0074127987
74	0x3c322c15	0.010874768
75	0x3ba3e357	0.0050014663
76	0x3c072648	0.008248873
77	0x3c13f7ae	0.009031219
78	0x3c2d05a6	0.010560429
79	0x3bc54f86	0.006021443
80	0x3c13fa18	0.009031795
81	0x3c1141dc	0.0088658
82	0x3c13b973	0.0090163825
83	0x3bc2e4bd	0.005947678
84	0x3c2a8a8d	0.01040901
85	0x3bdb06dc	0.0066841673
86	0x3bcf9f7c	0.0063361507
87	0x3bbd5bed	0.0057787807
88	0x3c249791	0.010045902
89	0x3b76461e	0.0037578414
90	0x3c1425f8	0.009042256
91	0x3b504120	0.0031777099
92	0x3bbcc694	0.005760977
93	0x3bbe3611	0.005804785
94	0x3bc0b953	0.0058814674
95	0x3c2d5b0a	0.010580787
96	0x3c431b03	0.011908296
97	0x3be85a8d	0.0070908726
98	0x3ba0b3b8	0.0049042366
99	0x3bbd8c12	0.00578452
100	0x3c0beefa	0.008540863
101	0x3c02356a	0.007947305
102	0x3c4d068a	0.012513766
103	0x3bb0c986	0.005395117
104	0x3c1b101e	0.009464292
105	0x3bb50a84	0.005524935
106	0x3bc52232	0.0060160393
107	0x3bdf771c	0.006819619
108	0x3bebe98b	0.0071994714
109	0x3b8114cc	0.0039392468
110	0x3bc3bf96	0.0059737666
111	0x3bc19a61	0.005908296
112	0x3ba34f83	0.004983844
113	0x3c43655b	0.0119260205
114	0x3ba412b8	0.0050071143
115	0x3b7a2f1a	0.0038175047
116	0x3c494fb6	0.012287071
117	0x3b791635	0.0038007621
118	0x3bbb3137	0.005712654
119	0x3c45bb1f	0.012068539
120	0x3bfec1eb	0.0077745817
121	0x3bd5affa	0.006521222
122	0x3bc00812	0.005860337
123	0x3be6df02	0.0070456276
124	0x3bdf6d5b	0.006818456
125	0x3bef41f2	0.0073015625
126	0x3c14da50	0.009085253
127	0x3c177b3a	0.009245688
128	0x3bd766ab	0.0065735183
129	0x3bba2d72	0.005681687
130	0x3c134268	0.008988
131	0x3b9cdb17	0.0047868597
132	0x3c1020d8	0.008796893
133	0x3b3db7ea	0.0028948733
134	0x3c34ddff	0.011039256
135	0x3bd65433	0.006540799
136	0x3c2330b8	0.009960346
137	0x3bceb126	0.006307739
138	0x3bee3e2a	0.007270594
139	0x3b670f6f	0.0035257002
140	0x3c2d61aa	0.010582367
141	0x3b60dc3f	0.0034310964
142	0x3c1ccebf	0.0095707765
143	0x3bb05467	0.0053811553
144	0x3bd0d3d5	0.0063729086
145	0x3b8a1122	0.004213468
146	0x3bf095db	0.007342083
147	0x3c07b651	0.008283214
148	0x3b7f3b62	0.0038945307
149	0x3bf7804d	0.0075531364
150	0x3b39afb9	0.0028333499
151	0x3bd3a4f6	0.006458874
152	0x3b5ecb4f	0.0033995693
153	0x3bc40a00	0.0059826374
154	0x3b9c8420	0.0047764927
155	0x3bf8bfb8	0.007591214
156	0x3bdc4d6c	0.0067230966
157	0x3bbf7d1d	0.005843772
158	0x3c19840e	0.009369863
159	0x3c379d4c	0.011206936
160	0x3bea5f70	0.0071524903
161	0x3c0baa2c	0.008524459
162	0x3c04cbf8	0.008105271
163	0x3bccbf31	0.0062483777
164	0x3b8a4b6d	0.0042204172
165	0x3bca68a8	0.006177027
166	0x3bc4ea77	0.0060093957
167	0x3c0777fe	0.008268354
168	0x3c02b9a2	0.007978829
169	0x3c120346	0.008911913
170	0x3bcfb43b	0.006338624
171	0x3be7f450	0.007078685
172	0x3bdd8b4d	0.0067609907
173	0x3c00ba15	0.007856865
174	0x3c1edf18	0.009696744
175	0x3bf78d37	0.007554676
176	0x3b3c87fa	0.0028767572
177	0x3c189db0	0.009314939
178	0x3af384bb	0.0018578985
179	0x3bb42316	0.0054973466
180	0x3c2728b3	0.010202575
181	0x3c1fc6aa	0.009751955
182	0x3c38e3bd	0.011284766
183	0x3c1280cd	0.008941841
184	0x3c260fd0	0.010135606
185	0x3c06e696	0.008233687
186	0x3bab3158	0.005224388
187	0x3be9bb97	0.007132958
188	0x3bc96d30	0.0061470494
189	0x3b9394e0	0.0045038313
190	0x3be8ca90	0.0071042255
191	0x3b9593e7	0.0045647505
192	0x3c0e37ff	0.008680343
193	0x3bfc133a	0.0076927217
194	0x3c014a09	0.0078911865
195	0x3c1e1b4f	0.009650066
196	0x3b67a3fd	0.0035345547
197	0x3c157ddd	0.009124246
198	0x3c13287a	0.008981818
199	0x3c0551a2	0.008137139
200	0x3b5a7fc6	0.003334032
201	0x3bf941e7	0.007606733
202	0x3bf33354	0.0074218903
203	0x3bf328d6	0.0074206395
204	0x3bf5d1fb	0.0075018383
205	0x3bf69e33	0.007526183
206	0x3b94e5a6	0.004543978
207	0x3c1a05a0	0.009400755
208	0x3c218b36	0.009859851
209	0x3b5f2d09	0.0034053943
210	0x3c483514	0.012219686
211	0x3ba82467	0.0051312926
212	0x3c1400de	0.00903341
213	0x3bb47fb3	0.005508387
214	0x3c2eb0b7	0.010662249
215	0x3c152ae2	0.009104462
216	0x3bb6d669	0.005579759
217	0x3c1f5344	0.009724442
218	0x3b853bab	0.004065951
219	0x3c1f8c82	0.0097380895
220	0x3c09b7a3	0.008405599
221	0x3bd8e035	0.0066185244
222	0x3c4b23d9	0.0123986835
223	0x3c154352	0.009110289
224	0x3baacbf0	0.0052122995
225	0x3b97325c	0.0046141576
226	0x3ba21992	0.004946896
227	0x3bb6137b	0.0055565215
228	0x3b824c21	0.0039763604
229	0x3be1fdd7	0.006896715
230	0x3be4d3ba	0.0069832476
231	0x3c048ed7	0.008090696
232	0x3bcaf552	0.0061937952
233	0x3c576694	0.013147015
234	0x3b807fd8	0.00392149
235	0x3b45d969	0.00301894
236	0x3b8daeb8	0.0043238066
237	0x3be4df50	0.0069846287
238	0x3c21ba63	0.009871098
239	0x3bd9a5d4	0.0066420827
240	0x3bc4707a	0.0059948536
241	0x3bf2f6f2	0.007414692
242	0x3bc9f8b3	0.0061636805
243	0x3bb87e79	0.005630311
244	0x3bdacaf4	0.006677026
245	0x3bd95c07	0.006633285
246	0x3b76fcef	0.0037687381
247	0x3bdb8034	0.0066986326
248	0x3c0db1aa	0.008648315
249	0x3bd12daf	0.0063836197
250	0x3c06d51a	0.008229518
251	0x3bf0d118	0.0073491447
252	0x3c0448da	0.00807401
253	0x3b91c00e	0.0044479435
254	0x3c07bc2e	0.008284612
255	0x3bb2d108	0.0054570474

fc2.weight f4 [300, 400]
0	0x3d2a4def	0.04157823
1	0x3d8e1c5e	0.06939004
2	0xbb0bca10	-0.0021330155
3	0x3d7d7c1c	0.061885938
4	0xbd8f0b62	-0.06984593
5	0xbcce86df	-0.025210796
6	0xbbb74028	-0.005592365
7	0xbd9c78b2	-0.07640208
8	0x3d83f26c	0.06442723
9	0x3d794eaf	0.060866054
10	0xbda86a81	-0.08223439
11	0x3d33ed6c	0.043927595
12	0x3ce20491	0.027590068
13	0xbd0c341f	-0.034229394
14	0x3b6906dc	0.0035557067
15	0xbdaa6306	-0.083196685
16	0x3d8c6654	0.06855455
17	0x3c0810b0	0.00830476
18	0xbc3c5ed3	-0.011497217
19	0x3d18e674	0.037329152
20	0x3c7b4166	0.015335416
21	0xbdc1724d	-0.09445629
22	0x3c877b27	0.016538216
23	0x3cb9b2e8	0.022668317
24	0x3c8af5ae	0.016962852
25	0xbd2adf8d	-0.0417171
26	0x3ce74aeb	0.028233966
27	0x3d739346	0.059466623
28	0x3d81c67f	0.06336688
29	0x3d4d88f5	0.05017944
30	0xbcd188ef	-0.02557799
31	0xbd07d41d	-0.03316127
32	0xbc1c8f5a	-0.009555662
33	0xbcd681eb	-0.026184997
34	0xbda48453	-0.08033051
35	0xbd1bad4c	-0.038007066
36	0x3dd969a3	0.10615852
37	0x3cbd549f	0.02311164
38	0xbd15ede1	-0.036603812
39	0xbd9dbd72	-0.077021495
40	0x3d74f364	0.059802428
41	0xbd423e58	-0.047422737
42	0xbd071b12	-0.0329848
43	0xbbab6a66	-0.0052311895
44	0xbd3db266	-0.046312712
45	0xbaa21008	-0.0012364397
46	0xbd0c7eb8	-0.034300536
47	0xbd1e361d	-0.038625825
48	0x3cdde163	0.027085012
49	0xbd669e83	-0.056303512
50	0xbd08e931	-0.033425514
51	0xbc0a653a	-0.008446986
52	0xbd5e0792	-0.05420644
53	0x3d928e71	0.07156075
54	0x3d9c46f9	0.076307245
55	0xba9372e3	-0.0011249449
56	0x3d31fb7a	0.043452717
57	0x3d9239da	0.071399406
58	0xbd48f2b2	-0.049059577
59	0xbc95f17a	-0.018303622
60	0x3da92131	0.08258284
61	0x3ca52b93	0.02016238
62	0xbce156ae	-0.027507152
63	0x3d9896ea	0.074506596
64	0x3cb23e61	0.02175826
65	0xbdadc85d	-0.08485482
66	0xbd94db50	-0.07268393
67	0xbdad3c62	-0.08458783
68	0x3d57dcdf	0.052700873
69	0x3d9497f2	0.07255544
70	0x3cb02614	0.021502532
71	0x3d35273f	0.04422688
72	0xbdb42852	-0.08796753
73	0xbd542f7b	-0.051803093
74	0x3bbbb9b5	0.005728925
75	0x3d7b6613	0.061376642
76	0xbd6ee924	-0.05832781
77	0x3b2e22cb	0.0026571031
78	0x3cd5dd5e	0.026106533
79	0xbd9000a5	-0.07031373
80	0x3d8b8de0	0.0681417
81	0xbc529608	-0.012853153
82	0xbcde7ecb	-0.027160069
83	0x3c3baa5a	0.011454189
84	0xbd4116bb	-0.047140818
85	0xbdcf2d1d	-0.101160266
86	0xbd82342d	-0.06357608
87	0xbd4a4b5b	-0.04938827
88	0x3cce524c	0.025185727
89	0x3d882e6e	0.06649481
90	0xbda47a44	-0.08031133
91	0x3bcd3be0	0.006263241
92	0xbd11f02f	-0.035629448
93	0x3d6966b4	0.05698271
94	0xbd93f6ba	-0.07224794
95	0xbd516a35	-0.051126678
96	0xbcb4d525	-0.022074291
97	0xbbabf994	-0.005248258
98	0xbdb0ebea	-0.08638747
99	0xbcc8376f	-0.024440495
100	0xbd941cf0	-0.07232082
101	0xbd5fe5fb	-0.054662686
102	0x3dcc6414	0.09980026
103	0x3d6e218f	0.058137473
104	0x3d31389b	0.043266874
105	0xbdb1ebd0	-0.08687556
106	0xbce71c63	-0.028211778
107	0xbada2e9c	-0.0016645971
108	0x3d95b778	0.073103845
109	0xbac1b194	-0.0014777654
110	0x3d0b36c0	0.03398776
111	0x3d643ee3	0.055724036
112	0x3d831651	0.06400741
113	0xbd0e1645	-0.034689207
114	0x3c0cdd9f	0.00859776
115	0xbb816151	-0.0039483686
116	0x3d44d478	0.04805419
117	0x3db6c00f	0.08923351
118	0xbdc1f629	-0.094707794
119	0xbd8a3241	-0.067478664
120	0xbd8e3040	-0.06942797
121	0xbd5aecef	-0.053448614
122	0x3d3d950b	0.046284717
123	0x3d088909	0.033333812
124	0xbd5768ff	-0.052590366
125	0x3da5645a	0.08075781
126	0xbc350dc5	-0.011050646
127	0xbc394607	-0.0113082
128	0xbdadcb67	-0.084860615
129	0xbdaabc63	-0.08336713
130	0xbd6b952f	-0.05751532
131	0x3ce0706d	0.027397359
132	0x3d93cdb3	0.072169684
133	0x3d3c37df	0.04595172
134	0xbd2d3652	-0.042288132
135	0xbc122cb8	-0.008921795
136	0x3cc0283d	0.023456687
137	0x3bc2a1a0	0.0059396774
138	0xbb809762	-0.0039242962
139	0x3d822c74	0.06356135
140	0x3cbf2919	0.023335027
141	0xbc95355c	-0.01821392
142	0xbd33cce8	-0.043896586
143	0xbd2cec85	-0.04221775
144	0x3da0994a	0.078417376
145	0xbd5f529f	-0.054522153
146	0xbd7be723	-0.061499726
147	0x3cf6315a	0.03005283
148	0xbcb7063f	-0.022341846
149	0x3cd98f3d	0.02655756
150	0xbd810080	-0.062989235
151	0xbcffd3bf	-0.031228898
152	0x3d55b5f4	0.052175477
153	0xbd6404dc	-0.055668697
154	0xbda4fd92	-0.08056177
155	0x3d8288f6	0.063737795
156	0x3d66c8e3	0.056343924
157	0x3c384f68	0.011249401
158	0xbdaa2f59	-0.08309812
159	0x3d90b2b7	0.07065337
160	0x3b77d0a4	0.0037813568
161	0x3d725c98	0.059170336
162	0xbda407a6	-0.08009271
163	0x3b3ef0fe	0.0029135342
164	0xbd34d369	-0.04414693
165	0x3d84551c	0.06461546
166	0xbcbfce06	-0.02341367
167	0xbd02634e	-0.031832986
168	0xbda0dfcf	-0.07855188
169	0xbd7f5e7a	-0.06234596
170	0xbd0ababe	-0.033869497
171	0xbc94be8a	-0.018157262
172	0xbb19c603	-0.0023463971
173	0x3d47e763	0.048804652
174	0xbd445765	-0.04793491
175	0xbdd0109a	-0.101594165
176	0xbc94648d	-0.018114353
177	0x3d253a49	0.04033879
178	0xbcdbb0ae	-0.026817646
179	0x3cd6033c	0.02612459
180	0xbd99b94e	-0.07506047
181	0xbd4e4162	-0.050355323
182	0xbbdd50b2	-0.0067540044
183	0x3c159c84	0.0091315545
184	0x3bdb369d	0.00668986
185	0xbdb05a20	-0.0861094
186	0x3da22677	0.07917493
187	0xbd9be93b	-0.076128446
188	0xbd63088c	-0.055428073
189	0xbd54e562	-0.05197657
190	0x3cea248f	0.028581886
191	0xbd40ae2d	-0.047041107
192	0xbd1f8259	-0.03894267
193	0x3bad4524	0.005287783
194	0xbdb91fc9	-0.09039266
195	0xbdaab6f2	-0.08335675
196	0x3d730940	0.059334993
197	0xbd324f14	-0.043532446
198	0xbd4c5012	-0.04988105
199	0xbd816fd3	-0.06320157
200	0xbdaaaa4e	-0.08333264
201	0x3d8300fc	0.06396672
202	0x3da5b280	0.08090687
203	0xbd7e5fd9	-0.062103126
204	0xbc28c71f	-0.01030138
205	0x3da471a1	0.080294855
206	0xbd851a58	-0.06499165
207	0xbd0e5e50	-0.034757912
208	0xbcb53804	-0.022121437
209	0x3d91db5d	0.07121918
210	0xbd8e4c0f	-0.06948101
211	0xbd92119b	-0.07132264
212	0x3c0f2934	0.008737851
213	0x3ccf0195	0.025269309
214	0xbd25fef4	-0.040526345
215	0xbd687e09	-0.05676082
216	0x3d1dcaf2	0.03852362
217	0xbd612d2c	-0.05497472
218	0x3c6d3062	0.014476867
219	0x3cf0a4ba	0.029375423
220	0x3ca5cfd2	0.020240698
221	0x3c2f4241	0.0106969485
222	0x3c9b3a9b	0.018948844
223	0xbd3394ee	-0.043843202
224	0xbd1d2010	-0.038360655
225	0x3d318c81	0.043346886
226	0x3ca52f10	0.020164043
227	0x3cd2db69	0.025739389
228	0xbd37897e	-0.044808857
229	0x3d88478c	0.066542715
230	0xbd48b7c0	-0.049003363
231	0x3d89d5f8	0.067302644
232	0xbd508d92	-0.050916262
233	0x3da07433	0.07834663
234	0x3d08752e	0.033314876
235	0x3cd5404c	0.026031636
236	0xbd4dc9ff	-0.050241467
237	0x3be9668b	0.00712282
238	0x3d563529	0.05229679
239	0xbd42398a	-0.047418155
240	0x3d50a5ec	0.050939485
241	0xbdaf456f	-0.08558165
242	0xbd5ab99d	-0.05339967
243	0xbdae75ca	-0.0851856
244	0xbc8c2953	-0.017109549
245	0x3b0533d4	0.0020325081
246	0xbd753e62	-0.059873946
247	0x3cdcc70b	0.02695038
248	0x3d33d1c2	0.043901213
249	0xba5e5f51	-0.0008482831
250	0xbda2f129	-0.07956154
251	0x3b31a734	0.0027107717
252	0xbc33a0ed	-0.010963661
253	0x3d91ccf2	0.07119168
254	0x3cb36202	0.02189732
255	0xbce029f3	-0.027363753
