models/best_ppo.pt (torch, 504969 bytes, 8 tensors)

log_std f4 [4]
00000000: 7e65 33bb 216d 85bc 8e17 5dbc ceca a33a
-0.0027373726 -0.016287388 -0.013494385 0.0012496354

shared.0.weight f4 [400, 8]
00000000: 1a9b 9e3e 6397 a73e 9274 dfbd 7115 ba3e
00000010: 726c aebd d302 cc3d 473e 5cbe 2e21 7a3e
00000020: c62e aa3e bc17 96be 6e1f ac3e 9b73 bf3d
00000030: 5059 8f3e 5d92 373d bdb7 343e b998 75bd
00000040: 9db2 983e bc4a 6d3d 4150 32be 1cbe e03d
00000050: c84e 26be f719 3bbd 31df 2fbe 253b 723e
00000060: 4550 95be 35a1 3abe bfe0 eabd 57fa 52be
00000070: 978b 463d a2cc babe 8f40 a23e 5ee5 aabe
00000080: c360 993e d441 a33d 5f67 0fbe 0d6e 843e
00000090: 8fc2 af3d 997d ae3e f5de 5b3c 9163 11be
000000a0: 6745 ca3d 64ee dabd abf6 1d3e 83c6 b33e
000000b0: 24bb 6a3e 8f8c 1dbe cfd9 4a3e 7046 583d
000000c0: 6417 403e 89c9 73be 27ad bebe da13 00be
000000d0: ced6 8dbe d6ee 9e3e 8194 be3d c75b 133e
000000e0: b0d7 003e 856d 36bc b581 933e f412 77be
000000f0: 779e 173d 8d85 75be 7549 bc3d 0879 0dbe
00000100: 3e1d 023e db65 bcbd 5423 a63e f96c 58be
00000110: d404 67be e7d6 68be 8cc1 ad3e 6c99 f13d
00000120: f4dd c53e f4a2 a8be 6dae bebe 77fb 95be
00000130: fdb2 8abe e3fa 2e3e 3092 173e d83d a23e
00000140: 755d 3bbe 2d89 88be 3d02 4a3e f7f1 06be
00000150: 4581 733e 5839 9dbd b5bb 4a3e 662d 9ebe
00000160: 6560 38be 59eb d43d 892d 963d 91b9 93bd
00000170: f860 6b3e d0d4 883e 5b69 8ebe 5742 57be
00000180: efa8 b53e e954 03be fbc8 12be fab0 c3be
00000190: d10f 5dbe 6572 d03d 04f7 8cbd 0d14 97be
000001a0: 4741 713c b197 8fbe ac4a a9be 5d5a 59be
000001b0: 7bd2 afbe 7804 88be 9bf5 c73e a436 853d
000001c0: f14a ef3d 7dc2 b5be 6c8a 7fbe fbdc dcbd
000001d0: d37d a13d d3a7 acbe e46c 39be f0cd 74be
000001e0: 526f 2a3c 7e5b 0ebe 3cd3 ecbc 2911 73be
000001f0: 73fb 79be 7d46 55be 2cbe 12be 75c2 9dbe
00000200: b98e a33e abfd 9bbd a8a2 ab3e 66d0 093e
00000210: 9a29 9fbe 9c09 8b3e 9c06 f8bd 66ce 1bbe
00000220: 0284 9dbe 48d0 c3be 9ce2 dc3d 2598 75bd
00000230: d3db 1d3e bc2d 9dbe 2f18 893e a605 96be
00000240: f0a7 92bd 7b50 c93d 523d 503e a367 a93e
00000250: bb40 bc3e 0781 a7be 518e b93d 5fb4 40be
00000260: e4fa 1fbd 4e5a 9cbe cba9 b43e b5e0 92be
00000270: 5c2e 5e3e bd9c 193e 684c f23d 2bbd 64be
00000280: 4493 ba3e 34bf c13d 65d1 843d 59a3 aebe
00000290: 2bd7 2a3e d041 68bd 7279 46be 91f8 a73e
000002a0: ce0d a93d cff2 5ebe 3bb3 50be dcac 553a
000002b0: 4e95 693e 1155 c2bd dfc4 6bbe 4d0c 19be
000002c0: d129 90be 4daa fe3d f88e 9b3e cbe2 b4be
000002d0: c7ee cf3d 375b 5d3e a3c7 4a3d 085b 17be
000002e0: 7729 5a3e 7c3b 693e d79d 283e 8a74 9bbd
000002f0: 2fc1 f5bd 9605 983d 7cf6 bdbd 2845 05be
00000300: ba78 8a3e 23ba b13e 2bf5 32bd 0d08 a0bd
00000310: d7ab a13c 43c7 09bd ba5b b23d 74b0 ed3d
00000320: 5a07 bbbe e5ca 2bbe e90f a83e 90c0 373e
00000330: 2c2f c6ba 6001 73be 9d65 84be cae8 b8be
00000340: 0861 00be f539 0a3e cd4b 843e cedb 4a3e
00000350: 5def b1be 7c9e 7dbe 979f 6bbd 880d c13e
00000360: 2b30 603d e433 c9bd 5493 1b3e 4c42 eebd
00000370: 0dc7 5dbe 3577 903e 124d 39be 3a57 aebd
00000380: 89c6 c1be 1b6a 873e 026c 983e 37af 1f3e
00000390: 96ef 92be e1a8 c8be ea18 a2be 31c7 963e
000003a0: 9d2b 373e 288c a23e 9645 463e 889c e83d
000003b0: a1e6 743c 2b1c 99be ea6a afbe 4912 bbbe
000003c0: 17b9 3a3e f376 5abe b503 b3bd 0859 6dbe
000003d0: 6d5a 87bd f68b 98be 0d64 8dbe de18 fc3d
000003e0: 0f8d ffbd d68f 803e e21f 1abe 36ec 94be
000003f0: 1089 61bd 8ed8 4dbe 21f6 16be afb0 c7be
0.30977708 0.32732686 -0.10910906 0.36344483 -0.08516778 0.09961476 -0.21508132 0.2442672
0.3323881 -0.29314983 0.3361773 0.09348222 0.27997828 0.044817317 0.17648216 -0.0599601
0.2982377 0.0579326 -0.17413427 0.109737605 -0.1624099 -0.04567906 -0.17174985 0.23655374
-0.29162803 -0.18225558 -0.11468648 -0.2060331 0.048472967 -0.36484247 0.3168988 -0.33378118
0.29956636 0.0797154 -0.14004277 0.25865212 0.08582031 0.34080198 0.013419856 -0.14198138
0.09876519 -0.10690001 0.15426128 0.3511239 0.22922951 -0.1538565 0.1980965 0.05280155
0.18758923 -0.23807348 -0.3724148 -0.12507573 -0.27702945 0.31041592 0.093056686 0.14390479
0.12582278 -0.01113451 0.28809896 -0.24128324 0.03701636 -0.23976727 0.09193698 -0.13815701
0.12706468 -0.09199115 0.32448828 -0.2113532 -0.22560436 -0.22738229 0.33936727 0.11796841
0.386459 -0.32936823 -0.3724245 -0.29293415 -0.27089682 0.17087893 0.1480186 0.31687808
-0.1829737 -0.26667157 0.19727416 -0.1317824 0.23779781 -0.07676953 0.19798167 -0.3089401
-0.18005522 0.103964515 0.07332904 -0.07213128 0.2298621 0.26724863 -0.27814755 -0.210214
0.3548045 -0.1282536 -0.1433448 -0.3822096 -0.21588065 0.10178069 -0.06883052 -0.29507485
0.014725036 -0.2804542 -0.33064783 -0.21225877 -0.3434027 -0.2656591 0.3905457 0.065045625
0.11684216 -0.35499945 -0.24955148 -0.10784336 0.07885327 -0.3372179 -0.18107945 -0.23906684
0.010402517 -0.13902089 -0.028909318 -0.23737015 -0.24412327 -0.2082767 -0.14330357 -0.3081242
0.31944826 -0.07616743 0.33522534 0.13458404 -0.31086427 0.2715577 -0.12110636 -0.15215454
-0.30764776 -0.38244843 0.1078541 -0.05995955 0.15415888 -0.30698955 0.26776263 -0.29301184
-0.07160938 0.098298036 0.20335892 0.3308688 0.36768135 -0.32715628 0.09060348 -0.18818806
-0.039057627 -0.30537647 0.35285792 -0.28687063 0.21697372 0.15001197 0.118309796 -0.22337787
0.3644048 0.09460297 0.06485251 -0.34109 0.16683643 -0.05670339 -0.19382265 0.3280683
0.08254586 -0.21772312 -0.20380871 0.0008151063 0.22810861 -0.094888814 -0.23024319 -0.14946099
-0.28156903 0.12434826 0.30382514 -0.3532928 0.10152965 0.21616827 0.049506795 -0.1478082
0.2130488 0.22776598 0.16466461 -0.075905874 -0.119997375 0.074229404 -0.09275529 -0.13014662
0.27045232 0.34712324 -0.04369084 -0.078140356 0.01973526 -0.033637296 0.08708902 0.116059214
-0.36529046 -0.16776617 0.32824638 0.1794455 -0.001512026 -0.23730993 -0.25858775 -0.36115104
-0.12537014 0.13498671 0.2583908 0.19810411 -0.34752932 -0.24767488 -0.057525244 0.37705636
0.054733437 -0.098243505 0.1519292 -0.11633739 -0.21657963 0.28215948 -0.18095806 -0.08512731
-0.37846783 0.2644814 0.29769903 0.15594183 -0.28698415 -0.39191344 -0.31659633 0.29448846
0.17887731 0.31747556 0.19362482 0.11357981 0.014947564 -0.29904303 -0.34261256 -0.36537388
0.18234669 -0.21334438 -0.087409414 -0.23178494 -0.06609044 -0.29794282 -0.27615395 0.123094305
-0.12478077 0.25109738 -0.15051225 -0.29086465 -0.055062354 -0.2010214 -0.14742328 -0.39001986

shared.0.bias f4 [400]
00000000: 61a2 61be c01e 463e 6a98 833e 6906 bd3e
00000010: 4bb5 91be 5bb9 c13e cbb8 a53e 2c66 cf3e
00000020: 4622 743e b535 fbbd 5391 a83e ff5c c23e
00000030: eabc bcbd 8599 31bb 964a ac3e 58cb ad3e
00000040: 3b55 963e 8a8c a93e 1245 febd a62e 2abc
00000050: 7017 ccbd 389a 793e ce6a 0d3e 1d38 6fbe
00000060: 3661 8d3b 181e 6dbe e567 93be dbaa c23e
00000070: 9876 febd 17ee 573e d006 adbc 1f83 71bc
00000080: de6c 5f3d 8851 aa3e 53d6 d83b d5e2 ae3e
00000090: 3354 863e 8656 973e 8eaa 8dbe 6577 ebbd
000000a0: d625 72be 822c e3bc 6e46 7cbc 8b83 033e
000000b0: 5412 bf3e 9491 603e 80bc 49be 842d 37be
000000c0: 839d a53e 48c8 a43d f3e7 223e ea89 03be
000000d0: 16cc ea3b 2d3f 203e 8461 4cbe ac20 943e
000000e0: 22ef 693e 50a2 22be bdad c3bd a879 f9bc
000000f0: 3903 e63d 8610 9ebd d820 c83e 01d5 96be
00000100: 7329 17be 01a9 24be 2592 193e e374 e03d
00000110: 0f2d 30bd b982 b73e 7098 82be 261b 353e
00000120: 77b6 14be 5e17 0abd 4be9 99be d012 63be
00000130: 2a64 85be 4a5e 5a3e 4326 94bd 4060 7a3e
00000140: 81a7 06be 1bc5 28bd fc9d d53d bde9 b53e
00000150: 923c 34bd 2728 853e e29d 1d3e 978e 8d3e
00000160: ecce 8f3e f6e3 4f3e 59a3 47bd b0c0 4cbd
00000170: e348 4a3e 5ce1 803e 0aa4 0d3d 0b94 6c3e
00000180: c474 28be 89dc 833e 7eed 7cbb f8cf 44be
00000190: 6a47 f1bd 6c3a 6dbe 3d59 013e 8f3b 2bbe
000001a0: 5308 40bd a8b2 f53c eb23 2ebe 4f6f 8e3d
000001b0: e61f 463c b99d 2f3e 8c40 a13e 4d27 30be
000001c0: 323c 813e c9de 4d3d 2968 1dbe c1f0 d5bd
000001d0: 2c96 163e 4a62 003e f0ba 333d 6934 01be
000001e0: ed87 703e 77e6 d33d 19a4 98be 56fb 96bb
000001f0: f7d4 19bd 5710 c6bd 3036 1ebe 0d9c 6dbe
00000200: 28c5 ce3e 93ea 86be 530c c63e 20b8 72be
00000210: a7c6 2dbd ca98 b7bd e0d0 06be 1ca9 373e
00000220: c5e9 873e 5427 44be 2976 dcbd f801 743e
00000230: ee02 0b3c f574 143e e837 783e 7c3a a3bd
00000240: 7f35 18be f371 403e f304 b9bd 64f1 39be
00000250: 9ecf 06be 830f e7bd 23cf d23e 570e e83d
00000260: d599 573e 5aba db3d 6e2c 45be 6166 a13e
00000270: 67b8 d1bb 3585 17bd ee19 b23e 1e5c ffbd
00000280: 68d8 023e 9503 82be 0fb6 763e 6692 3d3e
00000290: 4de7 7ebe eddb 813e 743e c83d 85c9 02be
000002a0: 6b84 b43e 35dd 573e 3e7a 3a3e 0c9d b2bd
000002b0: 8c0c 0cbe 6ed0 0cbe aaad 453e 1a75 183e
000002c0: db34 2dbe 80fa c23e 5db1 873e c240 a3bd
000002d0: 607f 763e c88e c1bd b899 2d3e e0fc b33e
000002e0: 9002 87be 61eb 09be 1b67 113d 5ac5 da3d
000002f0: df6c 7fbe 00b1 35be 49e5 cb3c 4d03 153c
00000300: 70cb 013e 48a7 c83d dec0 073e 08f9 8c3d
00000310: ece3 b53d d99d 093d 0eb5 323e aa88 973e
00000320: 9d0a 03be edf1 03be ba14 593e 0873 57be
00000330: 3c6e 933e 306e 623e 2535 d13d cbb7 cabd
00000340: a710 7d3d fe28 6cbe 9dc2 8cbe 7b6c c83e
00000350: 828c 8fbe a327 7cbe 9503 abbd 04f0 953d
00000360: 510e 0e3e e4af f2bd 39cb a53c 779e d1bc
00000370: aed0 b53e 697d bb3e 935e 493e 6815 493d
00000380: 53e2 a53e 5e60 75be 9409 4f3e 8ea7 1abe
00000390: 343e a83e 1709 8abe 49bb 3e3e d87c 83be
000003a0: b515 883e 7a1c f63d 801b b53e acfb 5abe
000003b0: 1043 933e 814d 3fbe c704 15be e95d 483e
000003c0: c5a5 06bc 0620 6bbe fc13 7dbe f4c5 0cbd
000003d0: e05d 1d3e 8f1b bd3e f394 a33e 804a 853d
000003e0: c300 38be 4a96 8cbe 7ef5 bc3e a4fe 1ebe
000003f0: ec90 e5bb f2b8 81be e476 48be 50cf f73d
-0.22034599 0.19347668 0.2570222 0.36918953 -0.28458628 0.37836727 0.32367548 0.40507638
0.238412 -0.12266103 0.32923374 0.37961575 -0.0921572 -0.0027099561 0.33650655 0.339442
0.293619 0.33115035 -0.12415518 -0.010387098 -0.09965408 0.24375236 0.13810274 -0.2336125
0.004314567 -0.23156011 -0.28790203 0.38020977 -0.12424964 0.21086918 -0.021121413 -0.014740734
0.054547183 0.33265328 0.0066173463 0.34157434 0.26236114 0.295582 -0.27669185 -0.11497382
-0.23647246 -0.027731184 -0.015397651 0.12843148 0.3731867 0.21930534 -0.19700813 -0.17888457
0.32346734 0.08046013 0.15908794 -0.12845579 0.007165442 0.156491 -0.19959074 0.28931177
0.22845128 -0.1588223 -0.09554622 -0.030453518 0.112310834 -0.07717995 0.39087558 -0.29459384
-0.14761905 -0.16080095 0.14997156 0.10959794 -0.04301172 0.3584192 -0.25506926 0.17686138
-0.1452273 -0.03371369 -0.300608 -0.22175145 -0.26052982 0.21325031 -0.0723386 0.24450779
-0.13149835 -0.0412036 0.10430524 0.3552989 -0.044003077 0.26007196 0.15392259 0.2764785
0.28087556 0.20301804 -0.048739765 -0.04998845 0.19754367 0.25171936 0.034580268 0.23103349
-0.16450793 0.25754192 -0.0038593705 -0.19219959 -0.11781199 -0.23166817 0.12631698 -0.16721939
-0.04688294 0.029992417 -0.17005889 0.06954824 0.012092566 0.1715001 0.31494558 -0.17202492
0.25241238 0.050261293 -0.15371765 -0.10446311 0.14705724 0.12537494 0.04387945 -0.12617649
0.23489352 0.10346692 -0.29812697 -0.0046075983 -0.037556615 -0.09671085 -0.15450358 -0.2320406
0.40384793 -0.2635084 0.38681278 -0.2370305 -0.042425778 -0.08964689 -0.13165617 0.17935604
0.2654554 -0.19155627 -0.10764725 0.23828876 0.008484585 0.1449774 0.24240077 -0.079701394
-0.14864157 0.18793468 -0.09034147 -0.1815849 -0.13165137 -0.112822555 0.41173658 0.1133086
0.21054776 0.10728903 -0.1925523 0.3152342 -0.0064001563 -0.03699227 0.34785408 -0.12468742
0.12777865 -0.25393358 0.24092887 0.18512878 -0.24892922 0.25363103 0.09777537 -0.12772186
0.35257277 0.21080478 0.18210694 -0.087213606 -0.13676661 -0.13751385 0.19304529 0.1488842
-0.16914694 0.3808174 0.26502505 -0.07971336 0.24072027 -0.094510615 0.1695317 0.35153866
-0.26369143 -0.13468696 0.03549872 0.10682173 -0.24943875 -0.17743301 0.024889605 0.009095025
0.12675261 0.09797531 0.13257167 0.068834364 0.08881363 0.0335978 0.1745188 0.29596454
-0.12797017 -0.12885256 0.21199313 -0.21039975 0.2879504 0.22112346 0.10215215 -0.09898337
0.06178346 -0.23062512 -0.27492228 0.39145264 -0.28036886 -0.24624495 -0.083502926 0.0732117
0.13872649 -0.11849955 0.020238506 -0.025588257 0.35510772 0.36619118 0.19664983 0.04909268
0.32399234 -0.23962542 0.20218498 -0.1510298 0.32859957 -0.2696006 0.18626131 -0.25681186
0.2657906 0.1201715 0.35372543 -0.21385068 0.28762102 -0.18681909 -0.14552604 0.19567074
-0.0082182335 -0.22961435 -0.24714655 -0.03436847 0.15367842 0.36935088 0.31949577 0.0650835
-0.1796904 -0.2745841 0.36906046 -0.15526825 -0.0070058014 -0.25336415 -0.19576603 0.121000886

shared.2.weight f4 [300, 400]
00000000: 5171 fa3c a8d0 17bd 41ac bb3c 5231 0abd
00000010: f165 1fbc 5551 febc 3513 0c3d 0214 e83c
00000020: 61c2 75bb 1f7c 85bb df19 ccbc edc5 09bd
00000030: 27f7 bdbc a98b 483c 4c76 84bc 79ba dc3c
00000040: e116 393a 2396 b0bb 8745 14bd 4324 723c
00000050: 6a48 55bd 44c3 913b 7738 423c 8022 b23b
00000060: 60b3 003d beb7 db3b 3587 95bc 7400 2cbd
00000070: bd1a 53bd 3743 9c3c 6f9f b03c e059 35bd
00000080: 5612 073c d2e4 cdbc 0029 1b3d e3da c5bc
00000090: 062d 0c3d 392d e93c b30d 003d 01a8 f03c
000000a0: 713e 263c 8f4c 403c 46f4 4bbd d2e5 8dbc
000000b0: 40fe 54bc 6ec7 8b3c 11f0 c4bc a7a7 983c
000000c0: 8a12 dd3c 5a3a 883c 23b9 a03c f70d 24bc
000000d0: e4fd 903c 31c3 b9bc 0ae8 2f3d 1181 ffbb
000000e0: 7927 1abc 2868 42bd 064b 273d 8f20 66bc
000000f0: e76e f63c 5ea5 1cbd 0049 48bd 3a10 e7bb
00000100: 12f3 31bd 4af8 c13b eb1f abbb f8b5 ccbc
00000110: d0ec c73c 7e96 d33c 6950 4abd ea6f 40bd
00000120: 7269 cf3c b22c 0fbd 8fed d73b 26dc 9ebc
00000130: 9ad2 703b 21d1 0cbd 414e 9cbb 2ac4 cabc
00000140: 40af dabc c49f f0bc 5617 a73b 1737 d23c
00000150: b8de 09bc d6ca febb 9201 0d3d c020 073d
00000160: e13f 62bc 7cb1 41bd b0ec 043c 703c 153c
00000170: f080 3cbd 0fda 52bd 82e9 aab8 ee12 2b3d
00000180: aac5 48bd 8845 fcbc 7587 bdbc a610 47bd
00000190: f56d 1abd c5a6 1e3d d7b6 fd3c 8e0f 1cbd
000001a0: f7b1 e9bb caa2 40bd d175 763c f8dd 25bd
000001b0: 78a0 01bd d3fb e9bc dd58 233a 0291 053d
000001c0: 911b debc 181d 0e3b bc83 103d 766d 0abc
000001d0: 47d6 e139 dc57 08bb 0ffa 06bc f9bf eb3c
000001e0: 3b65 a43c 4734 02bd 0454 3b3d eb9a ba3c
000001f0: ae02 57bc b665 113d e642 d1ba dd44 e03c
00000200: 1193 48bd cb05 243d cbca 243d 0d27 0fbd
00000210: 76c4 51bd df63 8ebc 85b4 14bd aaae e13b
00000220: bf30 7a3c a864 09bc 597f fb3c dc64 9fbb
00000230: 5cf1 97bc 54cf 4dbd ad0d 1d3c 7068 59bd
00000240: 865c f2bb d875 e93a 9fe4 ffbc bf29 153c
00000250: cc7d 583b 3366 043d 15ad c63c 2891 41bd
00000260: 626e 32bd 603e c7bc 80ba 26bd 823f 113c
00000270: 3d17 1dbd 4c84 37bd d266 ea3b 7254 d23c
00000280: 893e adbc cc63 46bd bdc3 b139 f386 a03c
00000290: d3f2 0d3d da9d 10bb cfc8 e13c 4ee2 2dbd
000002a0: 561c 263d cd5c 1fbd 6be8 27bd 2d50 f03c
000002b0: 3e85 2cbc ce72 bb3c 7af5 2bbd e381 fc3c
000002c0: 1f8e 2e3d c85d 033c aea0 0a3d ae9b 31bd
000002d0: ebfa 92bc 403f 093c b266 b33c 6879 08bd
000002e0: eda9 063d 7e59 abbc 79fe 07bd e491 833b
000002f0: 8c1b 3cbd b746 41bd 6935 5c3c 5feb 7c3c
00000300: 8dd6 4e3c 7db9 3fbc 3206 2cbd aff3 3bbd
00000310: 5082 2a3d 334a 48bd 3399 033c 6adf 0a3d
00000320: 31c5 fe3c 1539 01bd b5dc babc 2ae4 2dbd
00000330: 7272 c93c fa4f 59bd fa4e 4fbd 46e6 f8bc
00000340: 9f1c 0d3d 9769 e33c 3c6e ea3c a5d4 ff3c
00000350: 9a54 d9bc eefc 06bd cbd7 01bd fbe2 303c
00000360: 27b7 473c 4b9a 5a3b e0de 2ebd 82d5 1d3a
00000370: c8dd 0abd 87c3 83bc db18 71bc 7bf0 15bb
00000380: aa81 4cbd 52b7 213d f586 e5bc 7132 873c
00000390: d9c0 e33c 2e0c c23c e54f e83c c759 df3c
000003a0: c48d f23c 0f4d 983b 9083 c83c ae4c debc
000003b0: e72e 07bd 86d4 a43c 8b9e d13b 988d 07bc
000003c0: 87a7 49bd 0600 3c3c 0490 003d 18af 4ebc
000003d0: 8078 7a3b da87 773c dfaa 63bd 1ef3 73bc
000003e0: 8147 c9bc 64cf 01bd 347d c43c f323 3a3d
000003f0: 9725 923b c48f e33c e871 26bd 1c36 f93a
0.030571612 -0.037064224 0.022909286 -0.03373844 -0.009728895 -0.031044642 0.034198005 0.028329853
-0.0037499892 -0.0040736343 -0.02491468 -0.033636022 -0.02318914 0.012240329 -0.01616969 0.026944386
0.0007060599 -0.0053889914 -0.03619912 0.014779153 -0.052071013 0.0044483263 0.011854283 0.0054362416
0.031421065 0.0067052534 -0.018252948 -0.04199262 -0.05153917 0.01907502 0.021560399 -0.044275165
0.008244118 -0.025133524 0.037880898 -0.024152225 0.034222625 0.028463947 0.031263065 0.029376986
0.010146723 0.011737003 -0.049793504 -0.0173215 -0.013000071 0.017062869 -0.024040254 0.01863463
0.02698638 0.016629387 0.01961953 -0.010013095 0.01769919 -0.022676082 0.0429459 -0.0077973683
-0.009408825 -0.047462612 0.040843032 -0.0140458485 0.03008218 -0.038243644 -0.048897743 -0.007051495
-0.0434447 0.005919491 -0.005222311 -0.024989113 0.024404913 0.025828596 -0.04939309 -0.04698173
0.025318835 -0.034954734 0.0065895985 -0.019392084 0.0036746622 -0.03437913 -0.004770071 -0.024751741
-0.026694894 -0.029373057 0.0050992174 0.025661035 -0.008414917 -0.007775645 0.034425326 0.032990217
-0.013809175 -0.047288403 0.008113071 0.009108648 -0.046021402 -0.051477488 -8.149726e-05 0.0417661
-0.049016632 -0.030794874 -0.02313588 -0.04859986 -0.03770252 0.038733263 0.030970974 -0.03810077
-0.0071318108 -0.047030248 0.015042738 -0.04049489 -0.031647176 -0.028562462 0.0006231198 0.032608993
-0.027112754 0.0021684822 0.03528188 -0.008448949 0.00043074993 -0.0020804321 -0.00823833 0.028778063
0.020067802 -0.031788137 0.04573442 0.022778949 -0.0131231975 0.03549739 -0.0015965372 0.027376587
-0.04896838 0.040044587 0.04023246 -0.03494935 -0.05121275 -0.017381607 -0.03630497 0.0068872767
0.015270411 -0.008385815 0.030700373 -0.0048643183 -0.018547706 -0.05024655 0.00958578 -0.053078115
-0.0073962836 0.001781161 -0.031236945 0.009104191 0.0033033965 0.032324027 0.024252454 -0.047257572
-0.0435623 -0.024321735 -0.040705204 0.008865239 -0.03835224 -0.044803903 0.0071533704 0.025675032
-0.021147983 -0.048435017 0.00033905907 0.019595599 0.034655403 -0.0022066743 0.027561573 -0.04245215
0.040554367 -0.03890686 -0.040993135 0.029335106 -0.010529814 0.022881892 -0.04198215 0.030823654
0.042616006 0.008017965 0.033844642 -0.04336136 -0.017941913 0.008376896 0.021899555 -0.033318907
0.032876898 -0.020916697 -0.03320167 0.0040151943 -0.04592471 -0.04718658 0.013440468 0.015436976
0.012624395 -0.011701939 -0.041998096 -0.04588669 0.041628182 -0.048898887 0.008032131 0.03390447
0.031099888 -0.03154858 -0.02281032 -0.042453922 0.024590705 -0.053054787 -0.050612427 -0.03038324
0.034451123 0.02776031 0.028617017 0.031229327 -0.026529599 -0.032956056 -0.031699937 0.010796304
0.012189663 0.0033356126 -0.04269302 0.000602089 -0.033902913 -0.016084446 -0.014715399 -0.0022878933
-0.049928345 0.03948147 -0.028018454 0.016503545 0.027801918 0.023687448 0.02835841 0.027264489
0.029608615 0.004647858 0.024476796 -0.027136173 -0.033003714 0.02012087 0.0063970736 -0.008273505
-0.049232032 0.011474615 0.031387344 -0.012614988 0.0038218796 0.015108073 -0.055582877 -0.014889507
-0.024570229 -0.031691924 0.023985483 0.04544444 0.0044600475 0.027778514 -0.040635973 0.0019013318

shared.2.bias f4 [300]
00000000: 72fe d93c 6723 f53c 57d5 a53d a584 013b
00000010: 1cfa f33c 15f8 1b3d da60 923d f22c ba3b
00000020: a98a 653d b902 25bb 5e26 ac3c 8a61 1cbd
00000030: 277d 28bd 9d90 953c 80b5 883d c609 543d
00000040: 5188 de3b 1737 2f3d 9372 353d 5de2 22bd
00000050: 89bc aa3c 64a3 0b3d 3e30 373d c31d f2bb
00000060: 2bbb 2bbc 5f02 46bd 6080 953d 1631 163d
00000070: 5171 f03c 7644 913d 7bf7 23bd 78c4 8a3b
00000080: 69bc 38bb d7a2 243d 5977 16bd cd73 ecbc
00000090: 7f9b b03d 6e59 793b c158 1a3d 4cff 803b
000000a0: 48db dfbc 0286 9c3c 9a94 46bd 0543 523c
000000b0: 426b 1e3d 39ef 893c 551f 993c 11e5 ed3c
000000c0: 2777 48bc 1f49 433d 4d20 593c b068 c93c
000000d0: c8da ae3d 74b2 9c3d be1c 41bd f3fc 9d3d
000000e0: 86cb babb f951 52bc c4ff 073d 2ee8 a0bb
000000f0: 9640 023d ec8e b23c cafb 443d 56f5 cf3c
00000100: 0422 c1bc 67f5 91bb 18f5 403d b19f 4a3d
00000110: 9a04 19bc 25d7 f7bc 666f 15bc d299 0c3d
00000120: 23b1 073d bac6 12bc 07fc c4bb 6a7f cf3b
00000130: 345a ea3c a380 84bc 36ef 843c 6f5f 26bb
00000140: e2d9 a63d cfb5 1a3d ced8 183d b3f6 ab3d
00000150: 40db fc3c e5af 273d 6a8b 913d 0786 00bb
00000160: 98c7 b83b 317c 5e3c 6e4e 723b 1e1c a43d
00000170: e7c8 c0bb bbcc 0c3d 714c 973b 0152 98bc
00000180: b93c 913d b1b4 9e3c 6fa2 173d 195c fa3b
00000190: 34ec 39bc 1867 4d3d 4e34 cb3c 5f46 de3b
000001a0: 2c2d 9b3d 2941 30bd f31d 7d3d 093f bf3c
000001b0: b398 f73c 25fc b93d 3a67 973d 636e 0d3c
000001c0: b0e6 6e3a 3f74 183d b02e 3dbc fed1 b03c
000001d0: 7cfb f8bc 36a1 7b3c 0145 123d d338 3bbc
000001e0: 95b0 ef3b 80ee 023c a8b3 f93c aade 833d
000001f0: 4a5d 1d3d 1fe3 143c 5a52 993b 7741 ffba
00000200: e9b1 053c 8b12 ef3c 9330 2b3c c01e f83c
00000210: 3c4e 53bd 731c 8e3d 28bc 1a3d b364 4e3d
00000220: e25e 143d ee6a 683d 2aae eb3c efbb 1ebd
00000230: b902 793c 1cd5 933c 09ec e83c a763 793d
00000240: a617 2bbd 05cc 863d 26b6 993c f049 373c
00000250: a099 053d b2a2 2b3d bec1 99b9 76fc a73d
00000260: 744f b43c 8cb1 ffbb 349f b43c de07 453c
00000270: a7a4 c4bc 4295 ee3c 6262 6c3d 951e 003c
00000280: 454d 0c3d eb9a 96b9 3301 193d 621a d83c
00000290: d7bf 10bd 090e 3d3d 3d70 99bb 3a60 263d
000002a0: 946f 353d ae67 e3bc 171c 8e3d 9231 5a3c
000002b0: d902 b23d 369c 843d 8d02 8a3d 51f3 0f3d
000002c0: c92c 043d feb0 8f3d 5849 1a3d 2ff2 853d
000002d0: d1f9 fa3c 272f b83b 79cd c03c 12b8 ed3c
000002e0: 9c9e a53d 7a72 f63c fae5 b63d 6a47 d73a
000002f0: e17f 723d 57eb 893d a997 393c e2c7 9e3d
00000300: 97ea 213c b0e0 bfbc c651 833c 1bc6 8b3c
00000310: 058f e5bc cd3e a53c a86d 0bbd 9c60 ae3b
00000320: 9cae 563d a8c9 893d dd2a 233c 9865 4cbb
00000330: 4648 eebb 15fc 33bd 281a dabb f158 f33c
00000340: 94e7 853c 17d8 9d3d 4c34 cfba d783 403c
00000350: ee27 06bd 7fc2 13bd 7a81 e23c 1619 3c3d
00000360: ce82 433b 2c04 5e3c f4ef a93d b296 8b3d
00000370: b6be 583c 6f7b b13c aeb1 063d 572e 43bc
00000380: 270c 893d 2720 59bd df9d 8d3c 2611 6bbc
00000390: b925 eebc 3a3a 503c de13 283d 8ca3 a3bb
000003a0: 32b3 48bd 0d7c 543b 11c7 403c 38cd cbbc
000003b0: 9a94 823d 75d0 29bd 2b4c 48bb 28ff 043d
000003c0: d7d1 f83b 2c0d 8f3d 1b42 463c bd0a ae3d
000003d0: 2ad3 013c 6b05 123c 5791 a7bc abd5 a53d
000003e0: 845d 23bd c822 98b9 cd0b be3c ca5e 9dbc
000003f0: 6f66 7b3d 5be1 6abc d5d7 953d 1e87 90bc
0.026610587 0.029924108 0.08097332 0.00197629 0.029782347 0.038078386 0.07147379 0.0056816274
0.05604044 -0.0025178625 0.021014389 -0.038178958 -0.04113498 0.018257434 0.066752434 0.051767133
0.0067911525 0.042777147 0.04429872 -0.039766658 0.020841854 0.03409137 0.04472374 -0.007388802
-0.010481636 -0.048342105 0.07299876 0.036667906 0.029350908 0.07093136 -0.040030938 0.0042348467
-0.0028188473 0.04019436 -0.036734913 -0.028863812 0.086234085 0.003804769 0.0376823 0.0039366838
-0.027326241 0.019106869 -0.04848156 0.0128333615 0.038676508 0.016837703 0.018691698 0.029039891
-0.012235439 0.047677156 0.01325233 0.024586052 0.08537823 0.07651225 -0.04714655 0.07714262
-0.0057005314 -0.012836927 0.0332029 -0.0049104905 0.031799875 0.021796666 0.048091687 0.02538554
-0.02357579 -0.004454303 0.04710874 0.0494687 -0.009339476 -0.030253956 -0.009120798 0.034326382
0.033127915 -0.008958513 -0.0060114893 0.0063323276 0.028607465 -0.01617462 0.016227346 -0.0025386473
0.081470266 0.037771042 0.037316136 0.083966635 0.030866265 0.04093923 0.07106669 -0.0019611137
0.005639028 0.013579414 0.0036973017 0.080131754 -0.0058833244 0.034374934 0.004617267 -0.01859379
0.0709166 0.01937327 0.037020143 0.0076403734 -0.011347819 0.050147146 0.024805214 0.006783291
0.07576975 -0.04303089 0.06179614 0.023345487 0.03022418 0.09081296 0.07392736 0.008632275
0.00091133546 0.037220236 -0.011546776 0.021584507 -0.030393355 0.01535826 0.03571034 -0.011427122
0.0073147514 0.007991433 0.030481175 0.06438954 0.038419046 0.009087353 0.0046790065 -0.0019474466
0.008160093 0.029183647 0.010448593 0.0302881 -0.051588282 0.0693902 0.037777096 0.050389003
0.0362233 0.0567426 0.028769571 -0.038753446 0.015198403 0.018045954 0.028432863 0.06088605
-0.0417706 0.065818824 0.018763613 0.011187062 0.03261721 0.041903205 -0.00029326783 0.0820245
0.022010542 -0.0078031477 0.02204857 0.012025801 -0.024004294 0.029123906 0.057711013 0.007819791
0.034253377 -0.00028725652 0.03735466 0.026379768 -0.035339203 0.046155963 -0.0046825693 0.040619113
0.044295862 -0.0277594 0.069389515 0.013317483 0.086919494 0.06475107 0.06738768 0.035144154
0.032269273 0.070161805 0.037667602 0.065403335 0.0306367 0.0056208554 0.023535477 0.029018436
0.08086893 0.030083884 0.08930583 0.0016424481 0.059203986 0.06734341 0.0113276625 0.07752968
0.009882591 -0.023422569 0.016030204 0.017062237 -0.028022299 0.020171547 -0.034040123 0.0053215753
0.052412614 0.06727916 0.00995895 -0.0031188484 -0.0072717993 -0.043941576 -0.00665595 0.029705497
0.016345777 0.077072315 -0.0015808432 0.011750183 -0.032752924 -0.036074158 0.02764963 0.04592236
0.0029832604 0.013550799 0.082977206 0.06815852 0.013229063 0.021665303 0.032884292 -0.011912904
0.06691771 -0.05300918 0.017287193 -0.01434735 -0.029070722 0.012709195 0.04103457 -0.0049938615
-0.04899902 0.0032422573 0.011766211 -0.02487813 0.06376 -0.041458566 -0.0030562978 0.0324699
0.0075933742 0.06984934 0.012100722 0.08498142 0.007923881 0.008912425 -0.020455046 0.080973946
-0.039884105 -0.00029017613 0.023198986 -0.019210238 0.061376985 -0.0143359555 0.07316557 -0.017642554

mu.weight f4 [4, 300]
00000000: c2f6 48bd 21ee 75bd d089 bcbc d1ac e6bb
00000010: 3b55 7ebc e261 873c 3792 163d 34c1 4e3d
00000020: 44d4 413d d7af 82bc 9851 e53c 7875 ff3c
00000030: e14d dd3b 82eb 2fbc f1a5 483c 02a4 39bd
00000040: c65f 56bc e661 403c a365 80bd d9b4 26bd
00000050: afb9 56bd 5adb 553d 860e 50bd 6f50 373d
00000060: 41bd 3bbd 4115 51bd 9a00 153d 0855 3d3b
00000070: 823b 353d f598 babc c4eb d1bc 2824 03bd
00000080: 4732 ff3c 77ab bb3c 38d2 bb3c d7d6 3fbd
00000090: d53f 92bc 3c9c 563d 3ad3 a9bc ecea 8abc
000000a0: ffb4 6f3c 24b0 90ba 8c35 593d 1995 2e3d
000000b0: 49bf 0ebb bee4 743c b1b0 09bd f5b8 80bc
000000c0: 0fc7 3fbd d7ea 3d3d 49ad 4bbd 8d4b 1cbb
000000d0: 0238 0a3d fb9a a7bc 8f2a 0c3d 928e 29bd
000000e0: 297d 00bc 82dc 003d 3167 433d 6d1a 2abd
000000f0: 4e8f 803c bc98 9abc 1dcd 07bd 33c7 4f3d
00000100: da64 383d 26ee 2fbd 05ab c7bc cdb1 17bd
00000110: 930f e93c a4ae 08bc 037e 46bd ca9f 5dbd
00000120: 2957 c7bc 142e 0d3d 849f 8bbc 1bb6 1e3d
00000130: 384a 55bd b304 063d bb44 e93c 4ffa 133d
00000140: 2a13 053d 5fb6 c83c 5140 febb 0e10 efbc
00000150: f06b 853c 22e9 20bd 3010 1fbc 3dd8 eb3c
00000160: a181 813c 47cd 41bd 621b 273d 7d61 75bd
00000170: 027c 77bd a57d 283d fe60 e9bc d833 073c
00000180: 7e08 00bd 8c63 d83c a87d 573d ef17 f33c
00000190: 65f2 87bd 690b 34bd 0785 5abd 9792 393d
000001a0: 7b7c 123d 4f15 91bc 9b8a c13c 346c 2b3d
000001b0: 8d1d a6bc b57d 5fbd 8349 2ebc 030b 90bc
000001c0: c06d 32bc 0d7c 9ebc d35d 553d 6934 2e3c
000001d0: 47d2 603c 1e82 d13c 3428 3abd 39d9 14bd
000001e0: 63f9 a83c 4a3d 66bc bb56 59bc 1a00 7abd
000001f0: 246c e2bc 0799 3c3c 5b5e eab9 f289 0abd
00000200: fb5e 32bd e9c6 5abd fac3 7bbd 6b2f 34bc
00000210: 6533 f53c 6224 af3b 3799 433d ad52 e9bc
00000220: 6145 113c 55cc 3fbd 176a 483d 668a b03c
00000230: 3b2e 42bd 134b fbbc 3f11 a4bc d213 80bd
00000240: 2b9e 82bb f496 81bc e458 d83c 22d9 393d
00000250: e114 353b 8467 38bc fc45 dc3c f467 cdbc
00000260: 846e c7bc dffc 803c e041 77bd 3fa9 c0bc
00000270: ec57 463d d583 c3bc 1957 313d 2f7f 80bc
00000280: f261 e9bc 680d 573d 21e1 74bd 7315 543d
00000290: 2277 12bd ba93 2fbd a1de 58bd cf53 87bc
000002a0: f248 f43c 36dc 17bb d4c9 7cbd bb5d 6fbd
000002b0: 64c9 0cbb 7765 2b3d 49ba 373d 3ddf 57bd
000002c0: 7a39 8cbc 12e5 853c 8f5f 77bd 9612 09bd
000002d0: ed1e 4f3d 51ff d23c f65e 7c3c 8bb3 4f3c
000002e0: 7cb3 133c f09d 27bc 17d7 80bc 6607 70bd
000002f0: 8e23 333d 9538 e23c f4df 5ebd 890c 6c3c
00000300: ae5e 09bc d4e9 363b 4f59 00bd de63 063d
00000310: 8a5a 3d3d 790a 253d f418 38ba 6aac 353d
00000320: bebc 0cbd 789f 2bbc 8a87 8abc d185 b3bc
00000330: 1db4 5c3c d6e9 ec3b 314a 223d 145b 5abd
00000340: f301 afbc d2d5 91ba 7323 de3c 1453 103d
00000350: 8109 44bd 4807 34bc 46d5 2f3d 7d8b 64bd
00000360: a243 96bd b557 243d 8a3e edbc 1cf8 d8bc
00000370: 37fb 2cbd 199d bb3b 5608 0eba 5883 49bd
00000380: 9d9a 35bd 99cc 1cbc 8a0f 533c 1f3c 31bd
00000390: 694c ecbc 770e f93b f097 523d 772f f03c
000003a0: ed79 6f3c 2459 2ebd c245 59bd 5851 98bc
000003b0: 0c78 1dbd cfa8 34bb 3f4b fbbc a5b5 b43b
000003c0: 59f1 823c 651d 523c 081b 193d 9b40 153d
000003d0: eb7f dcbb c0b5 223c acf5 69b8 f2b2 2a3d
000003e0: cf60 38bd db8a 983c f8e7 493c 6754 33bd
000003f0: 79ce 8d3c 6d77 3c3d 90ec 4fbd 96b9 92bc
-0.04906345 -0.06004155 -0.023014933 -0.0070396443 -0.01552325 0.016526166 0.036760535 0.05047722
0.047321573 -0.015952988 0.027993008 0.031183943 0.0067536687 -0.010737302 0.012246595 -0.045322426
-0.013084358 0.011742091 -0.06269386 -0.040699814 -0.052423175 0.052211143 -0.0507951 0.04475444
-0.045834783 -0.05104566 0.036377527 0.0028889794 0.044246204 -0.022778014 -0.025625117 -0.032016903
0.031151904 0.02290891 0.022927389 -0.046835747 -0.017852703 0.05239509 -0.020730603 -0.016957723
0.014630555 -0.0011038822 0.053029582 0.04262266 -0.0021781495 0.0149471145 -0.03361577 -0.015713194
-0.046820696 0.04636654 -0.049725804 -0.0023848743 0.03374482 -0.020459643 0.034220275 -0.04139573
-0.0078423405 0.031460293 0.047705833 -0.041529108 0.015693333 -0.018871658 -0.033154596 0.05072708
0.045018055 -0.042951725 -0.02437354 -0.0370348 0.02844981 -0.008342419 -0.048460018 -0.054107465
-0.024333553 0.03446777 -0.017043836 0.038747888 -0.052072734 0.032719325 0.028475156 0.036127385
0.03248898 0.024501024 -0.007759132 -0.02918246 0.01628682 -0.039284833 -0.009708449 0.028789634
0.015808882 -0.04731491 0.0407976 -0.059907425 -0.060420997 0.04113545 -0.028488632 0.008252107
-0.0312581 0.026414655 0.05261007 0.029674498 -0.0663803 -0.043956194 -0.05334952 0.045305815
0.035763245 -0.017710356 0.023625663 0.041851237 -0.020277763 -0.054563243 -0.010637644 -0.017583376
-0.010890424 -0.019346261 0.05209143 0.010632613 0.013722009 0.02557474 -0.045448497 -0.036339972
0.02062673 -0.014052698 -0.013265307 -0.061035253 -0.027639456 0.011511094 -0.00044702258 -0.03382296
-0.04354761 -0.05341235 -0.061466195 -0.010997633 0.029931733 0.0053449133 0.04775354 -0.028481806
0.008866639 -0.046825726 0.0489293 0.021550369 -0.04740737 -0.030675447 -0.020027755 -0.062537804
-0.0039861402 -0.01581905 0.026409574 0.04537309 0.0027630853 -0.011255149 0.02688884 -0.025073983
-0.02434469 0.015745578 -0.060365558 -0.023518203 0.048423693 -0.023866573 0.043295953 -0.015685646
-0.028489087 0.05250302 -0.059785012 0.051778268 -0.035758145 -0.042865492 -0.05294669 -0.016519455
0.02981994 -0.0023172027 -0.061715916 -0.058438998 -0.0021482343 0.04184481 0.04485539 -0.05270313
-0.01711725 0.01634458 -0.060393866 -0.03346499 0.050566602 0.02575651 0.0154035 0.012677084
0.00901496 -0.010230526 -0.015727563 -0.058600806 0.04373508 0.027614871 -0.054412797 0.0144072855
-0.00838439 0.0027910369 -0.03133517 0.032810085 0.046228923 0.04029319 -0.0007022761 0.04435388
-0.034359686 -0.010475032 -0.016910333 -0.021914395 0.013470677 0.007230024 0.039621536 -0.053309515
-0.021363234 -0.0011126345 0.027116513 0.03523548 -0.047860626 -0.010988064 0.042928003 -0.05579709
-0.07337119 0.040122706 -0.028960485 -0.026485495 -0.042231765 0.0057255146 -0.0005418112 -0.049197525
-0.044336904 -0.009570264 0.012882123 -0.043270227 -0.028845029 0.0076006013 0.05141443 0.029319508
0.014616472 -0.04256548 -0.05304504 -0.018593475 -0.038444564 -0.0027566438 -0.030675529 0.005514818
0.015984224 0.012824391 0.037379295 0.036438566 -0.006729116 0.009931028 -5.578033e-05 0.04167456
-0.0450142 0.018620899 0.012323372 -0.043781664 0.017310368 0.04601233 -0.050762713 -0.01791076

mu.bias f4 [4]
00000000: c753 28bd b6af 303d 2994 b33c b419 213d
-0.04109552 0.04313632 0.021921234 0.039331153

value.weight f4 [1, 300]
00000000: 3e34 8abc 2b73 8c3d 652f dc3d 70d4 9e3d
00000010: dbc0 c43d ab45 e2bc 20d1 803d 480c 48bd
00000020: 64f3 803d f046 3dbd 6d30 58bd a3fb dfbc
00000030: c345 06bd 803e 8f3d 8215 883d df27 8b3d
00000040: 247c 8c3d 3148 d83d 52c4 9d3d edfb 00bd
00000050: be25 00bd 18f0 43bd 470e c53d aa98 d43d
00000060: 8a62 35bc 8e9a e6bc 1fa4 6c3d f222 b7bc
00000070: efea a73d 3fdb 9a3d fa02 f1bc 9535 aabb
00000080: 3dbc 43bd 0084 c5bc 51ab 7abc c440 01bd
00000090: 3895 773d 73f7 323d 4bd1 703d 527c 9d3d
000000a0: 1eee 09bc a169 36bd 9c61 9ebc b68a d23d
000000b0: 747e 18bd 4d1d d1bc d244 0ebd 85f8 d43d
000000c0: 2674 023b d066 8f3d ca2c 86bc 474e cc3d
000000d0: ffb3 b13d d29f 873d c674 24bd a4e9 a13d
000000e0: c369 d33d ffc4 f4bc 6d7e 903d d861 4bbd
000000f0: 62dc 88bc 83c6 d8bb 98a1 9c3d 11ed d9bc
00000100: 6a5f 393b 3fc7 bf3d e6e9 bc3d 690c 933d
00000110: 90cb 02bd 2e6e ef3b b891 e3bb c5ce eebc
00000120: 52d7 d43d f592 12bd bc97 47bd 3090 9b3d
00000130: a68f 833d 54cf c8bc 4fb2 cf3d 5aa3 cd3d
00000140: be41 e13d 3a48 8e3d 2834 a03d 5a7d 6e3d
00000150: 5a10 423d ab72 da3d 3c4c 9f3d 8105 29ba
00000160: a4b6 863d cf43 48bd 3624 ca39 230a 8c3d
00000170: 8171 d23d 513a a43d ee8f b33d c7e6 5bbc
00000180: d59b b93d 1644 b4bc a551 aebc 8b7b b33d
00000190: f92d 6d3d e8a8 d53d 1d70 b63d a690 a8bc
000001a0: 2bd4 7f3d 8b8c 81bc 67b6 853d 3061 943d
000001b0: f348 a23d 607c b43d be54 d03d b53c 90bc
000001c0: ce27 933d e0b0 d83d da35 62bc 7a9a 583c
000001d0: 404a 9abc 0a6f 2ebd 6565 1fbd 36fc f2bc
000001e0: 541e 973d 29e4 17bd be05 9a3d e9ac c63d
000001f0: 6c2f cebc 5c5d 4cbd 1b55 2fbd fcdc 683d
00000200: 19d0 a63d 6c41 b73d cfb8 ce3d 048c cd3d
00000210: 4912 a2bc 2c9b 8e3d 021e 3d3d 7d7c ce3d
00000220: 2a90 2fbd 53f0 6b3d d99e cfbc d4be edbc
00000230: 4cd4 843b ee15 ce3d 483c ca3d 5a5f d43d
00000240: 13b3 21bd 431f c33d 080b 40bd bdb7 4e3d
00000250: bcd2 943d dff9 e8bb 959b 993d b79e 4d3d
00000260: 06ab 8a3d 2007 9fbc c32e 6b3d b964 fbbb
00000270: 14da 30bd 200c cc3d ce31 c63d aa1d c23d
00000280: 83bb 813d 0785 a7bc a7ad 963d a667 b43d
00000290: cb59 babc e20a c43d db43 cf3d da56 c23d
000002a0: 8e88 943d 73b2 37bd 38ac c93d b69f 3b3d
000002b0: 1468 843d f0d6 993d 059e bc3d 382a 2a3d
000002c0: bb1a d3bb 4aa3 8f3d ec68 56bd c53f 9c3d
000002d0: f8fd 953d b086 b23d a836 6a3d bf9d 8e3d
000002e0: beab 8f3d 2691 91bc b578 993d 9961 983d
000002f0: 89f0 bc3d 4f70 563d a7fc b9bb caf5 893d
00000300: 0e41 2abd 4b8c 0fbd 12d3 a03d 556c 06bd
00000310: 82ad 20bc d3ed 763d 70d0 d6bc dcc7 733d
00000320: a51c db3d 774a d73d 488a 633c d0d2 a0bc
00000330: 1a86 1ebd dbee dfb9 f75a ffbb dff0 9e3d
00000340: 7d83 8d3d dddf d53d bc79 5a3d b53f b53d
00000350: f89b 61bc 326c 1e3b f07f 9b3d 26f7 823d
00000360: 2331 c43d 087d e2bc 5fda 623d 3dac c33d
00000370: 62d9 873d 5eeb c93d dd5f a4bc 2e04 7ebc
00000380: 2841 953d 8bff a33b 2d9f 4bbd bf2a 3fbd
00000390: 7f2c 77bc 8a91 3739 b7af d63d 1ca0 19bd
000003a0: 277a 9cbc 1189 0cbd 79d0 ad3d fb96 b13c
000003b0: dbe2 8b3d ab02 073b a28e 743d 1884 d93d
000003c0: abdd 993b 3bc3 953d 30a8 c93d 55f1 d93d
000003d0: 5d54 bd3d 42f2 aa3d 1f2b d5bc 513d ba3d
000003e0: 7e19 4fbd 9c59 813d 81ee d53d 7a45 a6ba
000003f0: 3ae1 673d d7ab 153b 5a90 7e3d 1e96 cdbc
-0.016870614 0.06857904 0.10751227 0.07755363 0.09607097 -0.02762111 0.062898874 -0.048839837
0.06296423 -0.04621023 -0.052780557 -0.02734167 -0.032781374 0.06994343 0.06644727 0.06794714
0.068596154 0.105606444 0.07703461 -0.031490255 -0.031285994 -0.047836393 0.09621864 0.10380681
-0.011070857 -0.02814987 0.057773706 -0.02235553 0.08199107 0.07561349 -0.029420365 -0.0051943758
-0.04778694 -0.024110794 -0.015299634 -0.031555906 0.06044504 0.043693017 0.058793347 0.07689728
-0.008418588 -0.04453433 -0.019333653 0.10280363 -0.03722997 -0.025526667 -0.0347336 0.10398964
0.0019905656 0.07002032 -0.016378779 0.09975868 0.0867691 0.0662228 -0.040150426 0.079058915
0.10322907 -0.029879091 0.07055364 -0.049653858 -0.01670665 -0.0066154613 0.07648009 -0.0266023
0.002828563 0.09364175 0.092243 0.071801014 -0.031932414 0.0073068356 -0.0069448613 -0.02915133
0.103926316 -0.03578468 -0.04872869 0.07595861 0.06423883 -0.024512924 0.101414315 0.100409225
0.109988675 0.0694737 0.07822448 0.058225013 0.047378875 0.106664024 0.077782124 -0.00064476585
0.06577805 -0.048892792 0.00038555422 0.06837871 0.102755554 0.080189355 0.08767687 -0.013421721
0.09062926 -0.022005122 -0.021279166 0.08763798 0.05790517 0.10432607 0.08908103 -0.020576786
0.0624582 -0.015814086 0.06528931 0.072450995 0.0792407 0.08812785 0.10172413 -0.017607072
0.071853265 0.10580611 -0.0138067845 0.013220424 -0.018834233 -0.042586364 -0.038915057 -0.02966128
0.073788315 -0.037082825 0.075206265 0.09700949 -0.025169097 -0.049893722 -0.042805772 0.056851372
0.0814516 0.08948025 0.10093843 0.100364715 -0.01978411 0.069631904 0.046171196 0.10082338
-0.042862095 0.057602238 -0.0253443 -0.029021658 0.004053628 0.100627765 0.09874779 0.10369749
-0.03947742 0.09527447 -0.04688552 0.050468195 0.07266757 -0.007109865 0.07500378 0.05020019
0.067709014 -0.019412577 0.057417642 -0.007671919 -0.043176726 0.0996325 0.09677468 0.09478314
0.06334593 -0.020449175 0.0735734 0.08808832 -0.022747895 0.09572388 0.10120364 0.09489222
0.07252608 -0.044847917 0.09847301 0.04580661 0.06465164 0.07511699 0.09209827 0.04154417
-0.0064423955 0.07013567 -0.052346155 0.076293506 0.07323831 0.08717096 0.05718103 0.069636814
0.07015179 -0.017769407 0.07493726 0.0744049 0.09225566 0.0523532 -0.0056758705 0.06736334
-0.041565947 -0.035045903 0.078527585 -0.032818157 -0.0098069925 0.0602854 -0.026222438 0.059516773
0.10698823 0.1051225 0.013887949 -0.019631773 -0.038702108 -0.00042711836 -0.0077928263 0.07760786
0.06909845 0.10443089 0.05333875 0.08850042 -0.013770096 0.0024173376 0.075927615 0.06394796
0.095796846 -0.02764751 0.055384036 0.09554336 0.06633259 0.09859346 -0.020065242 -0.015503926
0.07287818 0.0050048283 -0.04971235 -0.046671625 -0.015086292 0.00017506458 0.10482734 -0.037506208
-0.019101216 -0.034310404 0.08487029 0.021678438 0.068303786 0.0020600955 0.059706338 0.10620898
0.0046956143 0.07312628 0.09846532 0.106417336 0.09244607 0.08346988 -0.026021538 0.090937264
-0.05056142 0.0631592 0.10445882 -0.00126855 0.056611277 0.002283802 0.062149383 -0.025095996
